model_fold_3.pth (torch, 63878 bytes, 14 tensors)

conv1.att_src f4 [1, 1, 64]
000000 aa 29 3c be 52 ca 1c 3e ac f3 0a bd 29 99 52 3e
       -0.18375269 0.15311554 -0.03392379 0.20566238
000010 72 73 10 bd e2 3f 82 3d b0 8c 6b 3e 00 ad c7 be
       -0.035266347 0.06359841 0.23002887 -0.38999176
000020 23 38 b6 be 9b 9e 2c be 0a ed 90 3d ff 4e 62 3e
       -0.35589704 -0.16857378 0.070764616 0.22100447
000030 b5 e9 67 be 47 d4 b8 bd db 5b 2e be d5 bd 90 be
       -0.22647746 -0.09024864 -0.17027228 -0.2826983
000040 da ad 05 bf 12 2c 88 3e 65 7c a7 be a1 22 41 3e
       -0.522184 0.26596123 -0.32712093 0.18860866
000050 65 12 5c be f2 83 06 3f b0 10 05 be 5c 82 00 3f
       -0.21491392 0.5254508 -0.12994647 0.5019891
000060 28 05 57 be 01 f4 09 be 57 e7 b9 3e c0 80 7e 3e
       -0.2099806 -0.13471986 0.3630931 0.24853802
000070 88 f3 c9 3d 7f 8b 4f be 1a 7d f3 3c 1e 62 7c be
       0.09860903 -0.20268057 0.029722739 -0.24646804
000080 5f c7 a1 bc 2f 74 78 be 51 d7 a5 3e 39 0b 3e 3e
       -0.019748388 -0.2426307 0.32390836 0.18558969
000090 1d 15 fa 3e 24 e3 87 3e 60 13 8c 3c ee 7f b6 3e
       0.48844233 0.26540482 0.017099082 0.35644478
0000a0 08 8a c3 3d 59 86 a7 3e 0b 44 60 3e d2 ec 8f 3e
       0.09547812 0.32719687 0.21900956 0.28110367
0000b0 d3 6e b8 3e ea 41 83 be 6f 4a 7d 3e 00 f2 06 bd
       0.36022052 -0.25636226 0.24735425 -0.032945633
0000c0 39 6a 8b 3e 35 53 1f be e3 b7 dd bd 95 cc 54 3e
       0.2722948 -0.15559085 -0.10826089 0.20781167
0000d0 cf 77 90 3e 56 16 00 be 26 dd 53 be da a4 df be
       0.28216407 -0.1250852 -0.2068983 -0.4368046
0000e0 0e 73 54 be ca 2e 10 3f 3e 02 dd be 52 2b 49 3d
       -0.20747015 0.56321394 -0.43165773 0.04911358
0000f0 11 3f 07 bd bd a6 f5 bc fb 5d 8f be 06 c5 5d 3e
       -0.03301913 -0.029986734 -0.2800139 0.2165719

conv1.att_dst f4 [1, 1, 64]
000000 18 ff ff bc 2a f6 5f be 38 14 a4 3e 7e cc 7b be
       -0.031249568 -0.21871248 0.32046676 -0.24589726
000010 89 a0 8a be dd fa c8 bc bb 27 e5 bd eb 7e 2c be
       -0.27075604 -0.024533683 -0.111892186 -0.1684529
000020 45 71 ce 3d 89 94 43 be 2c 08 41 be 6d da c5 be
       0.10080198 -0.1909963 -0.18850774 -0.38643208
000030 6c 5e b4 bd 4f 08 9f 3d 7e 7e 25 be d5 79 60 3d
       -0.08807072 0.077652566 -0.16161534 0.054803688
000040 2d 33 aa 3e 5d 73 d1 bb fc 3e 32 bd 8a c1 f2 bd
       0.3324217 -0.006391926 -0.043517098 -0.11853321
000050 45 cb c8 be b4 58 f5 3e 46 50 f0 be bd df 08 be
       -0.39217582 0.47919238 -0.46936244 -0.133666
000060 1f 72 35 be 81 dc 14 3e b2 2f 03 3f 1b 63 95 be
       -0.17719315 0.1453724 0.5124465 -0.29177174
000070 4b f0 84 be 69 31 43 3d 83 44 33 3e c1 2d 3f 3e
       -0.2596458 0.047654543 0.17506604 0.18669797
000080 cf 84 c0 3d 33 89 e3 bd db de 25 be 55 02 72 3e
       0.09400331 -0.11110153 -0.16198294 0.23633702
000090 9a e9 00 3d 61 d6 bb be e3 7e 12 be fe 64 90 be
       0.03147278 -0.36686996 -0.14306216 -0.2820205
0000a0 89 6d 78 3e 2f b9 da 3c b8 2e a7 3e 6d 16 21 be
       0.24260534 0.02669963 0.3265283 -0.15731211
0000b0 71 0f 0a be bc 9b 13 be aa 59 4a 3e d9 19 61 be
       -0.13482453 -0.14414877 0.19760767 -0.21982516
0000c0 23 15 96 bc 89 ae 0a be f5 9e 96 be 01 22 0e 3d
       -0.018320626 -0.13543142 -0.2941815 0.034700397
0000d0 fa 97 0d 3d 25 cb 9d bd 4b a6 ad 3e 28 a8 98 3e
       0.034568764 -0.07704762 0.33915934 0.29815793
0000e0 9a eb 4d 3e 91 af f6 bd f1 30 d5 3d d2 64 cf be
       0.20109406 -0.120452054 0.104097255 -0.40506607
0000f0 9c c9 32 be 31 34 4d be 22 32 b8 bd 67 9b c4 3d
       -0.1745972 -0.2003944 -0.08993937 0.09599953

conv1.bias f4 [64]
000000 50 a8 56 3d 66 9c 0e bc aa 8c 69 bc 30 03 14 bd
       0.05240661 -0.0087042805 -0.014254728 -0.036135852
000010 20 40 83 bb da 15 6e bd ad dd c0 3d 1c 1c 67 bd
       -0.004005447 -0.058126308 0.09417281 -0.05642329
000020 ee e9 59 bb 3f 82 1a 3e 87 01 28 3e 1b fc 8c bd
       -0.0033251005 0.15088747 0.16406833 -0.06884023
000030 08 b1 5d 3d 99 66 ac 3d 90 0c d0 3d 42 e7 7a 3d
       0.05412391 0.084180064 0.10158646 0.0612557
000040 8a fa fd 3d ec 19 7d 3d 4f 03 1a bd 9d 2d 1b 3d
       0.12401302 0.0617923 -0.03760081 0.037885297
000050 87 d0 46 3c 9f 66 90 3c c4 d6 c5 bb 43 c0 f1 3b
       0.012134678 0.017627059 -0.006037565 0.0073776557
000060 08 2e 8c 3d e6 6c 77 3d 03 91 03 3d f4 2f a2 3c
       0.06844717 0.060406588 0.032120716 0.019798256
000070 15 35 b5 bb 0f 4e 20 bc 1a f2 0b 3d 89 82 dc bc
       -0.0055300095 -0.009784236 0.034166433 -0.026917713
000080 56 20 3f 3d 35 bf 81 3d 5c ae 85 3d c5 24 dd bd
       0.046661697 0.06335298 0.06527397 -0.10798029
000090 bd e3 76 bd e5 2a cf 3d 00 96 c5 bb 34 d6 e1 3d
       -0.060275782 0.10115603 -0.0060298443 0.11027184
0000a0 8d 6d f5 3c 57 27 a9 3d b8 5d 04 3d df e4 9c bc
       0.029959464 0.082594566 0.03231594 -0.019152103
0000b0 53 7e 1d 3e ed df 23 3d 83 16 4d bd 32 59 91 3d
       0.1538022 0.040008474 -0.050070297 0.07097091
0000c0 4d af 90 bb 96 6b 1e 3e 80 51 86 bd 85 36 75 3d
       -0.0044154287 0.15470728 -0.06558514 0.059866447
0000d0 27 78 1f bd c2 20 58 3c 6d d0 4d bd 63 c3 f4 3d
       -0.038932946 0.013191404 -0.0502476 0.119513296
0000e0 68 9b cb 3d ef 0d c4 3c 2b c0 bf 3d 57 a9 de 3d
       0.09941751 0.023932425 0.09362825 0.10872143
0000f0 96 c6 eb 3d b2 2f ce 3d 4a f5 09 3c 79 bb be bd
       0.11512487 0.10067691 0.008420298 -0.09313101

conv1.lin.weight f4 [64, 89]
000000 6c 7c 67 bd a9 6e 37 be 00 78 a0 b8 6e 36 f9 3d
       -0.056515142 -0.17913307 -7.651746e-05 0.12168585
000010 c2 b1 38 be 12 62 28 be 54 ab 21 3d f6 76 da bd
       -0.18036559 -0.16443661 0.03947003 -0.10667221
000020 34 48 2c be 6b 91 cf be 94 97 93 3e 92 45 6f be
       -0.16824418 -0.40540633 0.28826582 -0.23366383
000030 59 5f cd be 1f 7a ac 3d 63 c5 3d be 2e f7 21 bf
       -0.40111807 0.0842173 -0.18532328 -0.6326779
000040 c7 6b ef 3c d8 3b 85 be 2d a5 d8 3d c1 33 ac 3e
       0.029226197 -0.2602222 0.1057838 0.33633235
000050 56 1d 99 bc 13 fd 91 bd 0b 62 9f 3e 9f b2 31 3e
       -0.018690746 -0.07128348 0.31129488 0.17353295
000060 81 b2 5a be cb a3 b9 b9 d6 95 32 bd 19 4b 91 3d
       -0.21357156 -0.00035407985 -0.043599926 0.07094402
000070 fc ef 43 3e 67 8a 82 3e da 52 87 be 70 bf 91 3d
       0.19134516 0.25496218 -0.26430398 0.07116592
000080 98 10 bc 3e 9b a7 95 3e 22 71 93 bd 61 16 3f be
       0.3673141 0.29229435 -0.07199313 -0.1866088
000090 47 34 75 bd 82 90 fe bd 43 4f 22 bf 2b 53 81 be
       -0.05986431 -0.124299064 -0.63402194 -0.25258765
0000a0 68 02 5d be b6 a5 34 be 9f 2a 1d 3d 2a df c0 be
       -0.21582949 -0.17641339 0.038370725 -0.3767026
0000b0 87 62 14 3f 9e 43 b0 be d7 b2 73 bd 7f ea bb be
       0.5796284 -0.34426588 -0.059496727 -0.36702344
0000c0 6d f3 bb be f1 fc e5 bc db db c5 be 8a 72 f6 3b
       -0.36709157 -0.028074713 -0.386443 0.0075209783
0000d0 a9 91 d8 3d 55 60 2e 3e ed 54 ad be 08 ab e0 3c
       0.105746575 0.17028935 -0.33853856 0.027425304
0000e0 e6 0c 20 be 97 9a ba be e7 98 61 be 40 23 9a bd
       -0.1562992 -0.36446068 -0.22030984 -0.07526255
0000f0 4e 95 81 be d9 34 c6 bd 5f 4e c9 be 25 94 85 3e
       -0.25309223 -0.09678049 -0.39317605 0.26089588
000100 f9 f4 71 3c 0c d5 37 bd 64 f3 49 be c2 0b b6 3d
       0.014767879 -0.04488091 -0.19721752 0.088889614
000110 f3 fe 28 be a4 6f 6c 3d cc 06 eb bd 65 99 db be
       -0.16503505 0.057723656 -0.11475906 -0.42890468
000120 e6 b8 d6 3d ab c7 ae 3e 95 1e 7c 3e 75 4e 1b 3c
       0.10484485 0.3413671 0.24621041 0.009479155
000130 86 a7 9b be 2e dd 6b bc 46 0f e9 be 3e 47 c1 bc
       -0.30401248 -0.014395995 -0.45519465 -0.023593541
000140 b1 87 c6 be ce 86 91 bd 68 dc 8b be 71 4b c3 bc
       -0.387754 -0.0710579 -0.27316594 -0.023839684
000150 fd 83 57 bd c2 cf ce be 0d 62 03 bf 68 c1 68 bd
       -0.05261611 -0.40392882 -0.5132149 -0.05682507
000160 f8 3e 9d 3e 10 8a 70 bc d3 9e a6 bd 9c 8d 0c be
       0.30712104 -0.014681354 -0.08135762 -0.13725895
000170 30 cd 2d 3d 86 85 ac 3d 9e d0 bb 3d 0c 7d 05 be
       0.04243201 0.08423905 0.0917065 -0.13035983
000180 ac a3 48 be 34 e6 69 bd 76 3c 98 3e 7d 86 ba be
       -0.19593686 -0.057104304 0.29733628 -0.3643073
000190 28 a1 1a 3e 79 cf 1a be 08 4b ab 3d 18 0c cb be
       0.15100539 -0.15118207 0.083639205 -0.39657664
0001a0 17 68 5b be b7 a1 7d bb 9c 94 84 3d 84 b5 6a 3d
       -0.21426426 -0.0038701126 0.064736575 0.057302013
0001b0 45 6b 86 be 3f 03 94 be 00 3f 28 3d c4 b8 b4 3e
       -0.26253715 -0.28908727 0.041075706 0.35297215
0001c0 d4 ba 33 3e a2 bf f5 bc c5 2d b3 be b4 f9 a0 3e
       0.17551738 -0.029998604 -0.34995857 0.31440508
0001d0 13 e9 da 3d c6 b8 3c 3d 4e d5 d7 be 4b 42 9d 3c
       0.10688987 0.04607465 -0.42154926 0.01919665
0001e0 14 c3 c2 3e 45 de 1a bf 09 4b dc 3d e0 21 e4 bd
       0.38039458 -0.60495406 0.10756499 -0.11139274
0001f0 dc f4 f9 3e 17 22 12 3e 3a a8 23 3f cf 98 2a 3e
       0.48819625 0.14270817 0.6392857 0.16659854
000200 a8 27 9f 3c de 24 a1 3e 7c f5 ab be b9 ff c9 3e
       0.01942809 0.3147344 -0.33585727 0.39452913
000210 2d 96 9b 3c 48 cb 68 be 6d f0 fd 3e c6 8c ba 3e
       0.018992508 -0.22733796 0.49597493 0.36435527
000220 1b 02 0a 3f ac ae f2 3e 72 a8 ad 3e 98 44 3e be
       0.5390946 0.4739889 0.33917576 -0.18580854
000230 27 2c c5 bd c7 ab a9 3d 7b 24 95 3d 0d 73 a8 bd
       -0.09627562 0.08284717 0.07282349 -0.08225069
000240 05 01 85 bd 8d 07 bd bc 79 b8 00 bf 32 d8 11 be
       -0.06494335 -0.02307489 -0.5028148 -0.14242628
000250 2e c6 48 bd 43 cf 0a 3e 0a c6 1d bd 10 bb 2d be
       -0.049017124 0.13555627 -0.038518943 -0.1696589
000260 7c 1a 63 3d cb ba b5 be a9 6c 04 3e a0 41 60 3c
       0.05544518 -0.35494074 0.12932076 0.013687521
000270 10 f0 07 be c9 64 00 3e f4 dd 68 3d 47 dd b5 be
       -0.1327517 0.12538446 0.056852296 -0.35520384
000280 f6 c4 b7 bd d9 85 70 be 4e 10 93 bd ac 91 75 3e
       -0.08973114 -0.23488559 -0.07180844 0.2398135
000290 54 f3 f9 3d 64 38 97 be 0a bb d4 ba 2a ea ad 3e
       0.12204614 -0.2953521 -0.0016230058 0.33967716
0002a0 09 2e 15 3e 77 57 89 3b c1 fd 9d be a7 d3 f0 be
       0.14568342 0.004191335 -0.3085766 -0.47036478
0002b0 84 68 57 be 31 82 d3 be 2a 1f 5f 3e c4 8e b3 3d
       -0.21035963 -0.41310266 0.21789232 0.08767465
0002c0 5a 39 33 3e f4 66 3c 3e 92 e2 22 be b8 7b 18 3d
       0.17502347 0.18398649 -0.15906742 0.037227362
0002d0 57 ce fb bd 10 dd 2e 3d 04 39 15 be 8a 56 da 3d
       -0.122952156 0.04269129 -0.14572531 0.10661037
0002e0 10 46 3e bd 9a 79 1c be 01 05 2d be 54 6b 88 be
       -0.046453536 -0.15280762 -0.1689644 -0.26644385
0002f0 32 13 bc be 79 e7 13 3e 91 29 db bd 2f ee ad bd
       -0.36733395 0.14443769 -0.107012875 -0.084926955
000300 27 51 44 bd fc ff 33 3e 75 3d be bc 06 0f 90 3e
       -0.047928955 0.17578119 -0.023222664 0.28136462
000310 83 a5 20 be d4 b5 25 be a9 94 43 be a5 44 8c 3e
       -0.15688138 -0.16182643 -0.19099678 0.27396122
000320 c1 8e d8 3d 6b ff 01 3f 0a 3d f2 bd 6f b9 0a 3e
       0.10574103 0.5078036 -0.118280485 0.135473
000330 93 86 b0 be 88 ec 2a 3d 6e ad 82 3e ce 28 ad be
       -0.34477672 0.04172948 0.2552294 -0.33820194
000340 06 1b 35 bf e1 ce 9c 3d d7 1d fc 3e 04 7e a7 3e
       -0.7074436 0.076566465 0.49241516 0.3271333
000350 a8 b3 8a 3e 74 95 2e be ab 1d 9e 3e cf 04 c8 bd
       0.27090192 -0.170492 0.3088201 -0.09766542
000360 65 5a 73 bc 65 f2 a8 3e f2 f2 cf be 24 f4 12 3d
       -0.014853095 0.32997432 -0.4061504 0.035877362
000370 eb 42 4b bd 12 de 18 be 85 67 c7 be 3b 61 53 3d
       -0.049624365 -0.14928463 -0.38946167 0.051606398
000380 1f e6 ba be 11 06 b5 be fc 7e 7b 3e 56 91 e9 bd
       -0.36503693 -0.3535619 0.2456016 -0.11404674
000390 7f 90 f4 3d 46 57 ef be e6 4a 60 3e 54 28 10 bd
       0.11941623 -0.46746272 0.21903571 -0.03519471
0003a0 65 5a a0 bc a9 dc 2c 3e ce 50 78 be 82 47 65 3e
       -0.019574353 0.1688105 -0.24249575 0.2239056
0003b0 b9 30 02 be 64 cc e7 be 6b 00 e5 bd d9 bf 51 3d
       -0.12713899 -0.45273125 -0.1118172 0.05120835
0003c0 89 05 db 3d 75 93 ae 3e d8 81 17 3e 94 01 49 bd
       0.10694415 0.34096876 0.14795625 -0.04907377
0003d0 3f ec 10 be d0 96 e8 bc 16 57 f5 3d a8 6d bb bd
       -0.1415262 -0.028392226 0.11979501 -0.09151775
0003e0 67 66 fb bd ca ea 93 3e a0 71 87 3d f6 59 80 be
       -0.12275391 0.28890067 0.06613469 -0.25068635
0003f0 12 ed 01 be 8c 0b 09 3e 24 97 0d 3d f6 5e 31 bd
       -0.12688091 0.13383311 0.034567967 -0.043303452

conv2.att_src f4 [1, 1, 64]
000000 72 ea e0 be 5b e7 97 be 51 bb 98 3e 17 4a 4a be
       -0.43928868 -0.29668698 0.2983041 -0.19754826
000010 5e 56 83 3e 87 3e f9 be 83 b0 8c bd 60 95 45 be
       0.2565183 -0.48680517 -0.068696044 -0.19295263
000020 91 0f ad be f1 cb a4 3e 6a 52 9a bd 85 91 04 3e
       -0.3380094 0.32186845 -0.075352505 0.12946136
000030 b4 e4 31 be 54 c7 6e be 33 51 ea be d3 cf fd 3e
       -0.173724 -0.23318225 -0.45765075 0.4957262
000040 be ad 37 bd 06 c5 18 3f f9 09 89 bd 54 d1 22 3d
       -0.044843428 0.59675634 -0.06691355 0.039750412
000050 4e 90 21 be d0 b5 eb 3d 61 b0 7e bd 4f 23 aa bd
       -0.15777704 0.11509287 -0.062179927 -0.08307516
000060 d4 5e ac 3c 38 b3 35 bd 2f ae 8c be e3 db 0e be
       0.021041311 -0.04436037 -0.27476642 -0.13951068
000070 a8 0f 06 3f 90 1d 9c 3e b2 7e be be 0b 68 a5 bd
       0.5236764 0.30491304 -0.37206036 -0.08076485
000080 a5 b5 15 3e cf 2d 1f bd f2 7b be 3e d4 2e 04 bf
       0.14620073 -0.038862046 0.37203938 -0.51633954
000090 3a 12 f0 3c 99 52 c6 3d b0 93 b1 3e fa 63 e8 3d
       0.029305566 0.09683723 0.3468299 0.11347194
0000a0 66 dc 1b bd e4 bc b4 3e a9 18 40 3e 7a ad b7 3e
       -0.038051985 0.35300362 0.18759407 0.3587454
0000b0 a6 be 7c 3d 0f 9d d8 3e 19 11 10 be 64 2c 03 bd
       0.061705254 0.42307326 -0.14069022 -0.032024756
0000c0 eb 23 b3 bc 93 5f c7 3d 4e ea 40 3e ba 9d a8 be
       -0.021867713 0.09735026 0.1883938 -0.32932836
0000d0 1c 3e 8b be c2 62 a0 be 0a 6c b9 be ea e1 84 3e
       -0.27195823 -0.31325346 -0.3621524 0.2595361
0000e0 2f 60 01 3f f3 94 2b be 96 b7 83 3e 09 3b 1c be
       0.5053739 -0.16756038 0.25726002 -0.15256895
0000f0 ac 38 48 be 28 ed 8c be a1 21 9c bc 95 99 d1 be
       -0.19552869 -0.27524686 -0.019059004 -0.40937486

conv2.att_dst f4 [1, 1, 64]
000000 14 28 ef bd 58 5a c8 bc 3f 25 98 be 12 fc 96 3e
       -0.11677566 -0.024457142 -0.29715917 0.2948919
000010 f9 24 bb bd b6 b0 e5 3d 91 1e c0 bd ec af 77 3e
       -0.09137911 0.112153456 -0.0938083 0.24188203
000020 4c be 8a 3e 4b e2 b7 be d1 22 17 be 41 75 74 bd
       0.2709831 -0.35914835 -0.14759375 -0.059682135
000030 cd b3 91 be f0 cd be 3e 13 9e 63 be 8b 5b d8 bc
       -0.2845749 0.37266493 -0.2222827 -0.026410839
000040 ae c7 02 3d f0 b6 55 bc 3c e1 ba bd 1e 34 b1 be
       0.03192871 -0.013044104 -0.09124991 -0.34610075
000050 a8 49 a2 3e 96 60 c9 3e c6 db 36 be 37 e3 4c be
       0.3169682 0.39331502 -0.17857274 -0.2000855
000060 31 5c 71 3e 96 c0 05 3d 68 8e f9 3d 55 99 b1 be
       0.23570324 0.032654367 0.12185365 -0.34687296
000070 5f 66 2e 3e 2b 0b c5 3c 15 98 61 3c 6c dd 8f 3c
       0.17031239 0.024053177 0.013769169 0.017561637
000080 7f 53 11 3e 4a 52 12 be 4a 50 e6 be de 0f 60 bc
       0.14192007 -0.14289203 -0.4498313 -0.013675658
000090 a2 87 a3 3e 09 8f de 3c 7b 52 40 3e dd 35 c9 bd
       0.31939417 0.027167814 0.18781464 -0.09824727
0000a0 5f 0b de bd a3 ff cd be d1 61 88 be 66 c8 80 be
       -0.108420126 -0.40234098 -0.26637128 -0.25152892
0000b0 98 1c 0f 3e df ae 7b 3e 10 47 b4 be 69 09 34 3e
       0.13975751 0.24578427 -0.35210466 0.17581715
0000c0 de 2a fc bd c3 31 37 bd 37 5d 45 be 7d 1b 08 be
       -0.12312864 -0.04472519 -0.1927384 -0.13291736
0000d0 a8 bd 96 3d a7 98 1a 3e 76 4f 03 3e 04 1a 14 be
       0.07360393 0.15097295 0.1282328 -0.14463049
0000e0 1f b1 83 3d 42 f8 e4 bd 31 75 23 bc 8a a0 12 be
       0.064302675 -0.11180164 -0.009976671 -0.14319053
0000f0 b0 a7 39 be 15 df 2b 3e dc f1 32 3e dd e5 a8 3e
       -0.18130374 0.16784318 0.17475075 0.32987872

conv2.bias f4 [64]
000000 a0 5d 05 3e 27 a0 05 3d 5c 61 bd bb 84 35 8e 3d
       0.13023996 0.032623436 -0.0057794284 0.06943801
000010 f4 1f 51 3e d6 ee e0 3d a7 32 2d bd d9 ca 91 3d
       0.20422345 0.10983054 -0.042284634 0.07118768
000020 d9 a2 32 3d 95 bd 9c bc cc 0d d3 3d 0a c5 8a bb
       0.043612335 -0.019133369 0.10305366 -0.0042349147
000030 94 83 20 3e f1 8e a5 3d a5 c5 9a 3d 71 d4 0d 3d
       0.15675193 0.080839045 0.07557229 0.034626428
000040 f2 17 d8 3d db 54 0c 3e 55 05 49 bd a6 3e 58 3d
       0.10551442 0.13704245 -0.04907735 0.05279412
000050 62 89 aa bc 15 52 80 3d 44 17 86 bc c3 32 27 3d
       -0.020817462 0.06265656 -0.016368516 0.040819895
000060 ce 58 15 3d af d6 2a 3d 68 32 c4 3d 94 12 00 3d
       0.036461644 0.041708644 0.09579927 0.031267717
000070 d6 37 8f 3c 47 90 f8 3d 30 cf a0 bc 9e 55 0b bd
       0.01748268 0.12136894 -0.019630045 -0.034017198
000080 27 b7 d6 bc d0 e7 62 3d 78 97 84 3d 23 b9 94 3b
       -0.02621038 0.055396855 0.06474203 0.0045386716
000090 28 30 03 3b 88 21 78 3d 2b 6c 84 3d 0d 25 63 3d
       0.0020017717 0.060578853 0.06465944 0.055455256
0000a0 4c 07 06 3e e1 83 93 3d 72 ad 2f 3c 75 d6 00 3d
       0.13088721 0.07202888 0.010722505 0.031454522
0000b0 b2 a6 28 3d 58 5c 55 3d 44 c0 13 3d 10 c5 f6 3c
       0.041174598 0.05209002 0.03607203 0.030123264
0000c0 0d ae e9 3d 57 e6 9c 3c 8b a5 14 3e 8a 8b eb bc
       0.11410151 0.019152803 0.14516275 -0.02875306
0000d0 6f 86 f4 3d 51 4b cf 3d c8 49 cf 3d dc 0c 85 bc
       0.11939704 0.10121787 0.101214945 -0.016241483
0000e0 77 65 e6 3c 72 7e 27 bd 65 01 92 3d 3a 3c 79 bb
       0.028124554 -0.040892072 0.07129172 -0.0038030283
0000f0 f0 5d f9 3c c1 a9 ce 3d 64 97 6f 3d 9f ce 9c bc
       0.0304403 0.10090972 0.058493987 -0.019141493

conv2.lin.weight f4 [64, 64]
000000 23 05 ba 3e 74 74 70 be 0a b6 bd 3e 35 af d9 bd
       0.36332044 -0.23481923 0.37052947 -0.10629121
000010 9e 19 71 3e e0 54 6a bd be f5 a3 bd d5 35 46 be
       0.23544928 -0.05720985 -0.08005856 -0.19356473
000020 b6 e3 4e bc 0e 9a 8d be 0e 24 18 bd 80 cb d4 bd
       -0.012627533 -0.27656597 -0.03714376 -0.10390377
000030 ab e9 8c be 07 63 f2 be 8e 08 b4 bd c7 69 8f be
       -0.27522025 -0.47341177 -0.08790694 -0.2801039
000040 d2 bd 10 bd 9c b7 91 3e 52 d8 3b be 27 c5 68 3d
       -0.035337277 0.28460395 -0.18344238 0.056828644
000050 cf 25 b4 be 0f af e6 3e 28 82 a5 be 90 22 0f 3e
       -0.35185096 0.45055434 -0.32325864 0.13978028
000060 5d 7d 28 3f ca ce 88 3e db 92 8e 3d bc f9 51 be
       0.6581629 0.26720268 0.06961604 -0.20505422
000070 97 df 3a be 2c 44 1f be 86 d4 a3 bc 09 c0 22 3e
       -0.18249355 -0.1555335 -0.0199988 0.15893568
000080 9b ee ac 3e 4b bc a4 bd c6 4d 30 be 76 ec c3 3e
       0.33775792 -0.080437265 -0.17217168 0.38266343
000090 00 52 f9 be d3 66 d5 bc 25 c8 21 be ab 5b 0d bf
       -0.48695374 -0.026050007 -0.15799005 -0.55218
0000a0 a0 ce 19 be 61 64 fa 3d f4 e2 8f bd 5d 4c 27 3d
       -0.15020227 0.12226177 -0.0702571 0.04084431
0000b0 43 f1 bd bd 5e 1a 9a 3b 74 b9 1a be d2 f6 95 3d
       -0.09274533 0.0047028502 -0.15109807 0.07322468
0000c0 9c 34 b4 3a e9 61 6b be 60 da 38 3e df e7 cf be
       0.0013748589 -0.22986569 0.18052053 -0.4060659
0000d0 f0 58 a2 3d 00 6d 79 be d9 fd bc bc 83 03 30 bc
       0.0792712 -0.24357986 -0.023070263 -0.010743025
0000e0 2e a2 2d be 62 31 e3 be f1 5b 61 3e 5f 39 1b 3e
       -0.16956398 -0.44373614 0.22007729 0.15158604
0000f0 75 8e db 3e 8b 88 e0 bd 71 40 f2 bc 19 8a ca 3e
       0.42882124 -0.109635435 -0.029571744 0.39558485
000100 a7 52 a3 3d d2 1a ae be fd 99 59 3d 5e 21 f9 bd
       0.07974749 -0.34004837 0.05312537 -0.121645674
000110 27 0f 64 3e bb 24 bd 3d 1b d4 55 be 5b 85 6f be
       0.22271405 0.092355214 -0.20881693 -0.23390715
000120 82 0b 1a be ef da 88 be 8e af d2 be 39 2f ee 3d
       -0.15043452 -0.26729533 -0.41149563 0.11630101
000130 b6 8f ab bd a3 81 9d bd 6b 26 82 be 74 71 9d 3e
       -0.0837702 -0.07690742 -0.25419936 0.3075062
000140 18 62 ac 3d c1 c2 9e 3e 2f b4 49 be 2b e2 41 be
       0.084171474 0.3100796 -0.19697641 -0.18933932
000150 54 46 82 3e 3f cd cf 3b 18 08 a6 bd 45 da 40 bd
       0.2544428 0.006341606 -0.081070125 -0.047083158
000160 28 77 8f 3e 7d 3c a0 3c 30 5f 5e bd 8f 21 4f bd
       0.28020597 0.019560093 -0.054289997 -0.050569113
000170 9b c0 09 be a4 95 1d bc 2a 00 0d be 23 7a 49 3e
       -0.1345238 -0.009618197 -0.13769594 0.19675498
000180 d9 20 76 3e 6a d6 63 bc c5 ea 6d be 8e 8c 2f 3e
       0.24035968 -0.013906101 -0.23234089 0.17143461
000190 10 49 28 be 1d 77 6a 3d d6 a5 b6 bd 50 c7 d8 be
       -0.16434121 0.0572425 -0.089183494 -0.42339563
0001a0 9b 17 18 3e 92 22 0a be 4a 9e 98 3d 81 e5 83 ba
       0.14852755 -0.1348975 0.07452066 -0.0010062904
0001b0 82 14 b4 be 52 d3 56 3e 76 0f 78 3e 4c 24 9e bc
       -0.35171896 0.2097905 0.24224648 -0.019304417
0001c0 68 6f f7 3d 08 4f 26 3d fb e9 4a be ae 74 33 be
       0.12081796 0.040602714 -0.19815819 -0.17524979
0001d0 24 41 bd 3e 69 71 7c 3d ba 7f ba be d6 83 5f be
       0.3696376 0.061631594 -0.36425573 -0.21827635
0001e0 93 a0 04 bf 37 b9 86 bd 06 95 e6 3d 83 91 81 3e
       -0.51807517 -0.06578296 0.11258893 0.2530633
0001f0 e9 fa 3c 3e 0e 3b 2b be f1 b5 1c 3d 30 8c 1e be
       0.1845509 -0.16721746 0.03825945 -0.15483165
000200 98 c7 20 be ef 3e a8 3e 6f 5c 44 3c 27 56 32 3f
       -0.15701139 0.32860515 0.0119849285 0.6966271
000210 a6 dd cb 3d e0 25 27 be 39 6d 84 3d 94 91 87 bc
       0.099543855 -0.16323042 0.06466145 -0.01654891
000220 ed c6 ba bd f7 f7 49 3e db 48 17 3f 8a 22 e5 3c
       -0.09119973 0.19723497 0.59095544 0.027970571
000230 0e ce 3a 3e 1f fa 65 bd 7d 68 b2 bc aa fd 69 be
       0.18242666 -0.056146737 -0.02177834 -0.22850671
000240 24 b7 2d be 97 cb db bc e4 03 16 3c 24 6b 1a be
       -0.16964394 -0.026830478 0.009156201 -0.15079933
000250 18 72 08 3d 54 a2 c0 be 1c 72 5a be c4 16 4f be
       0.033311933 -0.37623847 -0.21332592 -0.20223528
000260 10 a2 01 be 39 22 e6 bd 76 3f a3 3d 78 1c 7c 3e
       -0.12659478 -0.11236996 0.079710886 0.24620235
000270 ad 0c e2 3d 7e 3f b7 bd c4 e9 67 3e ab ab 1e 3e
       0.11037574 -0.08947657 0.22647768 0.15495174
000280 c9 fd 23 3c b9 7e 25 3e f2 87 9f bb 2d 7c 20 3e
       0.010009238 0.16161622 -0.004868501 0.1567237
000290 fa a5 da 3e 89 2b 3f 3e 99 4d 6a be 55 03 50 be
       0.42704755 0.18668951 -0.22881164 -0.20313771
0002a0 72 e8 1d 3e 5a 5c ff bd 17 fc 78 3e 7f e3 e1 bd
       0.15420702 -0.124687865 0.24314915 -0.110297196
0002b0 0f 8d d5 3e bf aa 04 be 6d 29 44 bd 81 85 12 3e
       0.41709182 -0.1295576 -0.04789107 0.1430874
0002c0 e6 36 a4 3e 44 f4 a8 bd fb a5 68 3e 1b cb c9 be
       0.32073134 -0.08249715 0.22719567 -0.3941277
0002d0 0f 99 50 bd ff bd 49 3e 03 6f a5 bd 38 c9 e0 be
       -0.050927218 0.19701384 -0.080778144 -0.43903518
0002e0 f4 9f 8b bd 5a 95 8f 3e a2 f8 80 3e 04 0e 9d be
       -0.06817618 0.28043634 0.25189692 -0.30674756
0002f0 12 1b 72 3d b8 19 32 3e d4 73 d6 bb 3f e6 31 3d
       0.059107848 0.17392623 -0.0065445695 0.04343247
000300 dd e6 56 be bd 85 b5 be df b1 49 3e d5 cb 7c 3d
       -0.20986505 -0.35453597 0.19696759 0.061717827
000310 a0 28 11 be df 08 80 3d 71 b0 55 3e 52 ab 39 3e
       -0.14175653 0.06251692 0.20868088 0.1813176
000320 36 3e 51 3e c6 1f c7 bd ff 14 fb bd 04 0c 28 3c
       0.20433888 -0.09722857 -0.12259864 0.010256771
000330 80 84 df bc 04 b8 7c 3e 88 10 02 3f 7d 03 e2 3d
       -0.02728486 0.24679571 0.50806475 0.110358216
000340 c4 3a 51 3e 8d 84 c2 bd 94 d8 76 3e 9d ad 88 be
       0.20432574 -0.09497938 0.24106055 -0.26694956
000350 fe ae 1e 3e 2e f2 12 be 69 75 bd 3d a0 33 ef 3d
       0.15496442 -0.14350197 0.0925091 0.116797686
000360 d7 55 b6 3d bd 6e 7a be 3f 52 8a be 12 19 cc 3b
       0.089030914 -0.24456306 -0.27015874 0.0062285746
000370 19 99 cb bd ed 33 1e bd 78 6e d6 3d 60 c8 05 bd
       -0.099413104 -0.03862374 0.10470289 -0.032661796
000380 33 b0 db 3e a7 e8 7a 3e 23 ee 44 3e 1e bf 4a 3e
       0.42907867 0.24502812 0.19231467 0.19799468
000390 3d cc a3 be 69 47 28 be 76 3d da 3d 8f 3b 10 bf
       -0.3199176 -0.16433491 0.10656254 -0.5634088
0003a0 4a 75 8c 3c e9 9b ea 3d ef 49 93 3d 4a 26 87 3d
       0.017145772 0.11455519 0.07191836 0.065991
0003b0 c3 fb c5 be b1 21 79 3e b7 28 1d 3e e0 6f 79 3e
       -0.3866864 0.24329259 0.15347563 0.24359083
0003c0 f5 9b 24 be 12 80 96 bd 4e 78 02 3e 72 24 c3 3c
       -0.16075118 -0.07348646 0.12741205 0.02382109
0003d0 4e 19 0b 3e 24 74 f3 bd b3 01 2e be 41 c7 85 bb
       0.13583872 -0.118873864 -0.16992836 -0.004082591
0003e0 61 5c ca 3d 91 89 33 3e 83 05 12 3d e2 7c 70 be
       0.09880901 0.17532946 0.035649788 -0.23485139
0003f0 8c 1e 7b be 17 e1 e3 bd fa 5d d5 bc a9 04 74 3e
       -0.24523371 -0.11126917 -0.026045788 0.23829903

conv3.att_src f4 [1, 1, 64]
000000 b2 c7 ac 3e a1 0b 8a 3e 67 3f 23 3e eb f3 fe 3d
       0.33746105 0.26961997 0.15942155 0.124488674
000010 d1 1a 27 be 0c d5 bf be c5 23 70 be b6 68 18 3d
       -0.16318823 -0.3746723 -0.23451145 0.037209235
000020 92 b5 22 bf 7b 0f 4c 3e 2b 7c 45 3e ba 17 07 3f
       -0.63558304 0.1992778 0.19285648 0.5277058
000030 44 bf 19 bf 36 85 b6 3a 53 43 ee be b2 b5 84 3e
       -0.60057473 0.0013925198 -0.4653574 0.25919873
000040 65 17 f9 3b 6e b8 45 3e aa 03 e7 3e c0 fc 07 3f
       0.007601666 0.19308636 0.45119983 0.5312004
000050 a4 77 67 3d 7d 26 3a 3e 65 6e 12 bf ba c0 2c be
       0.056510583 0.18178745 -0.571997 -0.16870394
000060 2d 7b 57 be 24 9f cd bc 00 fa b3 3e 74 6d 89 3e
       -0.21043082 -0.025100298 0.35151672 0.2684132
000070 a4 0e 13 3d 20 75 05 3f 25 d1 0a 3c 50 81 bf 3e
       0.035902634 0.52131844 0.0084727155 0.37403345
000080 14 4e 9a be a9 6d d9 bd 64 df a3 be 48 71 01 3f
       -0.30137694 -0.10616619 -0.3200637 0.5056348
000090 3f 98 b2 3e b1 a3 c0 3d ae a3 9e bd 0b fd e8 bd
       0.3488178 0.09406222 -0.07746063 -0.11376389
0000a0 c0 07 a0 bd 70 5d 3d 3d c9 f6 71 bd 45 5b a1 be
       -0.07813978 0.046231687 -0.059073243 -0.31514946
0000b0 37 bf c3 bd 00 c3 6c 3e 0e 85 11 be a7 82 62 3d
       -0.09557956 0.23121262 -0.14210913 0.05530038
0000c0 d5 7a 06 3f af bb d8 3e ca 6f 92 bd 67 f4 84 3e
       0.52531177 0.4233069 -0.07150228 0.25967714
0000d0 ad cd 5d be 11 16 c0 bc 68 07 65 3e 24 96 8b 3e
       -0.2166049 -0.023448022 0.22366107 0.27262986
0000e0 5f 3e 68 be 2b 12 0a 3e cf 50 be 3e 83 ef 58 3e
       -0.22680043 0.13483493 0.37171027 0.21185116
0000f0 3a cf 6a be 28 ed bc 3d 98 80 a4 be 61 7c aa 3d
       -0.22930613 0.092249215 -0.3212936 0.08324505

conv3.att_dst f4 [1, 1, 64]
000000 12 26 ab 3e 1e 07 c8 bc 79 f8 5b bd 57 fd 81 3d
       0.33427483 -0.024417456 -0.05370376 0.06347149
000010 86 67 cf bd 7f d0 e6 3d ef 03 1e be 6d ee 80 3e
       -0.101271674 0.11270236 -0.15431188 0.25181904
000020 a9 e7 a1 be 1c 3f a3 bd ca 5f 61 bd 5c d8 85 3e
       -0.31622055 -0.079710215 -0.055022992 0.26141632
000030 ed 6b 38 3e f7 86 19 3e 5d 49 4b bd 40 e3 4a be
       0.1800992 0.14992891 -0.04963051 -0.19813251
000040 cb ef a0 3d 03 85 2b 3e 6a 8d 91 3e 8e 9e 55 bd
       0.07858237 0.16749959 0.28428203 -0.052153163
000050 96 29 96 3e 4c 36 54 be 16 6b 86 be 3e 53 fb 3d
       0.29328603 -0.20723838 -0.26253575 0.122717366
000060 6d 5d d5 bc 33 ec 54 bd 0c 45 79 3e 3f 61 4d 3e
       -0.026045525 -0.05198307 0.24342746 0.20056628
000070 bb cc 53 be 29 b9 84 bd 48 8b 7e 3d 3c 9f 4b 3e
       -0.20683567 -0.06480629 0.062144548 0.19884962
000080 01 4c f3 3d 0c fe b8 bc f6 b3 88 3d 9f b5 cc be
       0.11879731 -0.022582076 0.0667495 -0.39982316
000090 23 b1 01 3d 62 18 b5 3e 50 ff 72 3e e9 33 87 3e
       0.03166307 0.35370165 0.23730206 0.26406792
0000a0 b0 39 88 3e 1c c9 7f bd 6b 79 77 3e 70 7a 11 3d
       0.26606512 -0.062447652 0.24167411 0.035517156
0000b0 d2 c0 41 3e 0b a8 29 be 0d b2 c5 be 4a dd f0 bd
       0.18921211 -0.1656801 -0.38612404 -0.117609575
0000c0 6a 6a 9c 3c 29 da d9 bd 0b a3 87 be f6 fb 67 3e
       0.01909371 -0.10637314 -0.2649158 0.22654709
0000d0 98 ac eb 3d bc de a4 bc 64 45 d8 bd 9a ab 5b 3e
       0.11507529 -0.02012574 -0.1056011 0.2145218
0000e0 9f e9 9f be e7 d4 4c be b8 6d d2 bd 54 af 90 3e
       -0.31232926 -0.20003091 -0.102748334 0.28258765
0000f0 b9 c3 0a 3e c5 29 7f 3e 7e 57 8e be 4a 9e 07 3c
       0.13551225 0.24918278 -0.27801126 0.008277485

conv3.bias f4 [64]
000000 6d 3a 06 bd b5 55 c7 3b b4 2e 15 bd 42 26 25 bd
       -0.032770563 0.006083215 -0.036421493 -0.04031969
000010 f5 7b 17 bc 43 c4 95 3c fd 9d 33 bc 86 a8 49 3c
       -0.009245862 0.018282061 -0.01096296 0.0123082455
000020 76 06 0b 3c 3c 5f cc bb 47 e2 8b 3d 9e ec db bc
       0.008485427 -0.0062369388 0.06830268 -0.026846226
000030 a3 3a 65 bc 3c e0 79 bc c1 e7 58 bd dd 83 0d bd
       -0.013991031 -0.015251216 -0.052955393 -0.034549583
000040 2d 7e 29 bd 95 2a 65 bb c7 0d 89 bc 4b c9 10 3d
       -0.041380096 -0.0034968008 -0.016730202 0.035348218
000050 e3 e1 13 bd 3c 62 2f bd 49 d4 90 3d 03 5f 41 bd
       -0.036104094 -0.042818293 0.0707174 -0.04720975
000060 e8 b6 d6 3c 20 a6 a0 3c dd 32 97 3c ad 43 ff bd
       0.026210263 0.019610465 0.01845687 -0.1246408
000070 1d ce 80 bc a6 e7 41 bd c1 1e ab bc 33 9d ef 3b
       -0.015723282 -0.047340058 -0.020888688 0.007312441
000080 3b 97 9d 3c cc a6 8d ba cb b0 fc 3c 3a 00 b0 3c
       0.019237151 -0.0010807156 0.03084602 0.021484483
000090 c2 a3 cc bd e2 7b f3 bc 7b 74 4c bb 1b 72 bb 3d
       -0.09992172 -0.029722158 -0.0031197357 0.09152623
0000a0 06 cc b4 3c 8a b6 3e bc 36 78 de ba 4d ef a8 bc
       0.022069942 -0.0116402 -0.0016973082 -0.02062192
0000b0 80 11 a8 bb 5a ce 0e bc 5b dc 83 3c 7e 94 b6 bb
       -0.0051290393 -0.00871619 0.016096285 -0.005571901
0000c0 da a3 e5 bb 37 ad cc 3b 34 87 95 3c f6 75 cd bb
       -0.007008058 0.0062462348 0.018252946 -0.0062701656
0000d0 8c 17 4a bc e1 10 ac 3c 2a 0b 10 bd 0d 47 49 3d
       -0.012334716 0.021004142 -0.035166897 0.049140025
0000e0 ca 02 14 bc ae bb 3e bd 10 a8 08 bd 39 6e 2a bd
       -0.009033868 -0.046565704 -0.033363402 -0.041609023
0000f0 d3 e3 ba bd e7 68 1c bc ce 01 7e bc f4 0c ef bc
       -0.09125485 -0.009546495 -0.01550336 -0.029180981

conv3.lin.weight f4 [64, 64]
000000 39 34 dd 3d 59 c9 c2 3e a7 50 d7 3d 98 1c 48 3e
       0.10800976 0.3804424 0.1051343 0.19542158
000010 a8 6b 0c be 28 27 32 be 1e 8f 15 3e 1f a8 d5 bc
       -0.13712943 -0.1739775 0.14605376 -0.026081143
000020 60 e1 84 bc 26 5a e0 3d b7 0f b9 bd 25 2a 8f 3d
       -0.016220748 0.109546944 -0.090362005 0.0699046
000030 f1 83 dc 3d a8 74 a3 3c 5f 9e 11 3e d0 ee 22 bd
       0.10767353 0.019953087 0.1422057 -0.03977853
000040 c4 55 c2 bd 55 3d 37 be 8e bb 66 bd 69 13 5c 3e
       -0.09489015 -0.1789449 -0.05633121 0.2149178
000050 6c 53 d9 bd d0 26 e1 3e 86 70 24 3e 91 c4 e0 bc
       -0.106116146 0.43974924 0.1605855 -0.02743748
000060 bf 59 5e 3e 35 f1 a2 3e d2 67 b8 bc f6 96 65 3e
       0.21713923 0.3182465 -0.022510443 0.22420868
000070 da bf a0 3d 1c 3c 86 3e 8c 78 57 be 66 ae 8b bd
       0.07849093 0.26217735 -0.21042079 -0.06820373
000080 e7 b2 11 3e 7d 20 a8 3e f0 3b be bd 0c d0 e4 3e
       0.14228402 0.32837287 -0.09288776 0.44689977
000090 f8 18 2a bd fe 58 4f 3d e0 00 c0 3d 2e df c9 3d
       -0.04152772 0.05062198 0.09375167 0.09857021
0000a0 46 58 1e be ca bf 87 3e 81 c9 ad bd 3c 51 f0 3d
       -0.15463361 0.2651351 -0.084856994 0.11734244
0000b0 51 cc 2a 3e 64 98 67 bd 8a cb 00 bd 11 20 55 3e
       0.16679503 -0.056541815 -0.03144411 0.20813014
0000c0 99 9d 9b 3e fb 44 16 3d fa 11 54 3e a5 21 1a 3e
       0.30393675 0.03668688 0.20709983 0.15051897
0000d0 61 84 91 3d 54 f8 8b bc 97 2f a5 3d 51 3c 78 3e
       0.071053274 -0.017086186 0.08065718 0.24241759
0000e0 a3 57 a1 3d 8e 38 07 3e 1f c4 18 3c ae 64 48 3e
       0.078780435 0.13205168 0.009324103 0.19569656
0000f0 3c bf 23 3e 19 5d d7 bd 43 d9 59 3e bd 53 47 3e
       0.15990919 -0.10515804 0.21274285 0.19465537
000100 0d 8b 68 3e a5 e7 e7 bd ed cf 0f be 82 4c 87 3d
       0.22709294 -0.113234796 -0.14044161 0.066063896
000110 24 31 21 bd 77 78 b3 3d 78 72 73 be 0f 96 16 be
       -0.039353505 0.08763211 -0.23774135 -0.1470568
000120 3b ec a1 be 17 d1 c6 bd 6f 62 59 3d 87 1b 8c bd
       -0.31625542 -0.097078495 0.05307239 -0.06841188
000130 d4 f6 e4 3c 41 d6 54 bd 68 56 c6 3e 61 f9 74 be
       0.027949728 -0.05196214 0.38737798 -0.23923256
000140 c3 fe 8b 3c 2f 04 6e be b9 f1 01 be 33 15 25 be
       0.017089253 -0.23243783 -0.12689866 -0.16121368
000150 12 9e b7 be 1a 78 8d 3e f7 6e d6 bc 8a 30 33 be
       -0.35862786 0.27630693 -0.026175959 -0.17498985
000160 b5 c0 33 3e 1d 4b bc be 64 b9 a1 3e 7b 55 1a 3b
       0.1755398 -0.36776057 0.31586754 0.0023549485
000170 a7 02 b2 be 6a e9 4a be 6d 6f 60 3c 33 94 41 be
       -0.3476765 -0.19815603 0.013698441 -0.1890419
000180 80 db 33 bd a1 90 64 3e ab 53 f9 bd f3 a6 5f bc
       -0.043910503 0.22320797 -0.121741615 -0.013650644
000190 7d 24 ba 3e a8 19 45 3e 9b 98 4c be 60 9c a9 3d
       0.36355963 0.19248068 -0.1998009 0.08281779
0001a0 38 f6 2a be 95 e5 9f 3e 6f d3 30 3e a9 fc 88 be
       -0.16695487 0.31229845 0.17268156 -0.26755264
0001b0 6e bb 92 3e 29 10 f7 bb 7e 58 98 3d 1c 6b 78 3e
       0.28658623 -0.0075397682 0.074387535 0.24259609
0001c0 92 ef c1 bd ce b7 21 3d e7 0e 02 3e 0b 25 36 3e
       -0.094695225 0.03948193 0.12700997 0.17787568
0001d0 04 c6 7f bd 67 02 d4 bb c8 8c 16 3f 6c 58 84 be
       -0.0624447 -0.006470013 0.58808565 -0.2584871
0001e0 95 5e b7 bd 7e c2 08 be 16 76 e9 3d 42 66 dc bd
       -0.08953587 -0.13355443 0.11399476 -0.10761692
0001f0 ea d4 7e 3d c9 0b 84 be 98 53 29 bd a8 b4 11 be
       0.06221477 -0.2579024 -0.041339487 -0.14229071
000200 aa e9 b6 3d 84 c2 ea bd 67 be 26 3e 9e 89 b9 3c
       0.08931287 -0.11462882 0.1628357 0.022648629
000210 b4 6b e5 3c bb a8 80 3c 7b 11 b8 bd 75 c2 24 bd
       0.028005458 0.015705457 -0.08987709 -0.04022451
000220 28 98 19 3d 56 46 62 3e 5c 77 94 3e 0a bf c0 3c
       0.037498623 0.22097144 0.28997314 0.023528595
000230 db a3 e0 bd a6 23 97 be f7 66 cd 3d f0 09 13 3e
       -0.10968753 -0.29519385 0.100294046 0.1435926
000240 0a f3 a3 bd e0 7e f7 3d 3a fd 9d 3d d9 bd 0f 3d
       -0.080053404 0.12084746 0.07714315 0.035093162
000250 0b eb 21 3d 7f cf c9 3e 65 fd 10 3c 46 6b 14 3d
       0.039530795 0.3941612 0.008849476 0.036235116
000260 44 6d 5d 3e 68 df 24 3e 10 fc 40 bd 10 d3 cf bc
       0.21623713 0.16100848 -0.047115386 -0.025369197
000270 9b 61 44 3e 99 a0 de bd 62 71 6f 3d a1 d0 00 be
       0.19177859 -0.10870475 0.05845774 -0.12579586
000280 04 34 7b 3e 84 82 7a 3e 50 a4 18 3e a5 e8 a3 3e
       0.24531561 0.2446385 0.1490643 0.3201343
000290 79 74 ac 3a aa e0 41 bd 61 37 00 3e 2e 35 f6 bc
       0.001315727 -0.047333397 0.12521125 -0.030054655
0002a0 93 35 56 be 09 3c b8 3e a2 f7 20 be bf 4c 40 3e
       -0.20918874 0.35983303 -0.15719464 0.18779276
0002b0 04 eb 60 3d 53 f6 ca 3d 0c d2 df bd 52 2b 39 3d
       0.05491163 0.09910264 -0.10928735 0.04520733
0002c0 e0 f3 35 3e 4e 78 d7 3d 11 12 76 bd bf 19 32 be
       0.17768812 0.10520993 -0.060075823 -0.17392634
0002d0 cd 7a 82 be 59 32 3d 3d 86 7a 51 3e 28 ec 5c 3e
       -0.25484315 0.046190593 0.20456895 0.21574461
0002e0 5a 76 71 3d 65 ec 24 3e b8 5c b9 bd 1f 19 0a 3c
       0.05895076 0.16105802 -0.09050888 0.008428841
0002f0 b6 a9 6a 3d 84 2d 24 3e bf ad 7f 3d 0e 53 42 be
       0.057290755 0.16032988 0.062421557 -0.18976995
000300 46 cd 68 3d 9d 4c 66 be 73 b3 2b be fc b4 63 3d
       0.05683639 -0.22490163 -0.16767673 0.055592522
000310 1c 05 0d be 37 a5 48 3d 14 34 20 3e 22 27 81 bc
       -0.1377148 0.048985686 0.15644866 -0.01576573
000320 37 d6 dc be b8 0d f7 3d e8 22 02 be 45 f0 72 bd
       -0.43132183 0.120631635 -0.12708628 -0.05931117
000330 90 e9 63 3e e7 b5 9d be 4d 33 95 be b1 27 0a 3e
       0.22257066 -0.30802843 -0.29140702 0.13491704
000340 5d 07 ba 39 8f 13 1c 3e 67 23 27 bd 1f 72 0f bc
       0.0003548217 0.15241836 -0.040805247 -0.008755236
000350 21 3a 5a be 55 47 9f 3d 6b fe 8a be 1c 82 f2 3d
       -0.21311237 0.077772774 -0.2714723 0.11841223
000360 c2 18 0c 3e 97 d1 d2 3c 70 e5 8e be 45 e3 4e 3d
       0.1368132 0.025734706 -0.27909422 0.05050971
000370 d0 19 e0 bd 85 98 77 3e c3 01 0d be 23 4d 34 be
       -0.10942423 0.24179275 -0.13770203 -0.1760755
000380 4a 2f 63 3e 0a a1 99 3e b1 03 c2 3d 7a f6 74 bc
       0.22186008 0.30005676 0.0947336 -0.014951343
000390 ba 91 9a 3e a4 3a 55 be f6 ed 30 3e 83 b3 2e 3e
       0.30189306 -0.20823151 0.17278275 0.17060666
0003a0 0b 83 9f 3d 66 98 a9 3e b2 b8 d0 3c a5 95 44 3e
       0.07788666 0.33124083 0.025478695 0.1919771
0003b0 0c 78 07 bf 52 4c 22 bd 39 1c 55 3c db 91 48 3e
       -0.5291755 -0.039623566 0.013007217 0.1958689
0003c0 24 a6 3a 3d 01 ac 58 3d 1e f5 64 3e 31 58 aa bd
       0.0455686 0.05289841 0.2235913 -0.083176024
0003d0 ad 31 d7 bd 76 b4 14 3e f3 29 ea be 3d 7b 7c 3e
       -0.10507522 0.14521965 -0.4573513 0.24656387
0003e0 a3 bd c1 3d 74 37 21 3d 1c 79 8f 3d 27 ff 59 3e
       0.094599985 0.039359525 0.07005522 0.21288739
0003f0 5d cc 5d be 06 f7 26 3e f5 61 c2 3d 3b b0 25 be
       -0.2165999 0.1630517 0.0949134 -0.16180508

lin.weight f4 [2, 128]
000000 70 14 44 3d c9 15 87 bd 67 b7 a5 ba 50 35 8e 3d
       0.047871053 -0.06595952 -0.0012643159 0.06943762
000010 9c d3 97 3d 27 69 d0 3d 34 2c fa 3c 1f e5 cd bd
       0.07413408 0.10176306 0.030538656 -0.10053467
000020 b8 83 5c 3e 53 e9 22 be 9f cd 7e bd 1c c9 a5 3d
       0.21534622 -0.15909319 -0.062207814 0.08094999
000030 f0 63 bf 3d 73 82 5e 3e 2b 54 d1 bd 1d 37 9c bc
       0.093452334 0.2172945 -0.10221132 -0.019069249
000040 62 91 4b bd 72 e9 bb bd b1 42 07 be c2 84 97 be
       -0.049699195 -0.091753855 -0.13209035 -0.29593474
000050 03 6f 98 bd e4 72 65 bd da d3 f6 38 1f 28 4c 3d
       -0.07443049 -0.05601777 0.000117696545 0.04984295
000060 54 c1 7f 3d df cb 8b bd 02 a8 06 be 9a c8 bf 3d
       0.06244023 -0.06825995 -0.13150027 0.093644336
000070 b7 e3 3e 3e df e4 73 bd 20 f3 8b bd e4 e9 59 bd
       0.18641554 -0.05954444 -0.06833482 -0.05320157
000080 67 e7 3c 3d 35 a9 31 be 70 ee 10 3d d8 16 e4 bd
       0.04611912 -0.17349704 0.03538364 -0.111371696
000090 24 18 f1 3d f7 3d 73 3e 63 fc b6 3c 2a a7 b0 3c
       0.117721826 0.23754106 0.022337144 0.021564085
0000a0 73 37 a7 bd 5a 5a 83 3c ae 2a d6 3c 1c 46 4a 3e
       -0.08164873 0.016034294 0.026143398 0.19753307
0000b0 4f 40 8a 3c 2e a9 1b bd 7f 30 fa 3d a3 83 2c bd
       0.016876368 -0.03800314 0.12216281 -0.042117726
0000c0 7b cd 1c be 15 81 d6 3d e5 6d 90 3d 7c 58 04 be
       -0.1531276 0.10473839 0.07052211 -0.12924379
0000d0 c1 a9 3b 3e cc da a6 bd 1f 5c dd bd 84 6d 9a bd
       0.18326475 -0.08147201 -0.10808586 -0.0754042
0000e0 97 37 01 be c8 04 1c bd 02 eb e9 bc ce f4 22 be
       -0.12618862 -0.038090497 -0.028554443 -0.15913698
0000f0 47 da ac 3d 4c 9a bf 3d 7a 8d 44 3d 07 8d b2 bd
       0.084400706 0.09355602 0.047986485 -0.08718305
000100 59 09 09 be 69 be 4c 3e d3 b2 e2 bd c7 e4 af bd
       -0.13382472 0.1999451 -0.11069264 -0.08588558
000110 76 5c d9 3e bd 96 d5 be d2 fa 4b 3d 5c ba f9 3c
       0.42453355 -0.41716567 0.049799748 0.03048437
000120 8f c8 57 be f2 c2 61 3e 7b 69 bf 3c de 3b b9 3d
       -0.21072601 0.22047022 0.023365727 0.09044622
000130 f2 25 57 3d 11 15 89 be 23 b7 c1 3e e9 2d 8b 3e
       0.05252642 -0.26773885 0.37835035 0.27183464
000140 4b 67 0c 3f 6c 61 db 3e 14 d7 7e bd 7e c5 10 3e
       0.5484511 0.42847764 -0.062216833 0.14137837
000150 8a 6d ae 3e 40 3d 1f 3d 10 bf 72 bd 7f 14 2c bd
       0.34067947 0.038876772 -0.059264243 -0.042011734
000160 9b fe 92 be 9f c0 fa 3c d2 4b 1b bd 88 f0 0d be
       -0.28709874 0.030609427 -0.037914105 -0.13861287
000170 c7 30 b0 be 44 b8 3d 3e 1d e9 8a bd c2 80 f3 bd
       -0.34412214 0.18527323 -0.06782744 -0.11889793
000180 e0 8b 19 bf ab d4 dd bd 65 71 1c bf 27 66 9f bd
       -0.5997906 -0.10831579 -0.61110526 -0.07783156
000190 14 f4 03 be a6 54 84 be ee 6c bb 3d ef 54 c2 3c
       -0.12886077 -0.25845832 0.09151636 0.02372214
0001a0 a4 c8 a5 3d 5a 01 4c 3d 96 23 b4 3d 5c 5b 63 be
       0.0809491 0.049805976 0.0879585 -0.2220282
0001b0 e8 a6 9d 3e a3 c7 8f 3e da b3 c8 be 88 59 78 3e
       0.30791402 0.28081998 -0.39199716 0.24252903
0001c0 62 9a 26 3e 87 2e f3 be 34 e9 e7 be 2e a7 8c 3e
       0.1626983 -0.47496435 -0.45295107 0.27471298
0001d0 ab ff 86 be 4a f3 85 bd 40 26 8a 3e b3 60 7a 3d
       -0.26366934 -0.06540544 0.26982307 0.061127376
0001e0 4f 94 1f bc ac 0f 90 3d 07 a4 50 3e 07 36 9a 3e
       -0.009739949 0.07034239 0.20375071 0.30119345
0001f0 58 6e 55 bd fc 6f f0 3c 5e ff 01 3e b5 51 74 3e
       -0.052107185 0.029350273 0.12695071 0.23859294
000200 80 57 b8 3d 13 0e 00 3e 17 b8 f9 3b ea de 47 3c
       0.09001064 0.12505369 0.007620822 0.012199143
000210 06 a6 a4 bd 25 d3 3c bd 4b e3 06 3c 0e f3 37 3d
       -0.08039479 -0.0460998 0.008232902 0.04490953
000220 c6 1a e1 bd da b4 0b 3e c8 5c 80 3d 23 19 6c bd
       -0.10991435 0.13643208 0.062676966 -0.05764116
000230 0a 8a 4a bc f6 6e 06 be 04 b3 26 3b ac 03 70 3d
       -0.012362013 -0.13128266 0.0025436291 0.05859725
000240 6a 32 11 3e 26 b0 e3 ba 7b fc 79 3d 99 70 9b 3e
       0.14179388 -0.0017371222 0.0610318 0.30359343
000250 ca f9 ef 3d 1a 28 d6 3b ec e4 53 bd e1 ef 0b 3c
       0.11717565 0.006535542 -0.05173199 0.008541078
000260 5b 0e 51 bc e7 17 9d 3c 13 51 95 3d d5 2e 12 be
       -0.01275977 0.019176437 0.07290854 -0.14275678
000270 0f b8 0f be 3d 9b 21 3e 2e 8a a2 3d f8 36 d2 3d
       -0.14035057 0.15781875 0.07936512 0.10264391
000280 93 58 05 be 19 54 65 3e 3e b6 60 bc 58 be 52 3e
       -0.1302207 0.22395362 -0.013715325 0.20580423
000290 f4 f4 a0 bd a1 98 5c be 74 ba 57 3d 3b 15 89 3d
       -0.07859221 -0.21542598 0.05266805 0.066935025
0002a0 6c e3 0e 3e 20 ab 32 3c 18 9f 07 be 61 39 37 be
       0.13953942 0.010905057 -0.13244283 -0.17892982
0002b0 06 40 92 bd 17 20 5c bd c8 55 00 be f2 75 2a 3e
       -0.07141118 -0.05374154 -0.12532723 0.16646555
0002c0 97 04 94 3c d8 f6 ee bd 82 6f 9b bc 3f 85 92 3d
       0.018068595 -0.116681755 -0.01897407 0.07154321
0002d0 c5 80 2d bd 21 d4 09 3e a7 78 0b 3d ea 92 e6 3d
       -0.042359132 0.13459827 0.03405061 0.112584904
0002e0 07 86 44 3e 02 2e be 3d ae 85 ea 3d fb 4b fa 3c
       0.19191752 0.09286119 0.114512786 0.030553808
0002f0 f1 e8 14 bd be 50 fa bd 3c f2 8f 3c 2d 65 00 bc
       -0.036354963 -0.122224316 0.017571561 -0.007836622
000300 6e d5 f0 3c bd 95 1e be 57 c8 99 3d c1 df 01 3e
       0.029398646 -0.15486808 0.07508915 0.12683012
000310 e5 58 ca be fe 84 f2 3e e1 13 aa 3c 0b f7 6e 3d
       -0.39520946 0.4736709 0.020761432 0.058341067
000320 13 a0 5c 3e 86 11 4a be aa 07 ed bd 12 d3 23 be
       0.21545438 -0.19733247 -0.115737274 -0.15998486
000330 2b 94 50 3d 9d 01 91 3e 9a 28 b7 be 27 b8 f4 bd
       0.050922554 0.28321543 -0.35773164 -0.11949187
000340 5b 1f df be f9 84 b0 be d5 bf 5b 3c 6e 30 18 bc
       -0.4357861 -0.3447645 0.013412436 -0.00928889
000350 d2 ee cd be 88 46 38 bd 24 0b eb bb 3d 5b 95 3d
       -0.40221268 -0.04498914 -0.007172959 0.07292793
000360 c1 e8 b3 3e b6 51 a0 3d 09 ca 59 bd 46 f9 05 3e
       0.35138515 0.07828085 -0.05317119 0.13083372
000370 0b 96 92 3e aa 0f 8c be bc ca 71 3c f9 83 7f 3e
       0.286301 -0.273557 0.014757808 0.24952687
000380 e2 9b 1f 3f 0f a5 e2 3d 47 ea 25 3f f6 11 8e bd
       0.62347233 0.11066639 0.64810604 -0.069370195
000390 24 e7 ec 3d f7 de 4e 3e 94 c6 3b be 11 a8 20 3c
       0.11567524 0.20202242 -0.1833747 0.009805695
0003a0 68 a3 f9 3c 9e 34 8c bc 56 eb 45 bd 53 fa 2b 3e
       0.030473426 -0.017114934 -0.048320137 0.1679471
0003b0 2d 11 cb be 8a c0 b8 be 3e 77 90 3e d3 bb 99 be
       -0.39661542 -0.36084396 0.28215975 -0.3002611
0003c0 fd 19 5c be 2b dd f0 3e 8a 34 bb 3e ec 03 65 be
       -0.21494289 0.47043738 0.36563522 -0.22364777
0003d0 bf ed 84 3e d9 22 95 bd f0 e8 ab be 87 bc 55 3c
       0.25962636 -0.07282037 -0.33576155 0.013045437
0003e0 ff 1d b2 bd d8 b9 28 be c3 3e 83 be 24 d7 ad be
       -0.086971276 -0.16477144 -0.2563382 -0.33953202
0003f0 5a 08 3d 3c 88 bb db 3c 63 45 1a be 54 81 43 be
       0.011537636 0.02682282 -0.15065531 -0.19092304

lin.bias f4 [2]
000000 c6 97 34 bb 32 94 ab bd
       -0.0027556284 -0.083778754
