model_fold_5.pth (torch, 63878 bytes, 14 tensors)

conv1.att_src f4 [1, 1, 64]
0	0xbd4b24fd	-0.04959582
1	0x3f12464e	0.57138526
2	0xbf3484d7	-0.705152
3	0xbea0cc94	-0.3140608
4	0xbd13afe8	-0.03605643
5	0xbe0cd69d	-0.13753743
6	0x3c85429b	0.016267112
7	0x3dc2d713	0.095136784
8	0xbe09a289	-0.13440908
9	0xbec3b49a	-0.38223726
10	0xbe30a237	-0.1724938
11	0x3e2dee02	0.16985324
12	0x3e844dc0	0.2584057
13	0x3f124248	0.5713239
14	0x3e6b0c08	0.22953808
15	0xbd2f73a3	-0.04283489
16	0x3eba2659	0.36357382
17	0x3e467384	0.19380003
18	0x3ad64431	0.0016347227
19	0xbe13ad0d	-0.14421482
20	0x3e51fa5c	0.20505661
21	0xbd888909	-0.066667624
22	0xbd72d2ca	-0.059283055
23	0xbe81928f	-0.25307128
24	0xbe0ec17c	-0.13940996
25	0x3e7fbed2	0.24975136
26	0x3d6712e4	0.0564145
27	0xbde4d56d	-0.1117352
28	0xbcc4c0fb	-0.024017802
29	0xbe262238	-0.16223991
30	0x3ee183de	0.4404592
31	0x3ea261e3	0.31715307
32	0xbed15193	-0.4088255
33	0x3e846228	0.25856137
34	0xbdd27fac	-0.10278258
35	0x3e568c6b	0.20952003
36	0x3d8f41fb	0.06995007
37	0x3e254a7c	0.16141695
38	0xbe1c2d38	-0.15251625
39	0x3ea4e1b1	0.3220344
40	0x3caee7bd	0.021350736
41	0x3eb61da5	0.35569492
42	0x3ec27592	0.37980324
43	0xbd158a9b	-0.036509138
44	0x3e97c9cb	0.29646143
45	0x3e394f04	0.18096548
46	0x3d7cf277	0.06175467
47	0x3e8781bc	0.26466167
48	0xbe8e7154	-0.27820837
49	0xbee4c3b4	-0.4468056
50	0x3e08f135	0.13373263
51	0x3eb3a340	0.35085487
52	0xbeb0e07d	-0.3454627
53	0x3eabb0e2	0.33533388
54	0xbe377bc4	-0.17918307
55	0xbe6796fc	-0.2261619
56	0x3e8d0331	0.27541497
57	0xbeb6622a	-0.35621768
58	0xbe40e3ef	-0.1883695
59	0x3e75bbb9	0.23997392
60	0xbd6b688b	-0.057472747
61	0x3c265fa2	0.010154637
62	0xbec85c86	-0.3913309
63	0xbeb76e72	-0.3582645

conv1.att_dst f4 [1, 1, 64]
0	0x3db08b0b	0.0862027
1	0xbe880848	-0.26568818
2	0xbee83f27	-0.4536068
3	0xbe80daf9	-0.25167063
4	0x3dc72024	0.09722927
5	0x3e6b7538	0.22993934
6	0x3ec01b0d	0.37520638
7	0xbcfd2754	-0.030902542
8	0x3e9404f7	0.28910038
9	0x3d98780c	0.07444772
10	0x3e13b35c	0.14423889
11	0x3e4dddb9	0.20104112
12	0xbba7f6c4	-0.0051258523
13	0x3f14db50	0.58147144
14	0x3ea1ddd5	0.31614557
15	0x3edaa4b2	0.42703778
16	0x3e05922d	0.13044043
17	0x3e8a1dca	0.26975852
18	0xbd81b381	-0.06333066
19	0x3e943f69	0.28954628
20	0x3d4d4cd2	0.05012209
21	0x3e6738e7	0.225803
22	0x3a676e89	0.00088284217
23	0xbe94d0c4	-0.29065526
24	0x3d661fd9	0.056182716
25	0x3e10cd38	0.14140785
26	0xbd3aca8d	-0.045603324
27	0x3ddf49e6	0.10902767
28	0x3e80f63a	0.25187856
29	0x3d077c20	0.03307736
30	0xbd915edf	-0.07098173
31	0x3ec830f1	0.3909984
32	0xbed23e64	-0.41063225
33	0x3e55a51c	0.20863765
34	0x3e918262	0.28419787
35	0xbdca34fd	-0.09873388
36	0x3d0bb5f3	0.034109067
37	0x3e08cace	0.13358614
38	0x3ecbb6e4	0.39787972
39	0x3dc4c68b	0.096081816
40	0x3e9b0dd4	0.30283988
41	0xbea2db46	-0.31807917
42	0x3da8a417	0.08234423
43	0x3e9e246d	0.30887166
44	0x3d8f9daa	0.07012494
45	0xbcd76e2d	-0.026297653
46	0xbe8e8150	-0.27833033
47	0xbd8166c6	-0.063184306
48	0xbea35e52	-0.31907898
49	0x3d04839e	0.032352082
50	0x3e882866	0.26593322
51	0xbe841bf4	-0.25802577
52	0xbd9c9138	-0.07644886
53	0xbc0b1417	-0.0084886765
54	0x3e8f722f	0.28016803
55	0xbe99787d	-0.29974738
56	0x3ec6b10c	0.3880695
57	0xbebeeb64	-0.37288964
58	0xbe13881f	-0.14407395
59	0x3bcf8c6e	0.006333879
60	0x3c8939e6	0.016751241
61	0x3e894bfd	0.26815787
62	0x3c05c388	0.008164294
63	0xbd68f8d3	-0.056877922

conv1.bias f4 [64]
0	0x3bdcc8a6	0.0067377863
1	0x3da8b86b	0.082383
2	0x3dbe1613	0.09281554
3	0x3d64bba0	0.055842996
4	0x3e2054c3	0.15657334
5	0x3d2cf4e0	0.04222572
6	0x3e12b1da	0.14325657
7	0x3c455853	0.012044984
8	0xbcb7e85e	-0.022449668
9	0x3d260878	0.04053542
10	0xbd95dd66	-0.07317619
11	0x3d5434ab	0.05180804
12	0xbca968bd	-0.020679826
13	0x3c1daaf2	0.009623276
14	0x3e39b785	0.18136413
15	0xba8fcd65	-0.0010971247
16	0x3d29e203	0.041475307
17	0x3c2d1818	0.010564826
18	0xbcb8a4bb	-0.022539487
19	0x3bf06340	0.0073360503
20	0xbd2938a3	-0.04131378
21	0xbcfc6140	-0.030808091
22	0x3d39249d	0.045200933
23	0x3c43eb75	0.011957993
24	0x3c2f1cd6	0.010688027
25	0xbda11681	-0.078656204
26	0x3d502562	0.0508169
27	0xbb8c8743	-0.0042885854
28	0x3dd98fee	0.106231555
29	0x3da2c6a3	0.07948043
30	0x3e0ba51e	0.13637206
31	0xbd5bde21	-0.053678636
32	0x3dcee3b1	0.101020224
33	0xbdd17762	-0.102278486
34	0xbcc48a01	-0.023991587
35	0x3e7dbe20	0.24779558
36	0x3cf3e4c4	0.02977217
37	0x3d735acb	0.05941276
38	0x3bd90caf	0.0066238265
39	0x3db45a4d	0.08806286
40	0x3dfec0f8	0.124391496
41	0x3daa1897	0.083054714
42	0x3cda9657	0.026683016
43	0x3d854d9a	0.06508942
44	0x3ddc9995	0.10771481
45	0x3d1d630f	0.038424548
46	0xbd1b8226	-0.037965916
47	0x3c09e6f8	0.008416884
48	0xbcb977d1	-0.02264014
49	0x3db57bb8	0.08861488
50	0x3d6aa3bc	0.057285056
51	0x3e0228de	0.12710902
52	0xbcb2b3b1	-0.0218142
53	0x3da7841f	0.08179497
54	0xbb129e2b	-0.0022372107
55	0x3d850b4d	0.06496296
56	0xbde4dd3a	-0.11175008
57	0x3da21e2d	0.07915912
58	0x3d24ea85	0.040262718
59	0x3e14b9f0	0.14524055
60	0x3d76de92	0.060270853
61	0x3dbad454	0.091225296
62	0x3d3fffc1	0.046874765
63	0x3d5c4f89	0.053786788

conv1.lin.weight f4 [64, 89]
0	0x3e13ac2b	0.14421146
1	0x3d45c4cc	0.048283383
2	0xbde4315e	-0.111422285
3	0xbe34cade	-0.17655513
4	0xbe495b9d	-0.19663854
5	0xbdc02f5a	-0.093840316
6	0x3e21581b	0.15756266
7	0x3c7f2330	0.015572354
8	0x3c81e888	0.01585795
9	0xbddd8652	-0.10816635
10	0x3de4b2da	0.11166926
11	0xbe1f086f	-0.15530561
12	0xbd188f88	-0.037246257
13	0xbd8af20f	-0.0678445
14	0x3e023883	0.1271687
15	0xbdbf068d	-0.09327421
16	0x3acc6920	0.0015595295
17	0x3e36ab27	0.17838727
18	0xbdbcc76f	-0.092177264
19	0xbe0823ea	-0.1329495
20	0x3c00604b	0.007835458
21	0x3df5b1d1	0.119968064
22	0x3d932672	0.07185067
23	0x3e6e30f3	0.2326086
24	0x3e566c84	0.20939833
25	0x3dc42585	0.09577469
26	0x3e0220eb	0.1270787
27	0x3e74b80b	0.23898332
28	0xbe4c2e7f	-0.19939612
29	0xbe627b44	-0.22117335
30	0x3d8d39dd	0.06895802
31	0xbd96c881	-0.07362462
32	0xbed6f22e	-0.41981643
33	0x3eb7a9e8	0.35871816
34	0x3c2f73bc	0.010708746
35	0xbe97d6bd	-0.2965602
36	0xbd40656e	-0.04697173
37	0x3d2ddb2b	0.042445343
38	0xbdadb532	-0.08481826
39	0xbe0ce717	-0.13760029
40	0x3e9e7ac4	0.30953038
41	0x3d61a940	0.05509305
42	0x3dcfe60b	0.10151299
43	0x3f45105b	0.7697808
44	0x3e5d50b3	0.21612816
45	0xbed584ab	-0.4170278
46	0x3db8a5f6	0.090160295
47	0x3d441791	0.047874037
48	0xbc239392	-0.009983914
49	0x3d2a3a08	0.04155925
50	0xbe0fba54	-0.14035922
51	0xbf073472	-0.528144
52	0x3e456ecc	0.19280547
53	0xbda09d27	-0.078424744
54	0x3e6ff7af	0.23434328
55	0xbd92a78b	-0.071608625
56	0x3e793aff	0.24338911
57	0xbec92e37	-0.39293072
58	0xbeb2e796	-0.3494231
59	0x3e517820	0.2045598
60	0x3c97d9aa	0.018536408
61	0xbd6d0986	-0.05787041
62	0xbd2b182a	-0.04177109
63	0x3e2d9af5	0.16953643
64	0x3defa7fb	0.117019616
65	0xbd9aa155	-0.07550303
66	0x3d0f4ab0	0.034983337
67	0xbe0bd174	-0.13654119
68	0xbd7bc3a4	-0.061465874
69	0x3c4f00b0	0.012634441
70	0xbe0465b7	-0.12929426
71	0x3e0c6f5a	0.13714352
72	0x3de002e6	0.10938053
73	0xbe4f70fa	-0.20257941
74	0x3dfadb81	0.12248898
75	0xbd3d159a	-0.04616318
76	0xbe8f7980	-0.28022385
77	0xbe48ab22	-0.19596532
78	0xbe133831	-0.14376904
79	0x3e32f484	0.17476088
80	0x3e38f207	0.18061076
81	0x3cf5eb13	0.030019319
82	0xbe0b1314	-0.13581496
83	0xbbb72c97	-0.0055900323
84	0x3e83e103	0.25757608
85	0xbdfbcf84	-0.1229544
86	0xbd351365	-0.04420795
87	0xbe758250	-0.23975492
88	0x3e3de4cc	0.1854431
89	0xbe35761d	-0.17720838
90	0x3d254c5c	0.040356025
91	0xbe003952	-0.12521866
92	0x3d07057c	0.032964215
93	0xbd698258	-0.05700907
94	0x3dd58b1a	0.10426922
95	0x3c525c20	0.012839347
96	0xbcc3ca68	-0.023900226
97	0x3dc2cda6	0.095118806
98	0xbd243b11	-0.040095393
99	0xbe9f7da9	-0.3115056
100	0xbcc5ed2f	-0.02416095
101	0x3e6b04f1	0.22951104
102	0xbda73db2	-0.08166064
103	0xbd0023ac	-0.03128402
104	0x3d157995	0.036492903
105	0x3eae2f8f	0.3402066
106	0x3c524690	0.012834206
107	0x3e1cefcd	0.15325852
108	0x3e0c154f	0.13680004
109	0xbe96c54d	-0.29447404
110	0xbdfc3f94	-0.12316814
111	0xbe94c893	-0.29059276
112	0x3e771034	0.24127275
113	0x3e9b0758	0.3027904
114	0x3d47bd3d	0.048764456
115	0x3888b7c4	6.5192144e-05
116	0x3dc977e5	0.09837321
117	0x3ed113f1	0.40835527
118	0xbe5772d1	-0.21039893
119	0xbe3ae82d	-0.1825263
120	0x3d82b6a8	0.06382495
121	0x3ef15eff	0.4714279
122	0xbf1eaea6	-0.6198524
123	0x3f117e3d	0.5683325
124	0x3f10290c	0.5631263
125	0x3e3b1639	0.18270196
126	0x3e1fe661	0.15615226
127	0xbdad2de6	-0.0845602
128	0x3e88a8c8	0.2669127
129	0x3e97efcd	0.2967514
130	0xbefe0ce1	-0.496192
131	0x3ef5d3b3	0.48013076
132	0x3ebbd3d9	0.36685064
133	0x3d9a5641	0.07535983
134	0x3e1290fb	0.14313118
135	0xbe6957a9	-0.22787346
136	0x3e2ee426	0.17079219
137	0xbe65c9aa	-0.2244021
138	0x3dc8d968	0.09807092
139	0xbea2ac5b	-0.31772122
140	0x3ded44db	0.11585399
141	0x3de118e6	0.10991077
142	0x3e082e42	0.13298896
143	0x3eb44834	0.35211337
144	0x3bcb3804	0.006201746
145	0xbe061c5b	-0.13096754
146	0x3e0cdb6b	0.13755576
147	0xbeabcdef	-0.33555552
148	0xbe02e59b	-0.127829
149	0xbdbe1a72	-0.09282388
150	0xbe7b614f	-0.24548839
151	0xbe64b990	-0.22336411
152	0xbe77e97d	-0.24210162
153	0xbf038e35	-0.51388866
154	0xbd993c52	-0.07482208
155	0xbe46c25a	-0.19410077
156	0xbddc8d61	-0.107691534
157	0xbe3cd1a6	-0.1843935
158	0x3cd4fd88	0.0259998
159	0x3d1776aa	0.0369784
160	0x3df6ef00	0.120573044
161	0x3d4b295f	0.0496
162	0x3e3ecb1a	0.18632165
163	0xbe039a04	-0.12851721
164	0xbd3cce75	-0.04609533
165	0x3dbcc932	0.092180625
166	0x3da62d1e	0.08114074
167	0x3e2e824f	0.17041896
168	0xbcfda4ca	-0.030962367
169	0x3daa2a20	0.08308816
170	0x3e07f246	0.13276014
171	0x3e738669	0.23781742
172	0xbd223bcc	-0.039607808
173	0xbd62509f	-0.055252668
174	0x3d56907a	0.052383877
175	0x3c47f7e0	0.012205094
176	0xbe4cb2c1	-0.19990064
177	0x3e83015d	0.25586978
178	0x3df7f88e	0.12107955
179	0x3d7cf02c	0.061752483
180	0x3e0a862d	0.13527746
181	0xbb7d2200	-0.0038625002
182	0x3d9e2c2a	0.077232674
183	0x3d8204a2	0.0634854
184	0x3c54dab0	0.012991592
185	0xbd7c91b4	-0.06166239
186	0x3dca7416	0.09885423
187	0x3e534ede	0.20635554
188	0x3e2d498f	0.16922592
189	0xbf07f1d6	-0.5310339
190	0x3c017953	0.007902461
191	0xbe539e8d	-0.20665951
192	0xbe8a7fec	-0.27050722
193	0x3b0f55e0	0.0021871254
194	0xbe759a8c	-0.23984736
195	0xbe4d412e	-0.20044395
196	0xbec3396c	-0.38129747
197	0x3f080ec5	0.53147537
198	0x3de1ba97	0.11021917
199	0x3dd17ca3	0.10228851
200	0xbed7a8e0	-0.4212103
201	0xbf1c2ffb	-0.6101071
202	0xbda58bcf	-0.08083307
203	0xbf15d7a6	-0.5853218
204	0xbed36794	-0.4128996
205	0x3e8c1d42	0.27366072
206	0x3dd03b64	0.10167578
207	0x3dab5ab1	0.083669074
208	0xbf058084	-0.52149224
209	0xbe35be84	-0.17748457
210	0x3ef7095f	0.48249337
211	0x3d1a393b	0.037652235
212	0xbd0a8ddd	-0.033826698
213	0xbdfb9197	-0.122836284
214	0xbd962a0b	-0.07332238
215	0xbdc46d3a	-0.09591146
216	0x3ddc2b5a	0.10750456
217	0x3ec7a5f5	0.38993803
218	0x3eaeb48f	0.3412213
219	0x3e89ead4	0.26936972
220	0x3f3a6781	0.72814184
221	0x3eaed8a2	0.34149653
222	0xbe671e11	-0.22570063
223	0xbebf3011	-0.3734136
224	0x3e8ce3fa	0.27517682
225	0xbef607d6	-0.48052853
226	0xbd8e13a9	-0.069373436
227	0xbe8a2d10	-0.26987505
228	0xbd8f2037	-0.06988566
229	0xbf22ed03	-0.636429
230	0x3e858a4e	0.2608208
231	0xbede1a60	-0.43379498
232	0xbda100ba	-0.07861467
233	0x3e1d6a09	0.1537248
234	0xbefda335	-0.4953858
235	0xbee6f405	-0.45108047
236	0xbd6ded94	-0.0580879
237	0xbe871afb	-0.26387772
238	0x3e93d0cd	0.2887024
239	0xbe9c4d0b	-0.3052753
240	0x3d5ef1ff	0.054430004
241	0xbe806f69	-0.25085
242	0x3de6f7bb	0.112777196
243	0xbd92c44c	-0.07166347
244	0xbe3916e9	-0.18075146
245	0xbe1726bc	-0.1476087
246	0xbd8bbd46	-0.068232104
247	0xbd52864c	-0.051397607
248	0x3d13693e	0.03598904
249	0x3ea0edf1	0.31431535
250	0x3e42c8dc	0.19021934
251	0xbddd7701	-0.10813714
252	0xbdc461e3	-0.09588983
253	0x3e0da869	0.13833775
254	0xbeb9be6e	-0.362781
255	0xbdd5e1f3	-0.10443487

conv2.att_src f4 [1, 1, 64]
0	0x3db9313d	0.090425946
1	0x3e79c39b	0.24391024
2	0xbe3757d4	-0.17904598
3	0x3e7460d7	0.23865066
4	0x3d035ad1	0.03206903
5	0x3e9f6df1	0.31138566
6	0x3d853093	0.065034054
7	0x3d8dd31d	0.06925032
8	0xbd0e3538	-0.034718722
9	0xbe9448f2	-0.28961903
10	0x3ea0304b	0.31286845
11	0xbdf8661d	-0.121288516
12	0xbcfdb87c	-0.030971758
13	0x3d1441b7	0.036195483
14	0xbcbb6d18	-0.022879168
15	0x3e26b972	0.1628168
16	0x3e1f6fd6	0.15570006
17	0x3e742cc3	0.238452
18	0x3e9e608c	0.30933034
19	0x3ee61f80	0.44945908
20	0xbe9e62f2	-0.30934864
21	0xbe06706f	-0.13128828
22	0xbe8c4469	-0.27395943
23	0xbf1283ba	-0.5723225
24	0xbb13d1ae	-0.0022555399
25	0xbe8547dd	-0.2603139
26	0xbf13c018	-0.57714987
27	0xbd1922b9	-0.03738663
28	0xbf1ef740	-0.62096024
29	0x3de87cf2	0.113519564
30	0xbef1ad38	-0.47202468
31	0xbe1850b6	-0.14874539
32	0xbde22bf4	-0.1104354
33	0x3e943055	0.28943124
34	0x3eb5c003	0.35498056
35	0xbe95ce0d	-0.29258767
36	0x3e2b361e	0.16719863
37	0xbe256a2e	-0.16153786
38	0xbe86b63d	-0.26310912
39	0x3e20688e	0.15664884
40	0x3e47d76f	0.19515775
41	0x3f1a4c43	0.60272616
42	0x3e7c2b4b	0.2462589
43	0x3ea79388	0.32729745
44	0xbe026d67	-0.12737046
45	0x3a9564ab	0.0011397799
46	0xbe872f74	-0.2640339
47	0xbe894baf	-0.26815554
48	0xbe352510	-0.1768992
49	0xbeca06bc	-0.39458263
50	0x3e93dbfc	0.28878772
51	0xbe8d036e	-0.2754168
52	0xbdecb101	-0.11557198
53	0xbee3b8b1	-0.44476846
54	0x3e82dade	0.25557607
55	0x3ee5c57d	0.44877234
56	0xbdc9475d	-0.098280646
57	0xbc478202	-0.012176992
58	0x3e922b13	0.28548488
59	0xbe19db88	-0.15025151
60	0x3e4afd58	0.19823205
61	0xbe323323	-0.1740232
62	0xbf15d475	-0.5852731
63	0x3ed66386	0.41872805

conv2.att_dst f4 [1, 1, 64]
0	0x3e24292a	0.16031328
1	0x3e4b75a6	0.19869098
2	0xbd68d2b4	-0.056841567
3	0xbcd42569	-0.025896745
4	0xbdab8670	-0.08375251
5	0x3e3f212c	0.18664998
6	0x3e959c8b	0.29220995
7	0xbd9e7f05	-0.07739071
8	0xbefa2d6c	-0.4886278
9	0x3d288cba	0.041149832
10	0x3dc01534	0.09379044
11	0xbd14e7fc	-0.03635405
12	0x3dd6a2bc	0.10480258
13	0x3e161a8e	0.14658567
14	0x3dd19ad4	0.10234609
15	0x3f16f449	0.589665
16	0x3e9fd7ad	0.31219235
17	0x3eaf7e71	0.34276155
18	0xbdb24415	-0.08704392
19	0x3e67e1dd	0.22644754
20	0x3e26c700	0.1628685
21	0xbdf908ad	-0.12159858
22	0x3b94583c	0.00452712
23	0x3ee01456	0.43765515
24	0xbe817cc4	-0.252905
25	0xbd92a799	-0.07160873
26	0x3e5e12e4	0.21686894
27	0x3e16aed5	0.1471513
28	0x3da2023a	0.07910581
29	0xb9c12dee	-0.0003684605
30	0xbcfe1b2d	-0.031018818
31	0x3e869e1e	0.2629251
32	0xbe0b28a7	-0.13589726
33	0xbdbe017f	-0.09277629
34	0xbdcbc15a	-0.09948988
35	0x3e081887	0.13290606
36	0xbef9ff15	-0.48827425
37	0xbd85bde4	-0.065303594
38	0x3ee981be	0.45606798
39	0xbe8947cb	-0.26812586
40	0xbdda54a4	-0.10660675
41	0x3e8961cc	0.26832426
42	0x3e876345	0.26442924
43	0xbc82bac6	-0.015958201
44	0x3e02e4dc	0.12782615
45	0xbc8a6408	-0.016893402
46	0x3eddd0cc	0.43323362
47	0xbe065179	-0.13117017
48	0xbdc0a665	-0.09406737
49	0x3c462c6e	0.012095554
50	0xbe5654b7	-0.20930754
51	0xbd884fca	-0.066558436
52	0x3e52a776	0.20571694
53	0xbdf1c385	-0.118048705
54	0x3dff41aa	0.12463696
55	0x3dadd59a	0.08488007
56	0x3e6a3743	0.22872643
57	0x3eab315f	0.33436105
58	0x3e8be315	0.27321687
59	0xbd23c82d	-0.039985824
60	0x3ea48e8b	0.32140002
61	0x3dc72d5f	0.09725451
62	0x3e4b44c6	0.19850454
63	0xbe480b84	-0.19535643

conv2.bias f4 [64]
0	0xbd634a23	-0.055490624
1	0xba77bb43	-0.00094502064
2	0x3e0c84c9	0.13722529
3	0xbd8b8e86	-0.068142936
4	0x3dd8f33d	0.10593269
5	0x3e2d8c27	0.16947995
6	0x3ca2a635	0.019854644
7	0x3d5572fc	0.05211161
8	0x3dc06bbb	0.09395548
9	0xbc60f4e9	-0.013730266
10	0x3e07ac92	0.13249424
11	0x3dc75cee	0.09734522
12	0x3d0456c7	0.03230932
13	0x3d7e972f	0.0621559
14	0xbd1334ae	-0.03593891
15	0x3d6731ab	0.05644385
16	0x3da06928	0.07832557
17	0x3caabaf6	0.020841103
18	0xbd0df756	-0.034659706
19	0xbc8eb986	-0.017422449
20	0x3dbdf06c	0.092743725
21	0x3da9dc6f	0.082939975
22	0x3cbbc81a	0.022922564
23	0x3d05c412	0.03265769
24	0x3e03ad08	0.12858975
25	0x3de5b8a0	0.11216855
26	0x3d6c48f5	0.057686765
27	0xbd56ad67	-0.052411463
28	0x3dba8168	0.091067135
29	0x3d5c7d9b	0.053830724
30	0xbd17af07	-0.037032153
31	0x3d3066a2	0.04306663
32	0xbc9987a3	-0.018741434
33	0x3c33c1fa	0.010971541
34	0xbc4d06f0	-0.012513861
35	0x3d4533b0	0.048144996
36	0x3db63b44	0.08898023
37	0x3d9e2b1a	0.07723065
38	0x3ba4088f	0.005005903
39	0x3da6f887	0.081528716
40	0x3e68bd99	0.22728576
41	0x3dac7d4f	0.08422338
42	0x3c8ebb6b	0.017423352
43	0x3dc7c10e	0.09753619
44	0x3daccf69	0.08437998
45	0x3d099640	0.033590555
46	0x3d51fb34	0.051264957
47	0xbce5552e	-0.027994718
48	0xbd06a98a	-0.03287653
49	0x3da03356	0.078222916
50	0x3d0fb1d6	0.035081707
51	0x3ca101af	0.019654123
52	0x3cd2d31f	0.025735436
53	0x3da95f49	0.08270127
54	0x3b8cad36	0.0042931093
55	0xbdd55bb3	-0.10417881
56	0x3cedbe77	0.029021485
57	0x3da9b16d	0.082857944
58	0xb7ede5ec	-2.8359667e-05
59	0x3cfaaa5c	0.030598812
60	0x3d3fc83d	0.04682182
61	0xbccc9397	-0.02497272
62	0x3e1522fa	0.14564124
63	0x3d06e177	0.032929864

conv2.lin.weight f4 [64, 64]
0	0x3e11e511	0.14247538
1	0xbd7466d1	-0.059668366
2	0xbe4a2e66	-0.19744262
3	0xbe271a2a	-0.16318575
4	0x3e89c2c2	0.269064
5	0xbd3b9e3c	-0.0458052
6	0x3ceca946	0.02888931
7	0x3e310829	0.17288269
8	0x3db0b452	0.08628143
9	0x3e6361ee	0.22205326
10	0xbee5c516	-0.44876927
11	0x3e6aa264	0.2291351
12	0x3d89395d	0.06700394
13	0x3dd41804	0.10356143
14	0x3e04862e	0.1294181
15	0x3e2965cd	0.1654274
16	0x3eae8a43	0.3408986
17	0xbd0dc4bf	-0.03461146
18	0x3d1cf067	0.038315203
19	0x3e4e5e0c	0.20153064
20	0x3d9fcc39	0.07802624
21	0xbde0b172	-0.10971345
22	0xbe54a317	-0.20765339
23	0x3f3ce971	0.73793703
24	0x3e1ed8b2	0.1551235
25	0x3d640894	0.055672243
26	0xbba1506c	-0.004922917
27	0xbe78abe9	-0.24284329
28	0x3e2d7a52	0.16941193
29	0x3d732497	0.059361067
30	0xbd2922fd	-0.041293133
31	0x3e7532bb	0.23945133
32	0xbd57733a	-0.052600123
33	0x3db349b8	0.08754295
34	0xbd852894	-0.0650188
35	0x3dd828f9	0.1055469
36	0x3d2d0fcd	0.042251397
37	0x3d2ee55b	0.0426992
38	0x3e097745	0.13424404
39	0xbee1ce34	-0.44102633
40	0x3dbf8662	0.09351803
41	0xbdf2716a	-0.11838038
42	0x3ec034f9	0.37540415
43	0x3e2cc5ce	0.16872332
44	0xbd81e405	-0.063423194
45	0xbe3aaebf	-0.18230723
46	0xbe0e6c77	-0.13908564
47	0xbe8c5e45	-0.27415672
48	0xbe60eb33	-0.21964721
49	0x3d7cd7dc	0.061729297
50	0x3edbc48b	0.42923388
51	0xbc56f010	-0.013118759
52	0xbe5314a4	-0.20613343
53	0x3ce3fad5	0.027829567
54	0xbe3584c5	-0.17726429
55	0xbde0dad5	-0.10979239
56	0x3ea5e9d4	0.3240496
57	0xbe061664	-0.13094479
58	0x3e5a7096	0.2133201
59	0x3db958a2	0.090501085
60	0x3e012316	0.1261104
61	0x3e0857a3	0.13314681
62	0x3d897b7a	0.067130044
63	0xbde8966b	-0.11356815
64	0x3e3c5923	0.18393378
65	0x3db222f1	0.08698071
66	0x3e5f4842	0.21804908
67	0xbdd7d0e3	-0.10537889
68	0xbda459a1	-0.08024908
69	0xbe7c4356	-0.24635062
70	0x3d9ffef8	0.07812303
71	0x3e91c63b	0.2847155
72	0x3e83a0de	0.2570867
73	0x3dcb5abd	0.09929416
74	0xbd309e38	-0.04311964
75	0x3e79d37a	0.24397078
76	0xbe041526	-0.12898692
77	0x3e1a95e7	0.15096246
78	0x3e935f9c	0.28783882
79	0x3c8535b2	0.016260955
80	0x3e061603	0.13094334
81	0x3e569937	0.20956884
82	0x3cf0d7ae	0.02939972
83	0x3e90af9e	0.28258985
84	0x3ebc09b3	0.3672615
85	0xbc5218e6	-0.012823319
86	0xbdbf8fbb	-0.09353586
87	0xbeba5e7d	-0.36400214
88	0x3e5d63cf	0.21620105
89	0xbbcb05e4	-0.0061957706
90	0xbd84435f	-0.064581625
91	0xbe268473	-0.16261463
92	0x3dfff0ee	0.124971256
93	0x3dacb50b	0.08432969
94	0xbe234ce9	-0.15947308
95	0x3d92efb2	0.071746245
96	0x3ecaddee	0.39622444
97	0x3e8f676c	0.28008592
98	0x3e962194	0.29322493
99	0x3e2d80c9	0.16943659
100	0xbdfae522	-0.12250735
101	0x3dfc9db1	0.12334765
102	0xbd4164d5	-0.0472153
103	0xbeb33f2d	-0.35009137
104	0x3d09fef8	0.033690423
105	0x3d732018	0.05935678
106	0x3eda80ff	0.4267654
107	0xbda67b56	-0.08128993
108	0x3dd90587	0.105967574
109	0xbe5aeb9d	-0.21378942
110	0xbd8560a0	-0.065125704
111	0x3d47a980	0.048745632
112	0xbedb87eb	-0.42877135
113	0xbc8bf16d	-0.017082894
114	0x3ebfba78	0.37446952
115	0xbf1451c3	-0.5793726
116	0x3e0da6e0	0.13833189
117	0xbda41ed7	-0.08013695
118	0x3dd45998	0.10368651
119	0xbe2fcc2c	-0.17167729
120	0x3ecca006	0.39965838
121	0x3d94f226	0.07272749
122	0x3d07b339	0.033129904
123	0x3eaf3097	0.3421676
124	0x3e08ed44	0.1337176
125	0x3db2de87	0.0873385
126	0xbe68ea7e	-0.22745702
127	0x3e490bd8	0.19633424
128	0x3cae2ddd	0.021262104
129	0xbdb14ef6	-0.08657639
130	0xbe3715a9	-0.17879356
131	0x3d19b43c	0.0375254
132	0x3d921da4	0.0713456
133	0x3e2802aa	0.16407266
134	0x3d74100d	0.05958562
135	0xbdf330bd	-0.118745305
136	0xbdd09c68	-0.10186082
137	0x3d2b1e72	0.04177708
138	0x3e8ad1ce	0.27113193
139	0x398f3790	0.00027316483
140	0x3d2c22d3	0.0420254
141	0x3e10e2da	0.14149037
142	0xbdb22983	-0.08699324
143	0xbdc508e1	-0.09620834
144	0xbe78c574	-0.24294072
145	0xbe1a9163	-0.15094523
146	0xbf173f84	-0.5908129
147	0x3e5f73d2	0.21821526
148	0xbec64d20	-0.38730717
149	0xbe2693b6	-0.16267285
150	0x3e653c46	0.22386274
151	0x3ec2d686	0.38054293
152	0x3e02b69c	0.12764972
153	0x3e200dfe	0.15630338
154	0x3ebaefc0	0.3651104
155	0x3e86f31b	0.2635735
156	0xbe232113	-0.15930586
157	0x3e519c87	0.20469867
158	0xbd3d9c33	-0.04629154
159	0xbd476283	-0.048677932
160	0x3e2a4d73	0.16631107
161	0x3cb220a0	0.021744072
162	0x3c16607d	0.009178278
163	0x3d0110cd	0.031510163
164	0xbd4b275b	-0.04959808
165	0xbe10d8f0	-0.14145255
166	0x3e15b2d3	0.14618997
167	0x3e033c3e	0.1281595
168	0xbe117ee2	-0.14208558
169	0xbe83f85e	-0.25775427
170	0xbe87df50	-0.2653756
171	0xbe1c61a3	-0.1527162
172	0x3dd81f2d	0.10552821
173	0xbdb69ae8	-0.08916265
174	0xbd9adfde	-0.075622305
175	0x3dc351b2	0.095370665
176	0xbd50b301	-0.05095196
177	0xbd1273b2	-0.035754867
178	0x3e02c65f	0.12770985
179	0xbdc4cca6	-0.09609346
180	0xbe07eeb5	-0.13274653
181	0x3c19dbcc	0.009390783
182	0xbe494c03	-0.19657902
183	0xbd016d2a	-0.031598248
184	0xbe59fdb3	-0.21288185
185	0x3eb6ae49	0.35679844
186	0xbdeee728	-0.11665183
187	0x3e1cdd60	0.15318823
188	0xbd8e7af7	-0.069570474
189	0x3e12b110	0.14325356
190	0x3ec69884	0.38788235
191	0x3d83acaf	0.06429421
192	0xbc6cd767	-0.014455653
193	0xbb9c979e	-0.0047788164
194	0xbea5f2fe	-0.3241195
195	0xbeba0b4d	-0.36336747
196	0xbe1ab8fe	-0.15109631
197	0xbc0bbdcc	-0.008529138
198	0xbddf286d	-0.108963825
199	0xbdece35d	-0.115668036
200	0xbea7e9ab	-0.32795462
201	0x3deeac7f	0.11653995
202	0xbda76220	-0.08173013
203	0x3e95de9a	0.29271394
204	0xbe9cc705	-0.3062059
205	0xbe32ac19	-0.17448463
206	0xbe61b6a8	-0.22042334
207	0x3d7cff0d	0.061766673
208	0xbe5a2d0c	-0.21306247
209	0xbe8e6d87	-0.27817938
210	0xbc603c4e	-0.013686253
211	0x3e22ebd7	0.15910278
212	0x3b0c48b6	0.0021405644
213	0x3deca55a	0.11554976
214	0xbe452c14	-0.19255096
215	0xbdab6131	-0.08368147
216	0xbe7e502f	-0.24835275
217	0xbe86c8d6	-0.263251
218	0xbee882ad	-0.45412198
219	0xbe459d58	-0.19298303
220	0xbdb3f1af	-0.08786332
221	0xbde52963	-0.111895345
222	0x3ea298d9	0.31757239
223	0xbe79f6b8	-0.24410522
224	0xbdc0b115	-0.09408776
225	0xbd0f8e50	-0.03504783
226	0xbdbe262c	-0.092846245
227	0x3e05ae69	0.13054813
228	0x3e4c119e	0.19928595
229	0x3e2d6c2f	0.169358
230	0xbe805208	-0.25062585
231	0x3e6742a1	0.2258401
232	0x3dc46e46	0.095913455
233	0x3e70482f	0.23465036
234	0xbe2aafc8	-0.16668618
235	0xbdad1423	-0.084511064
236	0x3dc9db8b	0.098563276
237	0x3eb99923	0.36249647
238	0x3dc7bcb6	0.09752791
239	0xbe3094f4	-0.17244321
240	0xbdebe4f4	-0.11518279
241	0x3da44a34	0.080219656
242	0x3e6e14b0	0.23250079
243	0x3e1ced19	0.1532482
244	0xbdfe0898	-0.12403983
245	0x3e8f18ee	0.27948707
246	0xbe7a6ced	-0.24455614
247	0x3e46e50b	0.1942331
248	0xbe6de85e	-0.23233172
249	0x3e3bf7eb	0.18356292
250	0xbd76cd4b	-0.060254376
251	0x3e07e6e8	0.13271677
252	0x3e0978ea	0.13425031
253	0xbe556a84	-0.20841414
254	0xbee1f4eb	-0.4413217
255	0xbbedeeb4	-0.0072611216

conv3.att_src f4 [1, 1, 64]
0	0xbea63b4c	-0.32467115
1	0x3d418ad3	0.047251534
2	0x3e77849c	0.2417168
3	0xbe7ac4c4	-0.24489123
4	0x3ecb65b9	0.39726046
5	0x3eeb89b0	0.46003485
6	0xbe39eabe	-0.18155953
7	0xbe0f8d50	-0.1401875
8	0xbe20fcbe	-0.15721413
9	0x3cc9753d	0.024592036
10	0xbe3f5a91	-0.18686892
11	0xbd9a15f8	-0.075237215
12	0xbe733373	-0.23750095
13	0xbe73e786	-0.23818788
14	0x3e2a5ab6	0.16636166
15	0xbed0e59b	-0.40800175
16	0x3ecc909b	0.39954075
17	0xbdf4e2f8	-0.11957353
18	0x3d0591e7	0.032609846
19	0x3e92cf3d	0.28673735
20	0xbe8f837d	-0.28030005
21	0xbe1182f6	-0.14210114
22	0x3e11ff74	0.14257604
23	0xbe5fefcf	-0.21868823
24	0xbcae6b09	-0.021291273
25	0x3e5beb82	0.21476558
26	0x3e2d9a97	0.16953503
27	0x3da41692	0.080121174
28	0x3a8c85f6	0.0010721076
29	0x3e52e6c0	0.20595837
30	0x3e570e40	0.2100153
31	0x3d6ca3b6	0.057773314
32	0xbe9afd65	-0.3027145
33	0x3ed37c25	0.41305652
34	0xbcbafee5	-0.022826621
35	0xbe682470	-0.2267015
36	0x3e997e2b	0.2997907
37	0x3e85633b	0.2605227
38	0x3e424e99	0.18975295
39	0x3eb27f3c	0.34862697
40	0x3e3d7d28	0.18504775
41	0x3e219a7e	0.1578159
42	0x3e49752f	0.19673608
43	0x3debe2ba	0.11517854
44	0x3deb302c	0.114837974
45	0x3cb6e4c0	0.022325873
46	0xbe1a9297	-0.15094982
47	0x3eb71db7	0.35764858
48	0x3e9cef2b	0.3065122
49	0xbf0c85bf	-0.5489158
50	0x3e209cf9	0.1568488
51	0xbc9a209a	-0.018814374
52	0xbec9eed5	-0.39440027
53	0x3cdaf64c	0.026728772
54	0xbc9c6403	-0.019090658
55	0x3e1937b6	0.14962658
56	0xbc5a266d	-0.0133148255
57	0xbe66ed3f	-0.2255144
58	0xbeb70c11	-0.35751393
59	0x3ddd3511	0.10801137
60	0x3e9aed48	0.30259156
61	0x3e36f512	0.17866924
62	0xbd63dedd	-0.05563246
63	0xbe107173	-0.14105777

conv3.att_dst f4 [1, 1, 64]
0	0x3c968c51	0.018377455
1	0xbe70ba10	-0.23508477
2	0x3e54db20	0.20786715
3	0xbe81bdf8	-0.25340247
4	0x3d45ba93	0.048273634
5	0xbda8b300	-0.082372665
6	0x3d67aa35	0.056558806
7	0xbe895914	-0.26825774
8	0xbe718a55	-0.23587926
9	0x3dee2d8e	0.116297826
10	0xbe09a285	-0.13440903
11	0x3e038c2e	0.12846443
12	0xbdebbabf	-0.11510228
13	0xbe496a22	-0.19669393
14	0xbe1739ac	-0.14768094
15	0xbb929c9c	-0.0044742357
16	0x3ce4ee0f	0.027945546
17	0xbe88cbad	-0.26717892
18	0x3e700995	0.23441155
19	0xbe1f5d95	-0.15563042
20	0xbd21f888	-0.03954366
21	0x3e14821d	0.1450276
22	0xbe652e8d	-0.22381039
23	0xbe4778b0	-0.19479632
24	0x3e2c027b	0.16797821
25	0x3d5c0dff	0.053724285
26	0x3eab0fcd	0.33410493
27	0xbe1add9e	-0.15123603
28	0xbe642628	-0.2228018
29	0x3e5e35de	0.21700236
30	0x3e83d118	0.25745463
31	0xbdf51b7a	-0.11968131
32	0xbebe5f51	-0.37182096
33	0xb8ab20d4	-8.16003e-05
34	0x3da23fe9	0.07922346
35	0xbcc2a62e	-0.023760881
36	0xbe9a3065	-0.30115047
37	0xbde521b8	-0.11188072
38	0xbdf6e5a6	-0.12055521
39	0xbe3b3659	-0.1828245
40	0x3ec26dbc	0.37974346
41	0xbe6a11ac	-0.22858304
42	0x3e5e144b	0.21687429
43	0x3e530d0c	0.20610446
44	0xbdce5dcd	-0.10076485
45	0xbe1bc3ab	-0.1521136
46	0x3e7dfee3	0.24804263
47	0xbd5f2da9	-0.054486904
48	0xbcef631d	-0.029222066
49	0x3e06f3d2	0.13178948
50	0xbe31fe14	-0.1738208
51	0xbd6b822c	-0.05749719
52	0xbdf41a54	-0.11919084
53	0xbe97a34d	-0.29616776
54	0xbd04ce15	-0.032423098
55	0xba68be6f	-0.00088784745
56	0xbeb0fa53	-0.34565982
57	0x3de1050a	0.10987289
58	0xbd9f204b	-0.07769831
59	0xbe4d605a	-0.20056286
60	0x3e833b18	0.25631022
61	0xbecb6a46	-0.39729518
62	0xbe829c02	-0.2550965
63	0x3e79824c	0.2436611

conv3.bias f4 [64]
0	0xbd0f80dd	-0.035035003
1	0x3cad595f	0.02116078
2	0xbcae3b02	-0.021268371
3	0xbd2c4e7d	-0.04206704
4	0x3c1f4720	0.009721547
5	0xbc3cf4c0	-0.011532962
6	0xbcee4aeb	-0.029088458
7	0x3b9fc4cb	0.0048757545
8	0xbc014cb2	-0.007891821
9	0xbcf84825	-0.030307839
10	0x3aab2415	0.0013057018
11	0xbc76ed68	-0.0150712505
12	0xbc71c4a4	-0.014756355
13	0x3d0339c3	0.032037508
14	0xbc5f0e80	-0.013614297
15	0xbc47a7c6	-0.012185996
16	0x3c029a78	0.0079713985
17	0x3cbab325	0.0227905
18	0x3b392f9e	0.0028257142
19	0xbcb557f8	-0.022136673
20	0xbc4469f4	-0.011988152
21	0xbcb2dbb3	-0.021833276
22	0xbd29694a	-0.041360177
23	0x3c86ce24	0.016455717
24	0x3d2a7726	0.041617535
25	0xbd44e975	-0.048074204
26	0x3c05c391	0.008164302
27	0x3ccfd135	0.025368312
28	0x3c806e33	0.015677547
29	0x3c6556d8	0.013997756
30	0x3c241075	0.010013689
31	0x3c29e652	0.010369854
32	0x3cdcd250	0.026955754
33	0x3c18329f	0.009289413
34	0x3c562789	0.013070949
35	0xbc4651aa	-0.012104431
36	0x3da2879b	0.07936021
37	0xbd0b2dc3	-0.03397919
38	0x3c5eb837	0.013593725
39	0x3caa91c3	0.020821458
40	0xbc9afac7	-0.018918408
41	0x3d62e804	0.05539705
42	0xbcdd8ddf	-0.027045188
43	0x3c9504cf	0.01819077
44	0x3c73da41	0.014883579
45	0x3cb805f2	0.022463772
46	0x3cb41b5a	0.021985698
47	0x3da7129b	0.081578456
48	0x3ccb1744	0.024791367
49	0xba836465	-0.0010024427
50	0x3d40dc4b	0.047085088
51	0xbd0b28af	-0.033974346
52	0xbd3809d0	-0.044931233
53	0xbbda21fa	-0.0066568824
54	0x3cb9130f	0.022592096
55	0xbb908fd6	-0.004411678
56	0xbd216bb0	-0.03940934
57	0x3dc46b7e	0.09590815
58	0x3d1528d7	0.0364159
59	0xbaaf819d	-0.0013390068
60	0xbd1343a5	-0.035953183
61	0xbc363bc2	-0.011122646
62	0x3c99115b	0.018685034
63	0xbd38bff3	-0.045104932

conv3.lin.weight f4 [64, 64]
0	0xbe7b6e00	-0.2455368
1	0xbdc262f4	-0.0949153
2	0xbe1c4005	-0.15258797
3	0xbddcbd58	-0.10778302
4	0x3da1b65e	0.07896112
5	0xbe90ca30	-0.28279257
6	0xbe5e211c	-0.21692318
7	0x3e257c6b	0.16160743
8	0xbe633815	-0.22189362
9	0x3e33e8e5	0.17569311
10	0x3e115fa1	0.14196636
11	0x3d9c6a94	0.07637516
12	0xbeaf93aa	-0.34292346
13	0xbedcdaa7	-0.43135568
14	0xbe6f8c70	-0.23393416
15	0xbe39cc00	-0.18144226
16	0xbcad7f59	-0.021178888
17	0x3e979394	0.2960478
18	0x3eac1a01	0.3361359
19	0x3e3ff27b	0.18744843
20	0x3db0f8bb	0.086411916
21	0xbe8478ff	-0.25873563
22	0xbdaa7cd3	-0.083245896
23	0x3d50074a	0.0507882
24	0x3e52c325	0.20582254
25	0x3eb94c26	0.3619091
26	0x3e4748f1	0.19461419
27	0xbe483e9c	-0.19555134
28	0x3e15cc03	0.14628606
29	0xbe973507	-0.29532644
30	0x3d9a71c7	0.075412326
31	0x3e9279c5	0.28608528
32	0xbeffa461	-0.499301
33	0x3e498319	0.19678916
34	0xbd8214fe	-0.0635166
35	0x3e6c32bb	0.23066227
36	0xbe7d3d18	-0.24730337
37	0xbe9c7722	-0.3055964
38	0x3e186a31	0.14884259
39	0x3b8bdc65	0.0042682164
40	0xbf04ba27	-0.51846546
41	0x3e7deb6a	0.24796835
42	0x3eb22695	0.3479506
43	0xbe7b7cf9	-0.24559392
44	0xbd392e16	-0.045209967
45	0xbf1aebb2	-0.6051589
46	0x3e2301cf	0.15918659
47	0x3e508def	0.20366643
48	0xbd51e505	-0.0512438
49	0xbddd8c86	-0.10817818
50	0xbdddb032	-0.10824622
51	0x3d9fe660	0.078076124
52	0xbd6abb1a	-0.05730734
53	0x3e189b6e	0.14903042
54	0xbe865b2f	-0.26241443
55	0x3e33dadb	0.17563955
56	0xbea43689	-0.32072857
57	0xbd9e597d	-0.07731912
58	0xbf2173df	-0.6306743
59	0xbe0fae10	-0.14031243
60	0x3e07b8f4	0.13254148
61	0x3de03f26	0.109495446
62	0x3d1d4c4c	0.03840284
63	0xbd947152	-0.07248177
64	0xbe0660d1	-0.1312287
65	0xbe99078e	-0.29888576
66	0x3d79aeca	0.060957707
67	0x3d9318ae	0.07182442
68	0xbd8c5869	-0.068528004
69	0xbf2a5fa6	-0.665522
70	0x3e163cba	0.14671603
71	0xbe5d2c2b	-0.2159888
72	0xbeb71e18	-0.35765147
73	0xbed62a28	-0.41829038
74	0x3e2d58e6	0.16928443
75	0x3e102cbb	0.14079563
76	0xbe5f2ac6	-0.2179366
77	0xbea4a1f5	-0.32154813
78	0x3d5fca8d	0.054636527
79	0x3e60bc13	0.21946745
80	0x3da5de1a	0.08099003
81	0x3e8b0644	0.27153218
82	0xbca58ce9	-0.020208793
83	0x3d6e76b5	0.058218677
84	0x3e3fc0bb	0.18725865
85	0xbe6bf83b	-0.23043911
86	0x3d11b83e	0.035576098
87	0xbce5a5cf	-0.028033165
88	0x3d880748	0.06642014
89	0x3ec3d13e	0.38245577
90	0xbe929477	-0.28628895
91	0xbd85b368	-0.0652836
92	0x3e65aa81	0.22428323
93	0xbd8b9ee4	-0.06817415
94	0xbe8cca44	-0.27498066
95	0x3d2eeca6	0.042706154
96	0x3e59ed3a	0.21281901
97	0x3e18c76c	0.14919823
98	0xbd48218b	-0.048860114
99	0x3d873ab5	0.06602994
100	0xbe079295	-0.1323951
101	0xbe921cb0	-0.28537512
102	0xbe08d948	-0.13364136
103	0xbeb4cf3c	-0.35314357
104	0xbc890665	-0.016726682
105	0x3e543aa8	0.207255
106	0xbc0c8516	-0.008576652
107	0x3eed323f	0.46327397
108	0xbdd6ab46	-0.104818866
109	0xbe258c8d	-0.16166897
110	0xbe84c12a	-0.25928622
111	0x3e5db32f	0.21650384
112	0x3f2a0ba4	0.6642401
113	0xbdfcd44d	-0.12345181
114	0x3d9d1d29	0.076715775
115	0xbe136f4c	-0.14397925
116	0x3d47626c	0.048677847
117	0x3edb9085	0.42883697
118	0xbebfdc67	-0.3747284
119	0xbd3c51ba	-0.045976378
120	0xbe2568ac	-0.1615321
121	0x3e16024c	0.14649314
122	0x3c582ea0	0.01319471
123	0x3e1f5183	0.15558438
124	0xbdb738b5	-0.08946363
125	0xbcc1a8c4	-0.023640044
126	0x3d19ec91	0.037579123
127	0xbd38cb45	-0.045115728
128	0xbda7eacd	-0.081990816
129	0x3d0f69b7	0.035012927
130	0xbee29aa2	-0.442586
131	0xbd6b2148	-0.057404786
132	0x3e35350a	0.17696014
133	0xbec24bb2	-0.37948376
134	0xbc08e163	-0.008354518
135	0x3c8d4d7d	0.017248863
136	0xbe15e333	-0.14637451
137	0x3e984e32	0.29747158
138	0xbd3775cc	-0.044790074
139	0xbee9799f	-0.45600602
140	0xbcdc67a3	-0.026904887
141	0x3db7786c	0.089585155
142	0xbe7b7a2a	-0.2455832
143	0xbde12feb	-0.10995468
144	0xbeb02acc	-0.3440765
145	0x3dafb295	0.08578984
146	0xbd0d5bea	-0.034511484
147	0xbdd50d72	-0.10402955
148	0xbe050f4f	-0.12994121
149	0xbd3d885b	-0.046272617
150	0x3cd4d801	0.025981905
151	0xbcdf9661	-0.027293386
152	0xbecbd9ad	-0.3981451
153	0xbed59835	-0.41717687
154	0x3db11a16	0.086475536
155	0xbe8a1a78	-0.2697332
156	0x3e4b3da0	0.19847727
157	0xbf243bf7	-0.64154
158	0xbc27427d	-0.010208723
159	0x3e07be12	0.132561
160	0xbe6f0269	-0.23340763
161	0x3e27b4e6	0.16377601
162	0x3ddb84f7	0.107187204
163	0x3c064fb5	0.008197715
164	0xbf33c33e	-0.7021979
165	0x3d198e0b	0.03748898
166	0x3e3280e9	0.17431988
167	0xbdaf08b8	-0.08546585
168	0xbe8ac64a	-0.27104408
169	0xbf366749	-0.7125135
170	0xbeeaffa1	-0.45898154
171	0xbeca9207	-0.39564535
172	0xbca0b994	-0.01961974
173	0xbdcb9b39	-0.09941716
174	0x3ec091ac	0.3761114
175	0xbe0488fe	-0.12942883
176	0x3f447f61	0.76756865
177	0xbda78976	-0.081805155
178	0xbe65876d	-0.22414942
179	0x3e72961e	0.23690078
180	0x3e852a14	0.26008666
181	0xbdd45753	-0.10368218
182	0xbc3756a4	-0.01119009
183	0xbec749f4	-0.3892361
184	0xbdc55c42	-0.096367374
185	0xbe8792b7	-0.26479122
186	0xbee312f3	-0.44350395
187	0x3df6e26f	0.120549075
188	0x3c5c7967	0.013456679
189	0x3e292669	0.16518559
190	0x3e48f40c	0.19624346
191	0x3d657d82	0.056027897
192	0xbdbb7278	-0.091526926
193	0x3e8474ca	0.25870353
194	0xbe2e6f2d	-0.17034598
195	0x3d0c0926	0.034188412
196	0x3dd15489	0.10221202
197	0x3c2a4da1	0.010394485
198	0xbdc9f430	-0.09861028
199	0xbdd76eed	-0.10519204
200	0x3e184df7	0.14873491
201	0xbec7cba1	-0.39022544
202	0x3e5dcaeb	0.21659438
203	0x3e20a842	0.15689185
204	0xbd95fe37	-0.07323878
205	0xbdd4f268	-0.10397798
206	0x3e6117df	0.21981762
207	0x3e023c41	0.12718298
208	0x3e96fdb6	0.2949044
209	0xbd306e0a	-0.04307369
210	0x3e4c7c10	0.19969201
211	0x3e9ca407	0.30593893
212	0x3e384715	0.17995866
213	0x3ded5784	0.11588958
214	0x3e83b05b	0.25720486
215	0xbd1f522c	-0.038896725
216	0x3e838360	0.2568617
217	0xbdd07ae0	-0.101796865
218	0xbc1c093f	-0.009523689
219	0x3e520953	0.2051137
220	0x3c803496	0.015650075
221	0x3df74b8d	0.12074957
222	0xbd2c3425	-0.042041916
223	0xbd23c8ac	-0.039986297
224	0x3e6bce88	0.23028004
225	0xbe694e1a	-0.227837
226	0xbeb13ce4	-0.34616768
227	0x3db05fe6	0.08612041
228	0xbbb74a78	-0.005593594
229	0x3e9ca276	0.30592698
230	0xbe192449	-0.14955248
231	0x3e914832	0.28375393
232	0x3e558436	0.20851216
233	0x3ec4f9f1	0.3847194
234	0xbda7a071	-0.08184899
235	0xbd4d41e7	-0.050111677
236	0xbdf9d058	-0.121979415
237	0x3e7a2808	0.24429333
238	0xbdd5b17f	-0.10434245
239	0x3ec6e7bd	0.38848677
240	0xbf7ac6b1	-0.9795943
241	0xbe949a39	-0.29023913
242	0xbd119e61	-0.035551433
243	0xbe4712d3	-0.19440775
244	0xbe3aa5ed	-0.18227358
245	0x3eaad92f	0.33368823
246	0x3e2355b7	0.15950666
247	0xbe013708	-0.12618649
248	0x3e4fbf9e	0.2028794
249	0xbe68f694	-0.22750312
250	0xbe1ae3ba	-0.15125933
251	0xbdd8fbd2	-0.10594906
252	0x3e4009bc	0.18753713
253	0x3e32f9b4	0.17478067
254	0xbe63e899	-0.22256698
255	0x3e2277be	0.1586599

lin.weight f4 [2, 128]
0	0xbd9e4261	-0.077275045
1	0x3da9b32e	0.08286129
2	0x3dd581e4	0.10425165
3	0x3a4d82d7	0.0007839626
4	0x3d996021	0.07489038
5	0x3db6b18e	0.089205846
6	0x3d602a14	0.05472763
7	0x3c42fa33	0.011900472
8	0x3cb28d00	0.02179575
9	0xbde06979	-0.10957617
10	0xbdcd1975	-0.10014621
11	0x3cfe4ae6	0.031041574
12	0xbd020921	-0.031746987
13	0xbe1d42cd	-0.15357514
14	0x3d887154	0.066622406
15	0xbe8566ae	-0.260549
16	0x3e363116	0.17792162
17	0x3d401ee4	0.04690446
18	0x3d6aaac2	0.057291754
19	0xbde2029e	-0.110356554
20	0xbccbde80	-0.02488637
21	0xbdac95d4	-0.08427015
22	0xbdc721f9	-0.09723277
23	0xbd2aec9c	-0.041729555
24	0xbdf72e0a	-0.12069328
25	0x3d8e913b	0.06961294
26	0x3e6c3560	0.23067236
27	0xbe111ef3	-0.14171962
28	0xbc88566a	-0.016642768
29	0x3d49adc2	0.049237974
30	0x3d4cdb6c	0.050013945
31	0xbdd1a373	-0.102362536
32	0xbde43ee8	-0.11144811
33	0x3e16f444	0.14741617
34	0x3d713aa0	0.0588938
35	0x3c16e32f	0.009209438
36	0x3de39f6b	0.11114391
37	0x3e620b6b	0.22074668
38	0x3cdd5ddc	0.027022295
39	0xbdb05002	-0.0860901
40	0x3decb9e0	0.1155889
41	0x3e41fb7a	0.18943587
42	0xbe109a10	-0.1412127
43	0x3d58d86b	0.052940767
44	0xbe2da004	-0.16955572
45	0x3cc36532	0.023851965
46	0x3d4090f6	0.047013246
47	0x3d8eaee3	0.06966951
48	0x3dece9fa	0.11568065
49	0xbdb29925	-0.08720616
50	0x3e18c20d	0.14917774
51	0xbdb726d7	-0.08942955
52	0xbd94f28d	-0.072728254
53	0xbb888108	-0.0041657723
54	0xbc2a1b5b	-0.010382499
55	0x3e19cedc	0.15020317
56	0xbdefa92b	-0.11702188
57	0x3de12669	0.10993654
58	0xbdad10b5	-0.08450452
59	0x3e04dd81	0.12975122
60	0xbd94a79e	-0.07258533
61	0xbca447ef	-0.020053832
62	0xbc88cb92	-0.016698632
63	0x3d210053	0.03930695
64	0x3e636c74	0.2220934
65	0x3ee7d037	0.45276043
66	0xbeb2bdc5	-0.34910408
67	0xbdca5498	-0.09879416
68	0x3dfd23ec	0.12360367
69	0xbe908f74	-0.28234446
70	0xbddc8fa4	-0.10769585
71	0x3e1cb0a0	0.15301752
72	0xbef9e6b5	-0.48808828
73	0xbe09916f	-0.13434385
74	0x3f0a4478	0.54010725
75	0xbe90dd49	-0.28293827
76	0xbd603be9	-0.054744635
77	0xbc955ffe	-0.01823425
78	0xbd23efbd	-0.040023554
79	0x3d65ed3a	0.05613444
80	0x3e444305	0.19166191
81	0x3d0c8a1c	0.0343114
82	0xbe26340d	-0.16230793
83	0x3ec08985	0.3760492
84	0xbe81ef4e	-0.25377887
85	0xbda7425b	-0.08166953
86	0x3cb1ae3b	0.021689525
87	0x3dff5bc2	0.12468673
88	0x3d3100ce	0.043213658
89	0xbcb1d617	-0.021708531
90	0xbe250941	-0.16116811
91	0x3e796fbc	0.2435903
92	0x3eb8f3a4	0.36123383
93	0xbde53e17	-0.11193483
94	0xbedc9278	-0.43080497
95	0x3e8d0cae	0.27548736
96	0x3e43a218	0.19104803
97	0x3e076ea4	0.132258
98	0x3e3b1bc5	0.18272312
99	0xbd9fa7b9	-0.077956624
100	0xbe12562d	-0.14290686
101	0xbe8387fb	-0.25689682
102	0xbd71e37d	-0.05905484
103	0x3be653e1	0.007029042
104	0x3da17abb	0.07884737
105	0xbea51ed2	-0.32250077
106	0xbe1e1b0b	-0.15440004
107	0xbe8030a2	-0.25037104
108	0x3e86b892	0.2631269
109	0x3cc9cd0b	0.024633905
110	0xbe95c151	-0.2924905
111	0xbb72c0c5	-0.003704117
112	0xbec8391b	-0.39106068
113	0x3caa91dd	0.020821506
114	0xbe91a168	-0.28443456
115	0xbe142a11	-0.14469172
116	0x3c8c18e5	0.017101714
117	0xbea6bd14	-0.3256613
118	0x3f6e57ed	0.93102914
119	0xbea5ff9b	-0.32421574
120	0x3dce8fbf	0.10086011
121	0xbe9b8b77	-0.3037984
122	0x3d9ea982	0.07747175
123	0x3d191b64	0.037379637
124	0xbddb153b	-0.10697409
125	0x3dcf0b57	0.10109585
126	0x3f17e16f	0.5932836
127	0xbd2fff9a	-0.04296837
128	0x3ded2f3f	0.11581277
129	0x3c18365c	0.009290304
130	0xbd2de5f3	-0.042455625
131	0x3dcc9a06	0.09990315
132	0xbe3565ef	-0.17714666
133	0xbe492ce9	-0.19646038
134	0x3c90f2ee	0.017693963
135	0x3d04093f	0.03223538
136	0xbe35ad6f	-0.17741941
137	0x3da68a14	0.08131805
138	0x3c60a27e	0.013710616
139	0xbda7c418	-0.08191699
140	0x3d8719a5	0.06596688
141	0x3d1e2a0f	0.03861433
142	0xbddd8c50	-0.10817778
143	0x3e5f3041	0.21795751
144	0xbe436706	-0.19082269
145	0x3df71480	0.12064457
146	0xbd8c9e3c	-0.06866118
147	0x3dd5f9d1	0.10448039
148	0xbddacd72	-0.10683717
149	0xbd8d22c3	-0.06891396
150	0x3deccdc7	0.115626864
151	0x3e06a650	0.1314938
152	0x3ce30f53	0.027717268
153	0x3bd20f0c	0.006410485
154	0xbe48f5f8	-0.1962508
155	0x3d8fa534	0.07013932
156	0x3e2e8478	0.1704272
157	0xbc33bea8	-0.010970749
158	0xbe4cc7a3	-0.1999803
159	0x3dee9298	0.11649054
160	0x3cd2098f	0.025639324
161	0xbdf060ef	-0.117372386
162	0x3d990d30	0.074732184
163	0x3d91e178	0.07123083
164	0xbdc58989	-0.096453734
165	0xbe359add	-0.17734857
166	0xbd97d2eb	-0.07413276
167	0x3d79ad71	0.060956422
168	0xbd89785c	-0.0671241
169	0xbe306fef	-0.172302
170	0x3e41d3a4	0.1892839
171	0xbdb536af	-0.08848321
172	0xba6f14e3	-0.0009120239
173	0x3de82118	0.11334437
174	0xbe172f1b	-0.14764063
175	0xbd6ec58b	-0.05829386
176	0xbe00660b	-0.12538926
177	0x3b01fa6b	0.0019833099
178	0xbd81ab3b	-0.06331488
179	0x3d8f844a	0.07007654
180	0x3d8be719	0.06831188
181	0xbd11fc8c	-0.035641238
182	0xbd8e9a0b	-0.06962975
183	0xbbeeae4b	-0.007283961
184	0x3dadcad2	0.084859505
185	0xbe002420	-0.1251378
186	0x3c781144	0.015140835
187	0xbddf4083	-0.109009765
188	0x3d38ed0e	0.045147948
189	0x3d7b6be4	0.06138219
190	0x3db58efe	0.08865164
191	0xbdaec325	-0.085333146
192	0xbe9eb97d	-0.3100089
193	0xbeeffe66	-0.46873778
194	0x3e90eecd	0.2830719
195	0x3df20fd7	0.118194275
196	0xbd5b08bf	-0.053475138
197	0x3e8f001c	0.2792977
198	0x3d4c3b02	0.04986096
199	0xbe7e68a5	-0.24844606
200	0x3f0358c3	0.51307315
201	0x3e2f6d23	0.17131476
202	0xbf0ec06e	-0.55762374
203	0x3e8a3831	0.26995996
204	0xbcfb462d	-0.03067311
205	0xbd6065a7	-0.054784443
206	0x3c7b97ce	0.015356017
207	0x3d54a633	0.051916312
208	0xbe3b02c5	-0.18262775
209	0xbc2c5827	-0.010519064
210	0x3e0b24ff	0.13588332
211	0xbec5fbe2	-0.38668734
212	0x3e88fb63	0.26754293
213	0xbc836119	-0.01603751
214	0xbb788065	-0.0037918326
215	0xbe72b505	-0.23701866
216	0xbd3a53cd	-0.045490075
217	0x3dffc3eb	0.1248854
218	0x3e42441b	0.18971293
219	0xbe286d2e	-0.16447899
220	0xbeb76b26	-0.35823935
221	0xbd1e1a7d	-0.03859948
222	0x3eed558c	0.4635433
223	0xbdebc589	-0.11512286
224	0xbdcd791c	-0.100328654
225	0xbdb0bcf5	-0.08629791
226	0xbdc5b12c	-0.096529335
227	0xbd87b88a	-0.06626995
228	0x3e792a48	0.24332535
229	0x3e9f83f3	0.31155357
230	0x3c4d32b7	0.012524298
231	0xbe05cd39	-0.13066567
232	0xbdbd6148	-0.092470706
233	0x3e453de0	0.19261885
234	0x3e3a4dd5	0.18193753
235	0x3ea25289	0.31703594
236	0xbe891ad0	-0.2677827
237	0xbd508e48	-0.05091694
238	0x3eb1ad04	0.34702313
239	0x3df1f8a2	0.11815001
240	0x3ec467cf	0.3836045
241	0x3d6f0fe3	0.05836476
242	0x3ed459b0	0.41474676
243	0x3e0fa206	0.14026651
244	0xbde49b4f	-0.11162435
245	0x3e6ab8f1	0.22922112
246	0xbf772461	-0.96539885
247	0x3e8c35e4	0.27384865
248	0xbe2acadc	-0.16678947
249	0x3eb7c65c	0.35893524
250	0x3c35fb10	0.011107221
251	0x3c66cd01	0.014086963
252	0x3e36ccd8	0.17851579
253	0xbdf69e71	-0.12041939
254	0xbf1e7699	-0.61899716
255	0x38fd96ca	0.00012092067

lin.bias f4 [2]
0	0x3dcd17e8	0.100143254
1	0xbdbc16c3	-0.09184029
