model_fold_1.pth (torch, 63878 bytes, 14 tensors)

conv1.att_src f4 [1, 1, 64]
0.1230712 0.028141577 0.3271944 -0.30081326 -0.24493872 -0.059433345 0.2551901 0.39778107
-0.08536343 -0.3611785 -0.06297582 0.23333268 0.3755608 -0.16095084 0.4079999 0.24720955
0.07841291 -0.33307448 0.6110479 -0.28825694 -0.1545675 0.29121482 -0.04474033 -0.10021024
0.3878767 0.13701926 0.43996754 -0.15866993 -0.49059078 -0.19490112 -0.14774172 -0.40122613
-0.6488907 0.5409177 -0.301088 -0.14378987 -0.20106903 -0.26269615 0.05378051 -0.08250432
0.37254748 0.41021574 0.25045976 -0.2732631 -0.35197237 -0.0712682 -0.0077874805 -0.1851427
0.33350888 -0.17694889 -0.24719507 -0.39329153 0.06005166 -0.25579295 0.05314946 -0.07634025
-0.08531415 -0.30235717 -0.38444498 0.049254693 0.24624243 0.33245033 0.013504213 -0.79045075
00000000: c10c fc3d 2a89 e63c 0686 a73e 3204 9abe
00000010: 37d1 7abe 6170 73bd 47a8 823e f6a9 cb3e
00000020: 06d3 aebd 63ec b8be 77f9 80bd c3ee 6e3e
00000030: 8149 c03e 4cd0 24be 5de5 d03e 8024 7d3e
00000040: f396 a03d bd88 aabe a36d 1c3f 6a96 93be
00000050: f146 1ebe 1c1a 953e a341 37bd 073b cdbd
00000060: c697 c63e c74e 0c3e 6d43 e13e 5f7a 22be
00000070: b72e fbbe 2994 47be 9b49 17be 836d cdbe
00000080: b31d 26bf 9579 0a3f 3528 9abe a73d 13be
00000090: 0ae5 4dbe 1c80 86be f448 5c3d 06f8 a8bd
000000a0: 8bbe be3e cc07 d23e 433c 803e 24e9 8bbe
000000b0: b935 b4be 10f5 91bd 1f2e ffbb 0c96 3dbe
000000c0: adc1 aa3e 1732 35be b420 7dbe 825d c9be
000000d0: bbf8 753d 4bf7 82be 40b3 593d 4758 9cbd
000000e0: 2fb9 aebd 8fce 9abe f9d5 c4be 4abf 493d
000000f0: fa26 7c3e ee36 aa3e c640 5d3c fb5a 4abf

conv1.att_dst f4 [1, 1, 64]
-0.10722976 -0.15849419 -0.10697668 -0.35585812 -0.30110955 -0.25227454 0.19870423 -0.5040405
0.022573384 -0.3199192 0.022212973 -0.3099393 -0.4235626 -0.091256015 -0.060623594 0.2781354
-0.26258442 0.3856194 0.38023934 -0.10101349 0.33640552 -0.20464851 0.2427302 -0.6403185
0.23279454 -0.05571594 0.18429472 -0.10030272 0.472108 0.23434532 -0.06834916 -0.11767137
-0.0027831194 -0.07408665 0.22753794 0.17910591 -0.07796386 -0.09386721 -0.023433985 0.085327156
-0.37380606 -0.03668947 -0.37611791 0.06602172 0.27944288 -0.004615161 0.19372669 0.41654623
0.17254594 -0.5502611 0.17333055 0.0010776683 0.024841528 0.04873758 0.35336694 0.2110383
-0.16790718 0.42264643 0.115398765 -0.3077656 0.19218129 0.43273985 -0.12007356 -0.18841165
00000000: 479b dbbd 4d4c 22be 9716 dbbd 0933 b6be
00000010: 082b 9abe 212a 81be 1f79 4b3e cc08 01bf
00000020: d1eb b83c 73cc a3be fbf7 b53c 5db0 9ebe
00000030: 32dd d8be 6fe4 babd 7250 78bd c367 8e3e
00000040: 7771 86be e86f c53e bbae c23e 29e0 cebd
00000050: 583d ac3e 618f 51be 448e 783e eaeb 23bf
00000060: b161 6e3e 6636 64bd c1b7 3c3e 836b cdbd
00000070: 24b8 f13e 38f8 6f3e a5fa 8bbd b0fd f0bd
00000080: ff64 36bb beba 97bd b5ff 683e 8a67 373e
00000090: 84ab 9fbd 743d c0bd a1f8 bfbc 01c0 ae3d
000000a0: 8263 bfbe b347 16bd 8792 c0be 6536 873d
000000b0: 2313 8f3e c73a 97bb 4a60 463e 8c45 d53e
000000c0: e2af 303e e9dd 0cbf 907d 313e 8c40 8d3a
000000d0: 7680 cb3c 0fa1 473d 83ec b43e 6d1a 583e
000000e0: dcef 2bbe 1d65 d83e 3056 ec3d 7493 9dbe
000000f0: 2ccb 443e 1490 dd3e 20e9 f5bd fcee 40be

conv1.bias f4 [64]
-0.017341705 0.01927273 0.03801246 0.06109137 0.035002325 0.16119432 0.09699385 0.057341523
0.015290778 -0.0020138565 -0.029882047 0.0589222 0.03835611 -0.017795805 0.13282692 0.0027732349
0.018953241 0.063575394 0.11777919 -0.06543416 0.01202807 0.0782948 0.07215024 0.094064854
0.087976165 0.0037055293 0.082003206 -0.017850956 -0.02303499 0.08045096 0.04336121 0.032446094
0.09081438 0.06806718 0.1554327 0.032241195 0.04175467 -0.036746208 -0.041548606 0.049140483
-0.019128151 0.16798109 -0.0025678005 0.10366946 0.17068045 0.09274941 0.0028525158 -0.050337348
0.055380967 0.12322354 0.14350355 0.067719296 -0.04415998 -0.08091362 0.0054182312 0.01811116
0.074611686 -0.06833611 0.10100693 0.064545885 0.01299908 0.015106163 0.031884197 0.09187581
00000000: 3110 8ebc d8e1 9d3c f4b2 1b3d f23a 7a3d
00000010: 995e 0f3d 2010 253e b6a4 c63d f2de 6a3d
00000020: 2c86 7a3c e8fa 03bb 32cb f4bc 6858 713d
00000030: 4c1b 1d3d 82c8 91bc c803 083e 29bf 353b
00000040: d443 9b3c d133 823d 3736 f13d 5802 86bd
00000050: 6211 453c 0659 a03d 81c3 933d 13a5 c03d
00000060: d92c b43d 77d8 723b 4cf1 a73d 2b3c 92bc
00000070: e0b3 bcbc 79c3 a43d 869b 313d 32e6 043d
00000080: e4fc b93d ce66 8b3d c029 1f3e 580f 043d
00000090: f206 2b3d 3183 16bd df2e 2abd 8847 493d
000000a0: a4b2 9cbc 3c03 2c3e 8b48 28bb a750 d43d
000000b0: dbc6 2e3e 67f3 bd3d 46f1 3a3b 892e 4ebd
000000c0: 27d7 623d a05c fc3d 98f2 123e 6ab0 8a3d
000000d0: 18e1 34bd 0ab6 a5bd 6b8b b13b db5d 943c
000000e0: 03ce 983d cdf3 8bbd b9dc ce3d a230 843d
000000f0: 18fa 543c d77f 773c 0199 023d 6229 bc3d

conv1.lin.weight f4 [64, 89]
0.1835144 -0.11187696 0.050554484 0.0078096986 -0.0061909407 0.01962553 -0.07274705 0.11094831
0.0016843826 0.028664887 -0.15249795 0.07401005 -0.028542217 0.20720665 -0.26183513 0.31230766
-0.07500163 -0.30805436 -0.024627868 -0.3109209 0.11914118 -0.26357344 0.2968682 0.6451321
-0.0011826867 0.2338741 0.09310441 0.052672278 0.50467056 -0.04185619 -0.23763987 -0.42281732
0.23174979 0.22422114 0.25140318 0.63302755 0.26251253 0.04417755 0.18910474 -0.06455636
0.20562677 -0.14822751 0.29518834 0.24559467 -0.18771614 0.2494817 0.17542703 -0.10729769
-0.3922895 0.012605863 0.08158967 0.031997584 0.61464345 0.08157599 -0.21578938 -0.13562289
-0.14894499 0.46347407 0.04011908 0.316061 0.259443 -0.27948192 0.4326398 -0.036445938
0.13228206 -0.045377076 0.1268617 0.073396936 0.18394847 -0.06921245 -0.06194649 -0.2762773
0.072366156 -0.3058793 -0.10849661 0.46558294 0.35413128 0.41312462 0.1830788 -0.07464124
-0.024782162 -0.18663979 0.19129212 0.015335668 -0.11780096 0.08173419 0.64882755 0.20642859
-0.17529353 -0.17858316 -0.16689359 -0.18490951 0.013982043 0.11513646 -0.13982064 0.063126996
0.02265267 0.16772409 -0.032774113 -0.14322214 -0.020563563 0.18721063 0.21153162 0.080035895
0.16040206 0.13982968 0.08316147 -0.1777693 -0.14379849 0.17287186 0.09554274 -0.076345704
0.10025793 -0.27525213 -0.33904988 -0.22739866 0.14897749 0.3889413 -0.12175516 -0.5738173
0.20070675 -0.2770449 0.20860882 0.28649354 -0.18672135 -0.00017278524 0.4402081 -0.08219544
-0.073932186 0.08909719 0.04133501 0.20845999 0.58527195 -0.2230509 -0.12677714 -0.07765234
0.1036583 0.21579869 -0.11098008 0.17672572 -0.43974674 0.26274484 -0.024992995 -0.06029977
0.088488504 0.31596074 0.8164007 -0.0570714 0.18150045 -0.17135796 -0.15508251 0.22347437
0.1622653 0.31218415 -0.191161 0.07367109 -0.10987405 0.1428742 0.073488936 -0.1644198
0.09813919 0.44110784 -0.18288437 0.0581706 0.06614198 -0.10720725 -0.2443021 0.19664507
-0.030020956 -0.010871698 -0.073560454 -0.019448856 0.04145557 0.15398186 0.08573695 0.46309546
-0.11095728 -0.17769037 -0.13473052 -0.074919865 -0.09281252 0.15677671 -0.005715713 -0.073664896
-0.017381832 0.12851201 0.04200071 -0.14642394 -0.13955848 0.14979197 -0.009708129 -0.02481071
0.4055211 0.21152546 0.4935022 -0.03309649 -0.15518326 -0.21804646 -0.65914375 0.11069106
-0.079187974 0.35556716 -0.025591504 -0.07745039 0.09211238 0.16914302 -0.04401267 0.14866734
0.035873916 0.19517122 -0.111296825 -0.007861751 -0.109134845 0.45818144 0.12768227 -0.19586755
-0.02046644 0.13498537 0.33027372 -0.19891317 0.5303599 0.29863465 -0.44869825 -0.22824566
-0.28737548 -0.16784671 -0.06857242 -0.21345618 -0.21282902 0.4858252 -0.0885726 -0.4633034
0.099895895 0.13490802 -0.34733397 0.37981018 -0.09454105 0.3556617 -0.5339898 0.0022192197
0.26476854 -0.251214 -0.46412632 0.10483079 -0.04841733 -0.11447549 -0.10291141 -0.14404221
0.11631755 -0.15583614 0.13384028 0.38544476 0.026249768 -0.3353821 0.082275026 -0.14606927
00000000: 33eb 3b3e bf1f e5bd 3812 4f3d 80e8 ff3b
00000010: 60dd cabb b8c5 a03c 68fc 94bd de38 e33d
00000020: 80c6 dc3a a0d2 ea3c 6c28 1cbe 9592 973d
00000030: 5ed1 e9bc fb2d 543e 410f 86be cae6 9f3e
00000040: 749a 99bd 4db9 9dbe 62c0 c9bc 0631 9fbe
00000050: 4a00 f43d 19f3 86be 1cff 973e 6127 253f
00000060: 6104 9bba b17c 6f3e 86ad be3d e3be 573d
00000070: 1732 013f 6571 2bbd de57 73be 837b d8be
00000080: d14f 6d3e 3a9a 653e ebb7 803e 180e 223f
00000090: 0b68 863e 85f3 343d aca4 413e 2036 84bd
000000a0: d38f 523e f4c8 17be ed22 973e 2b7d 7b3e
000000b0: a938 40be 2178 7f3e 25a3 333e e4be dbbd
000000c0: 2bda c8be d288 4e3c 7c18 a73d e60f 033d
000000d0: 4659 1d3f 5011 a73d e4f7 5cbe bae0 0abe
000000e0: 0985 18be 794c ed3e e853 243d bfd2 a13e
000000f0: b7d5 843e 4118 8fbe f782 dd3e 5648 15bd
00000100: f374 073e 50dd 39bd 09e8 013e 2251 963d
00000110: fd5c 3c3e 42bf 8dbd 9abb 7dbd 3874 8dbe
00000120: b534 943d 369c 9cbe 7833 debd e360 ee3e
00000130: b250 b53e 1285 d33e 0279 3b3e 82dd 98bd
00000140: f603 cbbc 801e 3fbe 15e2 433e 7442 7b3c
00000150: a141 f1bd 4164 a73d 9019 263f 0462 533e
00000160: 2680 33be 81de 36be 27e6 2abe eb58 3dbe
00000170: f014 653c aacc eb3d 242d 0fbe ba48 813d
00000180: 1892 b93c ddbf 2b3e 263e 06bd d3a8 12be
00000190: eb74 a8bc 25b4 3f3e bf9b 583e dce9 a33d
000001a0: 7040 243e 832f 0f3e 9050 aa3d 2809 36be
000001b0: e93f 13be 5205 313e e9ab c33d 235b 9cbd
000001c0: 0854 cd3d d9ed 8cbe f297 adbe 32db 68be
000001d0: 8e8d 183e 5023 c73e c55a f9bd b1e5 12bf
000001e0: 1286 4d3e d4d8 8dbe 8d9d 553e 48af 923e
000001f0: e233 3fbe af2d 35b9 f562 e13e 1556 a8bd
00000200: c269 97bd 9678 b63d e64e 293d 8976 553e
00000210: 62d4 153f 7567 64be ded1 01be 3108 9fbd
00000220: ce4a d43d 55fa 5c3e 8649 e3bd 96f7 343e
00000230: 7c26 e1be 7e86 863e 1cbe ccbc e4fc 76bd
00000240: 7639 b53d 9bc5 a13e a3ff 503f b3c3 69bd
00000250: 41db 393e 7678 2fbe f3cd 1ebe 77d6 643e
00000260: e028 263e 9ad6 9f3e b6bf 43be dee0 963d
00000270: a505 e1bd 9d4d 123e 5e81 963d aa5d 28be
00000280: 33fd c83d e3d8 e13e 0a46 3bbe 4c44 6e3d
00000290: 7275 873d 7a8f dbbd 542a 7abe 535d 493e
000002a0: 82ee f5bc 351f 32bc dda6 96bd 3553 9fbc
000002b0: 51cd 293d 6cad 1d3e db96 af3d d91a ed3e
000002c0: 923d e3bd 77f4 35be ccf6 09be 966f 99bd
000002d0: 7e14 bebd 138a 203e e04a bbbb 9fdd 96bd
000002e0: 5864 8ebc a798 033e f008 2c3d 28f0 15be
000002f0: 6be8 0ebe 1163 193e d80e 1fbc d53f cbbc
00000300: 76a0 cf3e 219a 583e 52ac fc3e 2f90 07bd
00000310: 5ce8 1ebe 9247 5fbe a5bd 28bf ffb1 e23d
00000320: 4e2d a2bd e60c b63e 46a5 d1bc 4f9e 9ebd
00000330: 6aa5 bc3d d433 2d3e a146 34bd 403c 183e
00000340: 87f0 123d f7da 473e 97ef e3bd 93ce 00bc
00000350: 1782 dfbd c296 ea3e 24bf 023e 8191 48be
00000360: 3ca9 a7bc 9b39 0a3e a319 a93e e5af 4bbe
00000370: abc5 073f a4e6 983e c7bb e5be 3bb9 69be
00000380: e122 93be 02e0 2bbe b26f 8cbd 4294 5abe
00000390: daef 59be 15be f83e 8d65 b5bd 1a36 edbe
000003a0: 3896 cc3d 5425 0a3e c2d5 b1be 7b76 c23e
000003b0: bd9e c1bd 4a19 b63e 8eb3 08bf 5470 113b
000003c0: be8f 873e 1f9f 80be f7a1 edbe 86b1 d63d
000003d0: 4051 46bd 2072 eabd 38c3 d2bd cd7f 13be
000003e0: e537 ee3d 8293 1fbe 6d0d 093e 0459 c53e
000003f0: c109 d73c 34b7 abbe cf7f a83d 2f93 15be

conv2.att_src f4 [1, 1, 64]
0.2479156 0.26291963 -0.07965355 0.087961204 0.20676833 0.045333665 -0.17873167 0.005946757
0.28494772 0.20406495 0.15503469 0.030710079 -0.32487604 0.03007925 -0.4742375 0.55086166
0.3314761 0.4434588 -0.10281749 0.024979167 -0.026515339 0.019076979 0.014079135 0.4070886
-0.15650502 -0.37005156 0.22510478 -0.3612788 0.48882422 0.38653505 0.065639585 -0.39575502
0.10290916 0.022688108 -0.06293294 -0.16226636 0.3860963 -0.33073983 0.16682497 0.080648884
0.15203558 0.42653334 0.11520655 0.11645398 0.05652497 0.09730874 0.64151233 0.37109846
-0.24939317 0.33233717 -0.2702267 -0.24708144 -0.014891461 -0.12055947 -0.61241204 -0.32090098
0.2815365 -0.44756132 0.4062874 -0.255275 0.15508974 -0.058303244 -0.26254517 0.5468604
00000000: 96dd 7d3e 679d 863e 6721 a3bd 0125 b43d
00000010: 14bb 533e cbaf 393d 6f05 37be 03dd c23b
00000020: abe4 913e 67f6 503e 6ac1 1e3e b493 fb3c
00000030: 2756 a6be c268 f63c 42cf f2be 4505 0d3f
00000040: 3cb7 a93e 080d e33e fa91 d2bd 1ca1 cc3c
00000050: b236 d9bc 5347 9c3c 2cac 663c eb6d d03e
00000060: da42 20be 6677 bdbe de81 663e 89f9 b8be
00000070: 2b47 fa3e ece7 c53e 0c6e 863d 67a0 cabe
00000080: 0ac2 d23d 69dc b93c fce2 80bd 2729 26be
00000090: 6aae c53e bb56 a9be 2ad4 2a3e 3e2b a53d
000000a0: 37af 1b3e 9462 da3e 69f1 eb3d 6d7f ee3d
000000b0: ba86 673d ce49 c73d 273a 243f 9e00 be3e
000000c0: ec60 7fbe 1928 aa3e 275b 8abe eb02 7dbe
000000d0: 50fb 73bc e2e7 f6bd 09c7 1cbf 224d a4be
000000e0: 8d25 903e c226 e5be e704 d03e 68b3 82be
000000f0: d8cf 1e3e 62cf 6ebd 526c 86be 0bff 0b3f

conv2.att_dst f4 [1, 1, 64]
0.40085018 0.35534614 -0.0666145 -0.4807852 0.17661084 0.045288265 -0.002452624 -0.13375574
0.060578145 0.031606473 0.4718213 0.043277618 -0.054408234 0.06112623 -0.13657738 -0.24519065
0.18326907 -0.45623824 0.16833866 -0.19001925 -0.08433269 -0.2910358 -0.5077407 0.2808156
-0.13056196 0.03319114 0.3492648 0.2872713 0.09461249 -0.5053281 0.23074551 0.059409216
0.10002401 0.52223307 -0.3240266 -0.02743587 -0.26985562 0.36378866 -0.15530217 0.04245428
-0.26437825 -0.072357915 -0.16127072 -0.04465442 0.23490462 0.17444083 -0.06341576 0.24294636
0.31127554 0.470396 -0.2990558 0.060650084 -0.09316491 -0.057713117 -0.17678532 -0.22396559
-0.14780143 -0.15715499 0.06749131 0.08695404 0.049809016 0.17199591 0.20110905 -0.33660635
00000000: 3c3c cd3e eeef b53e 2f6d 88bd 7a29 f6be
00000010: 79d9 343e 3080 393d 34bc 20bb 44f7 08be
00000020: ca20 783d ca75 013d 9092 f13e df43 313d
00000030: 2bdb 5ebd 7f5f 7a3d f1da 0bbe 4213 7bbe
00000040: e3aa 3b3e 0f98 e9be f860 2c3e 6894 42be
00000050: 9eb6 acbd a502 95be 4bfb 01bf 10c7 8f3e
00000060: 09b2 05be 6ff3 073d d6d2 b23e 3915 933e
00000070: 31c4 c13d 2f5d 01bf 8d48 6c3e 1457 733d
00000080: 63d9 cc3d 11b1 053f d1e6 a5be 31c1 e0bc
00000090: 842a 8abe 8242 ba3e 8807 1fbe 8ae4 2d3d
000000a0: 965c 87be 6330 94bd 2724 25be 8ee7 36bd
000000b0: d68a 703e 9ea0 323e 1fe0 81bd eec6 783e
000000c0: 825f 9f3e bfd7 f03e d81d 99be 396c 783d
000000d0: 3fcd bebd 9764 6cbd 3607 35be 3c57 65be
000000e0: 4259 17be 3ded 20be e238 8a3d f614 b23d
000000f0: 8a04 4c3d b21f 303e 88ef 4d3e ab57 acbe

conv2.bias f4 [64]
0.06475505 -0.051878687 0.054604556 -0.02150078 0.06576982 -0.087804265 -0.047182955 0.1619617
0.0004932892 -0.058444396 -0.0026052564 0.16115242 0.10103925 0.024933698 0.01784444 0.051708844
0.03609547 0.105064824 -0.052687168 0.010546499 0.05265769 0.050740387 0.034354635 0.100176446
0.0434316 0.14301066 0.07773674 0.020324348 0.027644519 0.069543086 0.020683736 0.076512836
0.13237993 -0.09592812 0.08148357 0.11070409 -0.084149964 0.0101976385 0.060440294 0.051518083
-0.051607892 0.083771706 0.06649705 0.0043943315 0.011157574 0.046380095 0.06534351 0.018469837
0.14153883 -0.012625341 0.03220076 0.034395624 0.06268057 0.0863081 0.06629517 0.27471995
0.0907259 0.028442545 0.046216942 0.019777855 0.07385474 0.04424437 -0.008880946 0.10659175
00000000: 4c9e 843d bf7e 54bd 07a9 5f3d 6722 b0bc
00000010: 54b2 863d b9d2 b3bd ea42 41bd 4ad9 253e
00000020: 1450 013a 6463 6fbd f3bc 2abb 2405 253e
00000030: abed ce3d c141 cc3c 812e 923c a7cc 533d
00000040: d8d8 133d 3a2c d73d 80ce 57bd 39cb 2c3c
00000050: 97af 573d 27d5 4f3d 72b7 0c3d 4f29 cd3d
00000060: 55e5 313d 6371 123e 7134 9f3d 3f7f a63c
00000070: c276 e23c 9b6c 8e3d f070 a93c c3b2 9c3d
00000080: 9b8e 073e f675 c4bd dce0 a63d d3b8 e23d
00000090: d156 acbd ff13 273c 3e90 773d a004 533d
000000a0: cc62 53bd 8090 ab3d 9b2f 883d 53fe 8f3b
000000b0: 42ce 363c 0ef9 3d3d d1d2 853d 0e4e 973c
000000c0: 8eef 103e 85da 4ebc f2e4 033d 6de2 0c3d
000000d0: ac5e 803d 4dc2 b03d c3c5 873d 18a8 8c3e
000000e0: 80ce b93d 5700 e93c fa4d 3d3d 2b05 a23c
000000f0: 2741 973d 9639 353d 6381 11bc c74c da3d

conv2.lin.weight f4 [64, 64]
-0.009328609 0.11741246 -0.08635943 0.38547733 -0.24733946 -0.5117701 -0.3792406 0.8091531
-0.08511338 -0.37306893 -0.053518232 -0.032726523 0.2902567 0.17741632 0.02209262 0.0901433
-0.1425141 0.020706628 0.053258516 -0.01638216 0.01469033 0.13981195 0.071895234 -0.12623467
0.035256907 0.019981744 0.028687356 -0.19086097 -0.0022003432 -0.063496515 0.11534923 0.4001423
-0.14804983 -0.04764504 -0.30374 -0.052136127 -0.19483538 -0.08096198 -0.03893016 -0.06617151
0.34252113 0.27438104 0.094376564 -0.2473968 0.0027483369 -0.43487564 -0.07872517 -0.111570664
0.7489112 -0.24276419 0.033037715 0.45060432 0.0870953 0.07081867 0.096107386 -0.15348601
0.06047406 0.09331107 0.25698993 0.05807303 0.052324932 0.084413715 -0.0098778 -0.06816752
-0.06848677 0.16961049 0.19861591 0.4896177 0.09932602 -0.4745769 -0.000112802976 0.30809838
0.0045826966 -0.25387943 0.19142468 0.20207053 -0.08848897 0.26904747 0.07707068 0.011839318
-0.049789157 -0.092128195 -0.18437548 0.1176865 0.041772623 -0.14201207 0.07876709 -0.011071261
-0.23963949 -0.09621842 0.32863963 -0.095648006 0.1749612 0.16203383 -0.17436296 -0.30209288
-0.1143565 -0.15551785 -0.25896427 -0.11986777 -0.09466169 0.03179306 -0.02713482 -0.16393045
0.6901612 0.13249521 0.27210337 0.31829774 0.17944095 -0.0021957809 -0.038740452 0.08365929
0.31513312 0.029020743 -0.0007110241 0.2682847 0.1516675 -0.08708407 0.14148198 -0.19941393
0.28269398 0.051770322 -0.035948865 -0.1910333 0.06333636 0.060410656 -0.0038473133 -0.006178847
-0.24056274 -0.1555037 -0.0066009783 0.1620763 -0.0054094074 -0.083762 0.10412823 0.25429106
-0.16428983 -0.34693483 0.05208874 -0.008101367 0.16442242 0.36215103 -0.15697777 -0.0017159698
0.12030418 0.078741394 0.027443886 0.12547342 0.017615031 -0.021601975 0.34599024 -0.041864384
-0.040424068 0.17137751 0.33377355 0.15516798 -0.13000585 -0.047060777 0.053091373 0.14645216
-0.24251673 0.13645452 -0.17807674 0.13600133 -0.26188233 -0.12778072 0.055230737 -0.00640638
0.31981567 0.31485936 0.15616718 -0.05822094 -0.009500071 -0.20388733 0.08573623 -0.0048594503
0.10788195 -0.075902626 -0.0703532 0.44161704 -0.3725442 -0.15578917 0.017822038 -0.23213008
-0.37819707 -0.07788556 -0.015059417 0.1524689 0.20664646 0.34758922 -0.11337808 -0.068614356
-0.19548562 -0.16384442 0.14515294 -0.076778375 0.22380649 0.44567937 -0.17675103 -0.19216998
0.093768984 0.89703494 0.019753046 0.03510944 0.19728261 0.083168745 -0.22170833 -0.197246
-0.13075832 -0.14824674 -0.04092203 -0.07758544 -0.14963272 0.005414318 -0.375251 -0.17076519
-0.18622535 -0.1931389 0.19220391 -0.23929003 -0.13653025 -0.30408266 -0.27730927 -0.009855196
-0.21137664 -0.4082033 -0.5986487 0.0097987335 -0.347479 -0.17542613 -0.2793657 -0.073298
0.51906466 -0.15659747 -0.4328702 -0.26814142 -0.46075502 -0.5447917 -0.34161964 -0.36636588
-0.040372804 -0.0739238 -0.0015231369 0.092133164 0.042825527 -0.40535498 -0.26578727 -0.14456144
-0.16831414 -0.053348467 0.09573302 -0.09307993 -0.14207967 -0.14028077 -0.21990222 -0.090955086
00000000: 06d7 18bc f275 f03d 36dd b0bd 495d c53e
00000010: 8e46 7dbe 5e03 03bf d32b c2be a824 4f3f
00000020: ec4f aebd e402 bfbe ef35 5bbd 3f0c 06bd
00000030: 879c 943e a0ac 353e 95fb b43c 0d9d b83d
00000040: 37ef 11be f2a0 a93c 9a25 5a3d e133 86bc
00000050: b6af 703c dd2a 0f3e cf3d 933d a943 01be
00000060: 8c69 103d c1b0 a33c bf01 eb3c 0f71 43be
00000070: a233 10bb 760a 82bd 383c ec3d 74df cc3e
00000080: 609a 17be 7227 43bd cf83 9bbe b18c 55bd
00000090: ed82 47be 65cf a5bd 3b75 1fbd ee84 87bd
000000a0: ee5e af3e ac7b 8c3e 8048 c13d 9655 7dbe
000000b0: 711d 343b 05a8 debe a93a a1bd 297f e4bd
000000c0: a5b8 3f3f 2d97 78be 8e52 073d 9cb5 e63e
000000d0: 055f b23d 6109 913d f3d3 c43d 702b 1dbe
000000e0: a6b3 773d e019 bf3d 2f94 833e fcdd 6d3d
000000f0: ab52 563d 19e1 ac3d 7fd6 21bc 6a9b 8bbd
00000100: cb42 8cbd 5fae 2d3e f861 4b3e 2caf fa3e
00000110: 716b cb3d befb f2be a390 ecb8 12bf 9d3e
00000120: 722a 963b 7cfc 81be d504 443e 94eb 4e3e
00000130: b539 b5bd 97c0 893e 3cd7 9d3d b3f9 413c
00000140: b7ef 4bbd b5ad bcbd edcc 3cbe 9f05 f13d
00000150: c519 2b3d 9d6b 11be a450 a13d 3c64 35bc
00000160: 0e64 75be 2a0e c5bd 7443 a83e 1ae3 c3bd
00000170: 0729 333e 32ec 253e 348c 32be ebab 9abe
00000180: be33 eabd 1240 1fbe f796 84be 3c7d f5bd
00000190: fddd c1bd 7139 023d d849 debc 62dd 27be
000001a0: 68ae 303f d3ac 073e 2251 8b3e ecf7 a23e
000001b0: 5ebf 373e 17e7 0fbb 4fae 1ebd 9055 ab3d
000001c0: 2159 a13e e9bc ed3c 0564 3aba 9d5c 893e
000001d0: ba4e 1b3e 2259 b2bd a7e0 103e 2a33 4cbe
000001e0: 44bd 903e 1e0d 543d 1e3f 13bd 3c9e 43be
000001f0: 7eb6 813d 2a71 773d 3523 7cbb ed77 cabb
00000200: 1456 76be 5d3c 1fbe 054d d8bb 54f7 253e
00000210: 6641 b1bb 698b abbd 2e41 d53d 7032 823e
00000220: 983b 28be 71a1 b1be 015b 553d 99bb 04bc
00000230: 5a5e 283e dc6b b93e c8be 20be 64ea e0ba
00000240: 0a62 f63d 2b43 a13d 00d2 e03c 1b7c 003e
00000250: 664d 903c a0f6 b0bc a225 b13e fd79 2bbd
00000260: b593 25bd 967d 2f3e 5ee4 aa3e 5be4 1e3e
00000270: 4120 05be cdc2 40bd 5776 593d 8ef7 153e
00000280: 4e56 78be bcba 0b3e c059 36be ef43 0b3e
00000290: 7115 86be f3d8 02be a039 623d 9cec d1bb
000002a0: e1be a33e 3f35 a13e 4aea 1f3e 1579 6ebd
000002b0: 30a6 1bbc d7c7 50be 7a96 af3d 063c 9fbb
000002c0: 36f1 dc3d d672 9bbd 5715 90bd a11b e23e
000002d0: 1dbe bebe 3287 1fbe 86ff 913c 82b3 6dbe
000002e0: 0ca3 c1be 7782 9fbd c6bb 76bc cf20 1c3e
000002f0: 219b 533e 37f7 b13e c432 e8bd af85 8cbd
00000300: 622d 48be d5c6 27be f9a2 143e fb3d 9dbd
00000310: 872d 653e 1630 e43e 39fe 34be 35c8 44be
00000320: f409 c03d 15a4 653f 24d1 a13c ebce 0f3d
00000330: 7404 4a3e 6054 aa3d 8207 63be dbfa 49be
00000340: 82e5 05be fecd 17be dc9d 27bd 1de5 9ebd
00000350: 5239 19be 976a b13b e620 c0be 12dd 2ebe
00000360: dcb1 3ebe 34c6 45be 1ad1 443e 7208 75be
00000370: 96ce 0bbe b9b0 9bbe 7bfb 8dbe b077 21bc
00000380: 1e73 58be 0600 d1be 0b41 19bf de8a 203c
00000390: c4e8 b1be e8a2 33be 0509 8fbe 431d 96bd
000003a0: 6ce1 043f 165b 20be 2aa1 ddbe d549 89be
000003b0: 15e8 ebbe 7877 0bbf c5e8 aebe 4f94 bbbe
000003c0: f45d 25bd 5c65 97bd fea3 c7ba 50b0 bc3d
000003d0: d269 2f3d b08a cfbe 4515 88be ea07 14be
000003e0: 8b5a 2cbe ec83 5abd ac0f c43d b1a0 bebd
000003f0: 557d 11be c3a5 0fbe 0c2e 61be a946 babd

conv3.att_src f4 [1, 1, 64]
-0.07784918 -0.2331633 0.4462399 0.12186048 0.10338102 -0.2852733 -0.0073818085 -0.113552555
-0.12836705 0.24068478 0.23384002 -0.28830072 0.14872055 0.39995 -0.18928072 -0.031411674
-0.29841024 -0.1265542 0.06737659 -0.58396584 0.5952934 0.4304369 -0.3658551 0.258085
0.21963833 -0.3275589 -0.37775603 -0.21284127 0.008148212 -0.14579764 -0.014275894 -0.02433466
-0.1342737 -0.12570928 0.5367695 0.60618514 -0.40252486 -0.17519875 0.23925884 -0.37405115
-0.12623322 -0.2745267 0.44052425 0.3553122 0.10048629 0.021434033 -0.22378032 -0.0686272
0.094433405 0.3311242 0.09696818 0.5933069 0.43631956 0.04093649 0.37349978 0.48916975
-0.25789133 0.41335142 0.037210174 -0.47066614 0.30790335 0.063311934 0.4970545 0.48063573
00000000: 646f 9fbd 5cc2 6ebe 8e79 e43e fd91 f93d
00000010: 6eb9 d33d 580f 92be 19e3 f1bb 3e8e e8bd
00000020: a772 03be 1276 763e c273 6f3e 279c 93be
00000030: 334a 183e 3fc6 cc3e ced2 41be 87a9 00bd
00000040: 3ac9 98be 6d97 01be bdfc 893d c97e 15bf
00000050: 2665 183f 3a62 dc3e 5c51 bbbe b823 843e
00000060: dfe8 603e cdb5 a7be 3d69 c1be 10f3 59be
00000070: 1480 053c fa4b 15be 70e5 69bc 7b59 c7bc
00000080: 0b7f 09be efb9 00be ba69 093f f32e 1b3f
00000090: bd17 cebe 4d67 33be 4500 753e a283 bfbe
000000a0: 4843 01be c38e 8cbe 658c e13e 7beb b53e
000000b0: c2cb cd3d 6d96 af3c ab26 65be 6b8c 8cbd
000000c0: 4d66 c13d 1c89 a93e 4197 c63d f6e2 173f
000000d0: 4765 df3e 05ad 273d 5d3b bf3e 7574 fa3e
000000e0: 550a 84be cca2 d33e b269 183d 27fb f0be
000000f0: 82a5 9d3e b0a9 813d ed7d fe3e e315 f63e

conv3.att_dst f4 [1, 1, 64]
0.08041745 0.010468272 0.63676715 0.21772727 0.32980284 -0.058881182 0.23590676 -0.28792098
-0.06454751 -0.017745238 -0.43795338 -0.059298985 -0.06141682 0.04974973 -0.064686075 0.058196
0.14036153 -0.21079667 0.2396255 0.26691413 0.14512175 -0.21809028 0.049000636 0.042019006
-0.051381174 -0.2995826 -0.11687201 0.31600556 0.26842722 -0.105093464 -0.020299233 0.4844845
-0.37320262 -0.4773021 0.15513527 0.042767216 -0.2150888 0.24295647 0.13611698 0.08865077
0.39044926 0.0055806856 0.07278319 0.06000158 0.16495523 0.06133624 -0.13232519 0.19107789
-0.42064795 0.058022495 0.44034168 -0.27538043 -0.2777525 -0.30556342 -0.12672544 -0.051150803
0.21228279 -0.35189936 -0.013339682 -0.18362105 0.054861266 0.39068952 -0.25938952 0.054081827
00000000: e7b1 a43d 1d83 2b3c 2c03 233f e6f3 5e3e
00000010: ebdb a83e 652d 71bd 8b91 713e 616a 93be
00000020: 7c31 84bd 765e 91bc 6d3b e0be 7ee3 72bd
00000030: 3490 7bbd 5fc6 4b3d 227a 84bd ee5e 6e3d
00000040: efba 0f3e 15db 57be 6360 753e f8a8 883e
00000050: cc9a 143e 0f53 5fbe e4b4 483d 1f1c 2c3d
00000060: 1175 52bd e462 99be 985a efbd 7bcb a13e
00000070: 4b6f 893e 3e3b d7bd 944a a6bc 5a0e f83e
00000080: 6a14 bfbe f160 f4be c8db 1e3e ad2c 2f3d
00000090: 3d40 5cbe 95c9 783e 4062 0b3e 898e b53d
000000a0: f7e8 c73e 2fde b63b 5a0f 953d 37c4 753d
000000b0: 06ea 283e b63b 7b3d 4180 07be eca9 433e
000000c0: 2b5f d7be ffa8 6d3d 7774 e13e aafe 8cbe
000000d0: 9335 8ebe cf72 9cbe 50c4 01be 8183 51bd
000000e0: a960 593e 272c b4be ae8e 5abc 2807 3cbe
000000f0: 35b6 603d 7508 c83e b4ce 84be e884 5d3d

conv3.bias f4 [64]
0.088368915 0.021086857 -0.00078610884 -0.0023334622 0.021682618 0.014489392 0.02001541 -0.005848721
-0.050283782 0.025341844 0.017005693 -0.028788999 -0.015329054 -0.17358151 -0.010109682 -0.0074594156
-0.020276653 -0.05047141 0.008084842 0.03861378 0.018086024 -0.03747128 -0.03599543 0.031963196
-0.024459634 -0.04368434 0.09575428 0.02047389 -0.08415363 -0.21792816 0.014817002 -0.009146848
0.033567123 0.016807102 -0.08925795 0.018772507 0.05078933 0.055639457 -0.025508381 0.046393942
-0.004476196 0.0013944695 -0.098434396 0.0037010994 0.023787053 -0.046328817 -0.0009956459 -0.040800635
-0.022183094 -0.074460015 0.0013994583 0.01207149 -0.012540161 0.0062885536 0.01147447 -0.07002611
-0.13037372 0.020524357 0.01548648 0.024042513 0.01807974 0.0058264625 -0.040825352 0.013514969
00000000: c3fa b43d 58be ac3c df12 4eba 00ed 18bb
00000010: bf9f b13c ea64 6d3c 5bf7 a33c a1a6 bfbb
00000020: 5ef6 4dbd b399 cf3c 864f 8b3c e8d6 ebbc
00000030: b626 7bbc 5abf 31be 14a3 25bc 1d6e f4bb
00000040: 391b a6bc 1cbb 4ebd 4976 043c 7c29 1e3d
00000050: 2429 943c 7c7b 19bd f26f 13bd d7eb 023d
00000060: 925f c8bc 5aee 32bd d21a c43d dcb8 a73c
00000070: bd58 acbd 8f28 5fbe 03c3 723c a9dc 15bc
00000080: ae7d 093d 0caf 893c dfcc b6bd cdc8 993c
00000090: 7908 503d 33e6 633d f4f6 d0bc 9307 3e3d
000000a0: 0ead 92bb a2c6 b63a f997 c9bd 258e 723b
000000b0: 11dd c23c 49c3 3dbd 5580 82ba 911e 27bd
000000c0: 52b9 b5bc 7e7e 98bd 076e b73a 80c7 453c
000000d0: 3f75 4dbc 3610 ce3b 6aff 3b3c d969 8fbd
000000e0: b080 05be b222 a83c 01bb 7d3c cef4 c43c
000000f0: f71b 943c e9eb be3b 7c38 27bd e36d 5d3c

conv3.lin.weight f4 [64, 64]
0.03838965 0.15553905 -0.18910608 0.1910614 0.046246115 -0.42061558 -0.21142401 -0.0080845365
0.1893849 -0.13404836 -0.1869641 0.022014242 -0.5562495 -0.072538294 -0.23561189 -0.17746721
-0.012982614 -0.14902645 -0.047183663 -0.09019028 0.0119477 0.509113 0.009019157 -0.14508368
0.20606671 0.057272475 0.0939566 0.077913515 -0.275319 0.06630249 -0.005006248 -0.22632325
-0.31342417 -0.1336397 -0.2951615 0.084100366 0.0900075 -0.42971593 0.18212059 -0.16596921
0.14658402 -0.2396418 -0.36135972 -0.28362525 -0.26598603 -0.29470634 -0.092679046 -0.25989503
-0.057845153 0.14933063 0.13183527 0.19815576 0.01117026 -0.13493295 -0.2852193 0.20913967
-0.060926724 0.07117888 -0.045603722 -0.58801216 0.16755165 0.16937104 -0.16144975 -0.09929997
0.13034521 -0.088352926 -0.102671325 -0.1720859 0.10205476 0.029368324 -0.021753585 -0.059032716
-0.17599039 -0.3174701 -0.069808386 0.18328126 0.43458095 -0.06610032 -0.022663483 -0.025355518
0.24948052 -0.768378 -0.09632606 0.07957167 0.0926512 -0.2052433 -0.17273858 -0.04594769
-0.1615166 0.03920384 -0.058075078 -0.036330905 0.06186116 -0.026566146 -0.45394018 -0.17476055
-0.18542288 0.007935236 -0.13172637 0.13167295 -0.22830804 -0.28087 -0.14550224 0.19001262
-0.021555202 -0.1004281 -0.22802758 0.13829738 -0.050269265 -0.0044063083 -0.065065056 -0.02721301
0.15040435 -0.035291404 -0.16694441 0.08598423 -0.28614947 0.055732936 -0.39151075 -0.1708675
0.062541515 0.22546917 -0.041415136 0.20260054 -0.22407272 0.006545934 0.23578872 -0.121490024
0.03075703 -0.03159171 0.023212856 0.044032753 -0.20109113 -0.053531814 0.044136267 -0.19254512
-0.25070062 -0.26604906 0.1386944 0.033941478 -0.12282303 0.052626092 0.18738745 -0.45460457
0.21593347 0.41734344 -0.06321466 0.008733026 0.2826899 -0.02013616 0.06924745 0.22908773
0.07339437 0.20649883 -0.11639481 0.17255025 0.12201717 0.10593758 0.043912515 0.3372509
0.021601131 -0.17964417 0.08558278 0.14571634 0.41777647 0.10045484 -0.13928983 -0.49019986
-0.028762033 -0.28082684 -0.3977442 -0.23654151 -0.045200564 0.1844075 0.2866744 0.1508822
0.09428408 -0.025784506 0.1837811 -0.027626483 -0.11579634 0.0137521615 -0.2617298 0.019330235
0.0027903893 0.2983904 -0.26810193 -0.16371702 0.21002562 -0.1826709 0.12027832 0.1250634
-0.19681431 -0.25365344 -0.13251162 -0.15190287 -0.39332765 -0.23281102 0.06177443 0.14544924
-0.24667788 -0.3159758 -0.20863563 0.061945867 -0.2697724 -0.17113824 0.46789664 -0.14198866
0.030042345 0.23704496 0.2617258 -0.21672654 -0.20007777 -0.124977626 0.022023395 0.14362504
-0.51283646 -0.2613805 -0.005238781 -0.08239557 0.1272449 -0.0921271 0.06927 0.33741263
-0.42320853 0.18089324 0.14396782 0.33554053 0.24426718 0.1839771 -0.02399434 -0.06013859
-0.4807795 -0.44712955 -0.37375492 0.049336392 -0.14698948 0.21099453 0.25386912 -0.1843787
0.18924342 0.018962156 0.30170545 0.13672867 -0.24049123 0.4676735 0.16973272 -0.18763338
0.33827865 0.1916267 0.11788106 -0.21586911 0.14013958 0.002901297 -0.33457154 0.29163885
00000000: 773e 1d3d a145 1f3e 06a5 41be 9aa5 433e
00000010: 916c 3d3d ed5a d7be 897f 58be 0175 04bc
00000020: 1dee 413e f943 09be 8473 3fbe 3657 b43c
00000030: 5e66 0ebf f58e 94bd 3e44 71be f7b9 35be
00000040: 08b5 54bc 649a 18be a843 41bd aeb5 b8bd
00000050: 49c0 433c 3b55 023f 16c5 133c d190 14be
00000060: 2703 533e 8b96 6a3d 516c c03d 1f91 9f3d
00000070: 9df6 8cbe 9ac9 873d 740b a4bb 48c1 67be
00000080: 2279 a0be d8d8 08be 681f 97be d03c ac3d
00000090: da55 b83d ba03 dcbe d27d 3a3e d5f3 29be
000000a0: 1f1a 163e a964 75be 2404 b9be 5437 91be
000000b0: 522f 88be c0e3 96be 83ce bdbd f610 85be
000000c0: 0aef 6cbd 21ea 183e d3ff 063e 58e9 4a3e
000000d0: 7703 373c dd2b 0abe 4408 92be b628 563e
000000e0: 4d8e 79bd 3cc6 913d f8ca 3abd f787 16bf
000000f0: a992 2b3e 9a6f 2d3e 1553 25be c85d cbbd
00000100: 3779 053e 61f2 b4bd 5845 d2bd 4937 30be
00000110: 1602 d13d d795 f03c 9334 b2bc 4acc 71bd
00000120: d336 34be 718b a2be b3f7 8ebd 15ae 3b3e
00000130: 6581 de3e 9b5f 87bd c5a8 b9bc 60b6 cfbc
00000140: d277 7f3e 6cb4 44bf 9946 c5bd 79f6 a23d
00000150: eabf bd3d 4d2b 52be 62e2 30be a533 3cbd
00000160: 9c64 25be 3594 203d 22e0 6dbd b7cf 14bd
00000170: 2162 7d3d 3fa1 d9bc d96a e8be 6ef4 32be
00000180: 7fdf 3dbe cb02 023c 47e3 06be 46d5 063e
00000190: 95c9 69be 31ce 8fbe 8afe 14be ab92 423e
000001a0: 8994 b0bc 3fad cdbd 1080 69be d49d 0d3e
000001b0: 25e7 4dbd cb62 90bb d440 85bd d1ed debc
000001c0: 9903 1a3e b88d 10bd 7af3 2abe 8018 b03d
000001d0: 2f82 92be 3848 643d 1974 c8be e4f7 2ebe
000001e0: c415 803d 64e1 663e eba2 29bd 8476 4f3e
000001f0: 5273 65be 467f d63b 9972 713e c3cf f8bd
00000200: 2bf6 fb3c 4f66 01bd e328 be3c b05b 343d
00000210: d5ea 4dbe 2d44 5bbd 3bc8 343d 8c2a 45be
00000220: d55b 80be 9537 88be e805 0e3e 3806 0b3d
00000230: a48a fbbd 758e 573d 7fe2 3f3e eec1 e8be
00000240: aa1d 5d3e 0aae d53e b076 81bd f714 0f3c
00000250: bbbc 903e 97f4 a4bc 9bd1 8d3d f995 6a3e
00000260: ca4f 963d 6e74 533e 6760 eebd 03b1 303e
00000270: 23e4 f93d cdf5 d83d 9cdd 333d 26ac ac3e
00000280: dbf4 b03c a4f4 37be 0646 af3d aa36 153e
00000290: cce6 d53e 44bb cd3d fea1 0ebe 7afb fabe
000002a0: 5b9e ebbc 89c8 8fbe 21a5 cbbe f037 72be
000002b0: 3a24 39bd 52d5 3c3e fdc6 923e dd80 1a3e
000002c0: 0318 c13d 073a d3bc 1d31 3c3e ef50 e2bc
000002d0: a226 edbd bf50 613c 7301 86be 715a 9e3c
000002e0: f7de 363b a0c6 983e a844 89be 6fa5 27be
000002f0: f510 573e 150e 3bbe 7b54 f63d 9f10 003e
00000300: b189 49be ddde 81be 20b1 07be 6d8c 1bbe
00000310: 3e62 c9be 0366 6ebe 2f07 7d3d a5f0 143e
00000320: 2099 7cbe 94c7 a1be 94a4 55be f3ba 7d3d
00000330: 9c1f 8abe dd3e 2fbe 2690 ef3e 7a65 11be
00000340: 5d1b f63c eabb 723e ed00 863e 90ed 5dbe
00000350: 30e1 4cbe 45f4 ffbd 686a b43c 7112 133e
00000360: 4049 03bf aad3 85be 15aa abbb 02bf a8bd
00000370: 7d4c 023e 22ad bcbd 6edd 8d3d 59c1 ac3e
00000380: caae d8be 143c 393e 4d6c 133e f8cb ab3e
00000390: 2d21 7a3e 7e64 3c3e c78f c4bc e253 76bd
000003a0: bb28 f6be 2aee e4be ce5c bfbe f514 4a3d
000003b0: 6984 16be f30e 583e 22fb 813e c5cd 3cbe
000003c0: 07c9 413e 8656 9b3c 2379 9a3e 9a02 0c3e
000003d0: 5543 76be e772 ef3e 6ace 2d3e f722 40be
000003e0: dc32 ad3e ca39 443e a06b f13d cb0c 5dbe
000003f0: c080 0f3e b023 3e3b f64c abbe b051 953e

lin.weight f4 [2, 128]
-0.019642048 0.07226108 -0.06445399 -0.015925199 0.092853114 -0.08765998 -0.033178825 0.14266448
0.0513129 0.14810602 0.0794559 -0.17511174 -0.14489248 0.08478154 -0.04964494 -0.056328166
-0.03224754 -0.0590985 -0.04258527 0.06709479 1.5705307e-05 -0.11013565 -0.07194826 -0.019678606
-0.03279965 -0.10377351 0.011396148 0.04778465 0.006957062 0.050273728 -0.0025539151 -0.06767589
0.07241517 -0.0031076411 -0.029148193 0.0046400116 0.07932909 -0.04769109 0.015966494 0.089553334
0.09534194 0.100043654 0.10521697 0.08924229 0.071932994 -0.037219986 0.10776784 -0.062081378
-0.06494109 0.016626231 0.14993775 0.0730534 -0.07311938 -0.032286998 0.13370469 0.11246321
0.033167858 -0.077600814 0.027990725 0.08073891 0.03866722 0.03133729 -0.1208474 0.023898503
-0.38757095 -0.1517962 0.0489031 0.25412056 -0.011305616 -0.046079602 0.62667364 -0.42106053
-0.012892414 -0.50770104 0.24125345 -0.06527875 -0.1089847 -0.09006988 0.037276804 -0.1576111
-0.22551799 -0.03868816 0.258504 -0.0048701265 0.40284163 -0.022859802 -0.10030013 0.015893681
0.7588544 0.05000511 -0.0728382 0.015766338 -0.05148957 -0.15314718 -0.49762094 -0.0059757186
-0.0039079073 0.16236214 -0.14061803 0.112276904 -0.40891466 -0.0047646593 0.06471193 -0.41561297
0.056922376 0.17245641 -0.009141585 0.15581022 0.36104104 0.018506331 -0.07122509 -0.07594788
-0.09161918 -0.009976413 -0.024189131 0.083559364 0.045712233 -0.0419974 0.19456644 -0.10239276
-0.09627968 0.31931305 0.22990347 -0.54477006 -0.14073628 0.080369115 0.02270293 0.030876165
-0.109075606 0.060992487 0.016521458 0.11495615 -0.062058814 0.045226216 -0.042967696 -0.12892261
-0.04344083 -0.17720528 -0.0033665018 0.12718517 -0.021930056 -0.038689602 0.0757398 -0.036407292
0.03242437 -0.044403095 -0.031121565 -0.047428314 -0.04680933 0.081929125 0.048222866 0.020659711
0.005555907 0.106368154 -0.06295915 -0.0662839 0.062344782 -0.1464003 -0.14107811 0.039106764
0.014075328 0.09159867 -0.06594554 -0.06997812 -0.15817243 -0.027968042 0.04543764 -0.10129246
-0.0271788 -0.059345584 0.032902274 -0.10078513 0.03316249 -0.069134295 -0.05740269 0.05665614
0.017888755 0.09886145 -0.02402381 0.06378563 0.08822107 0.08259182 -0.08137214 0.031322703
-0.045959547 0.12000637 0.018035408 -0.014592286 -0.06490743 0.008448052 0.08216991 -0.021675628
0.21575959 0.17851669 -0.028696714 -0.2857521 0.04351596 -0.010758118 -0.6393713 0.36684304
0.07365038 0.57338154 -0.27673113 0.09247272 -0.04959349 0.10787555 0.045520473 0.11258206
0.23918712 0.0056355163 -0.26424587 0.0820437 -0.4200045 0.08383364 0.084109746 0.06875947
-0.7569525 0.05382156 -0.031630807 -0.016006434 -0.05559234 0.097663775 0.5386851 -0.032435205
0.043259848 -0.106714755 0.0779925 -0.189527 0.41615042 -0.020746285 -0.07724484 0.48198316
-0.118797965 -0.20829856 0.11160577 -0.13299078 -0.3100795 0.07476282 0.12692052 0.05461607
-0.012003158 -0.084441856 0.11420355 0.055956237 -0.003222111 0.060313866 -0.19432068 0.009643855
0.042986363 -0.20287141 -0.28035495 0.42407215 0.12641056 -0.1777545 0.047221437 0.030884344
00000000: 5ce8 a0bc 9efd 933d 7400 84bd 9075 82bc
00000010: c629 be3d 1387 b3bd 85e6 07bd a316 123e
00000020: 7a2d 523d 1ba9 173e c6b9 a23d 7e50 33be
00000030: b25e 14be f2a1 ad3d 7e58 4bbd 5db8 66bd
00000040: ff15 04bd 4511 72bd e46d 2ebd fe68 893d
00000050: e4be 8337 cd8e e1bd 9c59 93bd 0735 a1bc
00000060: ed58 06bd 3587 d4bd e9b6 3a3c d6b9 433d
00000070: 11f8 e33b d3eb 4d3d 965f 27bb a899 8abd
00000080: 684e 943d 91a9 4bbb 31c8 eebc 3d0b 983b
00000090: 4a77 a23d bb57 43bd 2acc 823c bd67 b73d
000000a0: a342 c33d b0e3 cc3d ff7b d73d a9c4 b63d
000000b0: 9b51 933d fc73 18bd 63b5 dc3d 0b49 7ebd
000000c0: d6ff 84bd bc33 883c 4889 193e 059d 953d
000000d0: 9dbf 95bd 5f3f 04bd e2e9 083e 1d53 e63d
000000e0: 05db 073d 2ded 9ebd ce4c e53c 715a a53d
000000f0: 8561 1e3d 885b 003d d77e f7bd cbc6 c33c
00000100: b36f c6be 7770 1bbe 9e4e 483d 171c 823e
00000110: 313b 39bc f7bd 3cbd af6d 203f 3f95 d7be
00000120: b43a 53bc b2f8 01bf 250b 773e deb0 85bd
00000130: 5f33 dfbd 8f76 b8bd 90af 183d ce64 21be
00000140: 30ee 66be 7a77 1ebd a35a 843e 9595 9fbb
00000150: 4241 ce3e 7b44 bbbc 286a cdbd 7733 823c
00000160: 4844 423f 29d2 4c3d 322c 95bd 6828 813c
00000170: bae6 52bd 9dd2 1cbe 2cc8 febe f6cf c3bb
00000180: e70d 80bb 4342 263e 2cfe 0fbe 6ff1 e53d
00000190: 435d d1be dc20 9cbb b087 843d 39cb d4be
000001a0: 7027 693d 6a98 303e 96c6 15bc b78c 1f3e
000001b0: 5fda b83e 979a 973c 76de 91bd 908a 9bbd
000001c0: d6a2 bbbd 1c74 23bc 4928 c6bc 2c21 ab3d
000001d0: c03c 3b3d 7705 2cbd 6d3c 473e 4cb3 d1bd
000001e0: 482e c5bd 007d a33e d16b 6b3e 0d76 0bbf
000001f0: 2c1d 10be 9098 a43d 7ffb b93c 03f0 fc3c
00000200: 0863 dfbd 42d3 793d 0258 873c 216e eb3d
00000210: 6231 7ebd 203f 393d e5fe 2fbd 4a04 04be
00000220: 03ef 31bd 4d75 35be 87a0 5cbb d43c 023e
00000230: a9a6 b3bc fd78 1ebd 781d 9b3d d01f 15bd
00000240: 6bcf 043d 05e0 35bd a7f2 febc 3144 42bd
00000250: 24bb 3fbd 75ca a73d 5785 453d 8e3e a93c
00000260: 530e b63b 8cd7 d93d baf0 80bd dabf 87bd
00000270: 3e5d 7f3d f6e9 15be c876 10be 6a2e 203d
00000280: 349c 663c 1598 bb3d 750e 87bd b050 8fbd
00000290: f4f7 21be 3c1d e5bc d21c 3a3d 6c72 cfbd
000002a0: 13a6 debc 5b14 73bd 89c4 063d 6f68 cebd
000002b0: 64d5 073d 4896 8dbd 151f 6bbd 4510 683d
000002c0: 708b 923c df77 ca3d 95cd c4bc 0aa2 823d
000002d0: 40ad b43d e625 a93d 70a6 a6bd 3c4c 003d
000002e0: 1440 3cbd e6c5 f53d febe 933c 7c14 6fbc
000002f0: 30ee 84bd b369 0a3c b348 a83d 1691 b1bc
00000300: 15f0 5c3e 14cd 363e 5f15 ebbc 194e 92be
00000310: cb3d 323d d142 30bc d6ad 23bf dad2 bb3e
00000320: 03d6 963d 22c9 123f b4af 8dbe 5662 bd3d
00000330: 8b22 4bbd dbed dc3d ad73 3a3d 6c91 e63d
00000340: 78ed 743e 23aa b83b 3c4b 87be 8706 a83d
00000350: d40a d7be f9b0 ab3d bb41 ac3d c4d1 8c3d
00000360: a4c7 41bf ff73 5c3d 4e8f 01bd ed1f 83bc
00000370: cbb4 63bd f203 c83d 44e7 093f c7da 04bd
00000380: 3d31 313d 448d dabd 88ba 9f3d 5e13 42be
00000390: ab11 d53e 1df4 a9bc 8b32 9ebd 7fc6 f63e
000003a0: 594c f3bd 384c 55be 9191 e43d bc2e 08be
000003b0: bdc2 9ebe 401d 993d 74f7 013e 1ab5 5f3d
000003c0: e5a8 44bc daef acbd 8de3 e93d 5e32 653d
000003d0: 0d2a 53bb ac0b 773d 00fc 46be 4201 1e3c
000003e0: 7812 303d 86bd 4fbe af8a 8fbe fc1f d93e
000003f0: c571 013e 4705 36be 446b 413d 2a01 fd3c

lin.bias f4 [2]
0.062394004 0.04273999
00000000: db90 7f3d 2110 2f3d
