model_fold_2.pth (torch, 63878 bytes, 14 tensors)

conv1.att_src f4 [1, 1, 64]
00000000: 2fa6 873e f7b8 9f3d 8332 fa3d 8784 703e
00000010: b5ff ac3e ec13 2a3e 6ae7 fa3c 6a1f dbbc
00000020: 7ced 2e3e f568 5e3e d93e b93d d8ad 7a3e
00000030: 2a49 29be 10cc adbe 86de 873e e106 f43d
00000040: 33f0 b0be ab37 a4be 151c 853e dd12 2d3e
00000050: b1af b9bd df54 2abe e178 47bf 4e18 aa3e
00000060: 4f9c 9e3e fb02 5a3e 9d9c d1bd 6e5e ccbd
00000070: 6e2b b3be 2ccd c23e d5cd af3d b99a 0e3e
00000080: db34 4a3e ab85 91be 62b2 10be 9aaf af3e
00000090: ad0e 1fbe 065c 703e 1312 ab3e 7570 473e
000000a0: 799e ddbe daff 2a3e a2ae e6bb b0c3 99be
000000b0: 8928 46be 8c0f ae3d 01df 12be 4520 c83d
000000c0: 157d 373e 1c55 b83e 210a 253f 68bd 1cbe
000000d0: 8f14 483e 7a52 763e dcb6 693d d136 43be
000000e0: 5ceb a5be 899c 20be 4e64 83bd 09fe 8d3d
000000f0: 8088 8b3d 4283 1a3e 80a6 803e b4cb ae3e
0.26493976 0.07798951 0.122166656 0.23488055 0.3378884 0.16609162 0.030627925 -0.026748378
0.1708278 0.21719725 0.0904519 0.24480379 -0.16531816 -0.3394475 0.2653696 0.119153745
-0.34558257 -0.3207372 0.25997987 0.16901727 -0.090667136 -0.16633938 -0.7791882 0.33221668
0.3097863 0.212902 -0.1023495 -0.099789485 -0.34994072 0.3804716 0.08584181 0.1392621
0.19746725 -0.28422293 -0.14130548 0.3431366 -0.15532942 0.23472604 0.33412227 0.19476493
-0.43284968 0.16699162 -0.007039861 -0.3003211 -0.193514 0.08499059 -0.14342882 0.0977178
0.17918809 0.36002433 0.6446858 -0.15306628 0.19539092 0.240549 0.057059154 -0.1906388
-0.32406127 -0.15684713 -0.06415616 0.06933219 0.06813145 0.15089133 0.2512703 0.34139788

conv1.att_dst f4 [1, 1, 64]
00000000: 5ce5 da3d c05f de3d 7835 28be f11f 6b3e
00000010: 754f 5a3e 66ac 3ebe 761a 2a3e 3e6c 953e
00000020: aae1 983e 8e16 81be 4ef9 b3bc efd5 05bd
00000030: 612a 7d3d 478a 893e b618 42be eb4a c5bd
00000040: fab5 483e c66b 1cbe 12bd d6bd e67c 333e
00000050: 128f 833e 4aca a8be aa83 2a3e 3ddd 1c3e
00000060: a3de 7dbe d85a b4be d001 65bb c4fb 913d
00000070: 0f63 ffbc 1c16 95bd cafc a7bd 08d2 833d
00000080: 9199 c13d bfa7 6ebd c33f 4abe 8636 a73e
00000090: f51b 273e 0e22 03be f3b2 dc3d 7c66 51be
000000a0: d738 c33e ed69 d4bc 4d57 2abd 09f6 7f3e
000000b0: 7ba8 de3d 8a42 b0be da34 6a3e 35be 0e3d
000000c0: c853 aabe 640a 923e 7d3a 25be b13e 963d
000000d0: 2c0c d23e 2ab5 493d 59fc 9b3e a963 4b3e
000000e0: 78e3 0a3e 9a13 b8bd 9d7f 89be 523d 8bbd
000000f0: c039 b33e 8fc7 3e3d 7444 303e 6834 87bc
0.10688278 0.108581066 -0.16426647 0.22961403 0.21319373 -0.18620452 0.16611657 0.29184145
0.29859668 -0.2521252 -0.021969464 -0.032674726 0.061807994 0.2686331 -0.18954739 -0.0963343
0.19600669 -0.15275487 -0.10485281 0.17528114 0.2569509 -0.32966834 0.16651788 0.1531877
-0.2479196 -0.35225558 -0.0034943707 0.071280986 -0.031175165 -0.07279608 -0.082025126 0.06436545
0.094531186 -0.058265444 -0.19750886 0.32658786 0.16319259 -0.1280596 0.10776319 -0.20449251
0.38129303 -0.025929416 -0.041587163 0.24996199 0.10871979 -0.34425765 0.22871724 0.034849364
-0.33267045 0.28523552 -0.16135593 0.07336176 0.4102491 0.049245037 0.30465963 0.19862236
0.13563335 -0.08988114 -0.26855174 -0.06798805 0.35004997 0.046577033 0.17213613 -0.016504481

conv1.bias f4 [64]
00000000: 95e8 f7bc f989 a1bc bd05 203e 2fe0 e13d
00000010: c221 a4bc 8e52 833d a9d8 aa3b 2816 af3c
00000020: c66d 343d ffbc b3bc 330d 5b3d a33a 3cbc
00000030: 52b2 cf3c 9f7e b0bd 67f8 b63d 89ff 22bd
00000040: 4033 9a3d 098f ad3c 282f 343c e779 ca3c
00000050: eca7 193e 14f5 683e 2a3b 503c bea0 1c3d
00000060: f975 093d 1a65 fb3d 672e 023e ba18 69bd
00000070: 4c97 313e 37c4 323d 9916 cebd e3dc 753c
00000080: 9ca7 843d 55fd 73bd 6cb9 72bd a5a7 8dbd
00000090: 0ac9 823d 2e8a 493c e82f 533c bc6a 0e3e
000000a0: 17f0 1c3e 408a d83d dad8 8c3c 82c0 433c
000000b0: f0c9 883c f9b1 8d3d 84b9 edbc 340b 1ebd
000000c0: 767b f73b 00ac 2bbe fab4 1e3d 4575 eb3d
000000d0: 8e3d 8c3b 93be 6ebd 61e9 b1bb 88b8 9dbb
000000e0: 94d9 413d 66cb 4a3c 9c42 f53d fc7c f23d
000000f0: fe0e 96bd ae7b 9cbd 7270 fe3c ede6 e2bc
-0.030262271 -0.01971911 0.15627189 0.11029088 -0.020035628 0.064122304 0.005213816 0.02137287
0.04405 -0.021940706 0.053479385 -0.011488589 0.025353584 -0.08617901 0.08934098 -0.03979448
0.075293064 0.021186369 0.010997571 0.02471633 0.15005463 0.2274974 0.012709418 0.038239233
0.033559773 0.12275143 0.12713014 -0.056908347 0.17342871 0.043644156 -0.10062904 0.015006277
0.064772815 -0.059567768 -0.059258863 -0.06916741 0.063860014 0.012301011 0.01288984 0.13907903
0.15325962 0.10573244 0.017193247 0.011947753 0.016697854 0.06918711 -0.029019125 -0.038584903
0.0075525595 -0.16764832 0.03874681 0.11496977 0.004279799 -0.058287214 -0.0054294323 -0.0048132576
0.04732664 0.0123775955 0.11975595 0.11840245 -0.07327078 -0.076407775 0.031059477 -0.027698005

conv1.lin.weight f4 [64, 89]
00000000: bcf8 1ebe aea3 893d cfc6 2f3e f7cf 2e3e
00000010: a7c4 36be 8635 11be 905c f1bc 20a2 2ebd
00000020: 00fb 16be 64b6 c03e c672 babe 0345 6f3e
00000030: 7844 343e e24f e03c c9d9 783e 7854 85bd
00000040: d3ef 2a3e 703d 69be cf48 003e 5665 62bb
00000050: ada0 25be 4a3f 48be 4548 fcbd f16b c13e
00000060: efea b6bd 5f8b 06bd 9f6c dfbd 3ab2 903d
00000070: dfe9 913e 5603 e0bd aba0 01bf 3e22 59be
00000080: 7dba 08be b2f0 673d 6109 223f 7d02 38bd
00000090: 437a 8a3e 4f01 9e3e caf7 c9be 7471 aebd
000000a0: e7ad 36be f379 2f3d cf86 bdbe a74d 2c3e
000000b0: 8df5 45be a37b da3c caea 06bd b255 8cbe
000000c0: 175b 60be e8d0 09ba ceeb 603c e504 2dbd
000000d0: ecef 8a3c cc57 a93e 8cd4 a1be b1fa 3ebe
000000e0: c8f5 db3e b3c0 8dbe 5973 d6be 407c 56be
000000f0: 7d7d 4bbe cf00 903c 1f3d 8d3e a810 a13d
00000100: 1d80 1e3e 52f6 fc3d 00a4 933c 863f 3cbe
00000110: e1ea 09be 3a2b 11be 84bd 60be 002c 2d3e
00000120: 9019 90be ba99 253d 6b25 303e 3d2e 793e
00000130: 181d 843d d8a2 bb3e 2858 ebbe 28f1 6cbe
00000140: 4b50 8bbe bf4c fe3c d66e cbbb 0e81 203e
00000150: a58c 913d 72fe a53d e6a5 083e 8b42 1fbd
00000160: 4c69 69be ea3e 1ebe 3042 06bc d13a aabd
00000170: 0ec8 f73d 6063 8fbb d8f7 acbc b809 28bd
00000180: 90cc 34be 68ce f7bc e080 803e 28c8 1d3d
00000190: d5e2 c2bd 05f6 4e3e bb00 6ebe a8dc 15be
000001a0: 35b0 213e 253d 173e 5e5d d43d d0c7 15be
000001b0: bd55 b1be b22f eebd 83ec 92be b164 27be
000001c0: 5927 e33c e31c 9cbd 6ec9 de3d 04ca 103e
000001d0: 54c7 f5be 5c99 29be 18cb 383e 1021 24bd
000001e0: c04d c93c e0bd a03e f185 cebe ca2b a9be
000001f0: 87f5 033f 688f b5be cbfa 2dbe 3b1c e73e
00000200: 43a4 01be 48cc 14be 9b3c 83be 4d7c b2bd
00000210: a43f 86be 18fb 3e3e ef0c 93be 5326 91bd
00000220: edb4 c93d b9f7 f03d 6465 60bd ad91 6fbd
00000230: eb96 7fbd b5e2 37be 16cb bebe 5a62 8bbe
00000240: a886 803d 52fc dcbd 96e7 0fbf 5fb0 003f
00000250: 3cda 6d3e 460d cfbd 0eee 9cbd 9f76 65bd
00000260: 9a01 343e accd 33be c452 0a3d 402f 173d
00000270: dcdd 283d 04ac 5c3d 6089 813c 5e33 ed3d
00000280: 18a4 a13d 49c0 13be 1ddd 713d 5a46 97be
00000290: 7c6f 6bbe 05db dfbd a6ba 033e af4d c83e
000002a0: b2f2 81be 460d 5dbd 8db5 663e 9a16 abbe
000002b0: 4998 e43d 444e 50ba 2c84 053d a26d 133e
000002c0: ef10 be3d 5b83 ad3d fa77 ccbd 274c 123e
000002d0: 7885 70bd a31c 053e 40c8 29be 0064 06be
000002e0: d047 0fbe f41c 7e3d 5cec c5bd 5762 bfbd
000002f0: 0cfb 963e 9353 1a3f 504f 0d3e 921e b3bd
00000300: ddf5 27be e30d b43e 97fc f03d c91c 65bd
00000310: c2f8 f33c a840 ad3e 06f1 f8bd e12d 7fbe
00000320: e808 a33e c081 243e 20de 1ebe 5fa1 d53d
00000330: 0f0a 4bbd 8210 623e d4f5 b63e bf37 40be
00000340: 4a77 003d 6e71 eabd 2572 f63e a112 dfbd
00000350: 77be 563e 43f3 663d ce97 33bd f31e 55be
00000360: 666c 893e f8e6 82be 604b ff3d 8727 06bd
00000370: 218f 93be 5c7b 88be f9e8 cc3e 1847 6b3e
00000380: eee2 5cbe b8f3 b03e 2005 153e 7f2c d63e
00000390: 6238 d2bd a953 21bd f6f2 31be 5c71 6d3e
000003a0: f57d 96be c37f cdbe ce87 803e d051 35be
000003b0: ecfa f03d 70e6 47be f0b8 69bd 3993 63bf
000003c0: ff2e 5ebe 5b40 1cbe adeb 143d a0a2 4cbd
000003d0: 4c22 2f3d d576 403e 43ee 233e c0a5 81bc
000003e0: d30f 043d f86f 213e 0974 18bf 98ef dc3d
000003f0: f962 303e 85f6 553e 46aa b5bc 4250 de3e
-0.15524572 0.067206725 0.17165683 0.1707152 -0.17848454 -0.14180574 -0.029463083 -0.042635083
-0.14744186 0.37639153 -0.3641569 0.2336617 0.17604244 0.027381841 0.24301828 -0.06510252
0.16693048 -0.22777343 0.12527774 -0.0034545264 -0.16174574 -0.19555393 -0.12318472 0.37777665
-0.08931529 -0.03284776 -0.1090939 0.07065244 0.28498742 -0.10938136 -0.50635785 -0.21204469
-0.1335239 0.05662603 0.6329556 -0.044924248 0.27046403 0.30860373 -0.3944686 -0.08517733
-0.17839776 0.04284091 -0.37016913 0.16826497 -0.19331951 0.026670283 -0.032938756 -0.2740913
-0.21909748 -0.0005257265 0.013728095 -0.042240996 0.016960107 0.33074796 -0.31607473 -0.18650319
0.42960954 -0.2768608 -0.41884878 -0.20945835 -0.19872089 0.01757851 0.27585694 0.07864505
0.15478559 0.12351669 0.018022537 -0.18383607 -0.13468505 -0.14176646 -0.21947294 0.16911316
-0.28144503 0.04042981 0.17201774 0.24334045 0.06450862 0.36647677 -0.45965695 -0.23138869
-0.27209696 0.031042455 -0.006208281 0.1567423 0.07106904 0.08105172 0.13344535 -0.03888182
-0.22794074 -0.15453687 -0.008194491 -0.083119996 0.12098704 -0.00437586 -0.021114275 -0.041024894
-0.1765616 -0.03024979 0.25098324 0.038520962 -0.09515921 0.20211037 -0.23242466 -0.14634955
0.15789874 0.14769419 0.10369371 -0.14627004 -0.34635726 -0.11630191 -0.2869607 -0.16347004
0.027728723 -0.07622697 0.108782634 0.14139563 -0.48003638 -0.16562408 0.18046224 -0.040070593
0.024573207 0.31394863 -0.40336564 -0.3304122 0.5154652 -0.35460973 -0.16990201 0.45138726
-0.12660317 -0.14531052 -0.25632176 -0.08715115 -0.2622043 0.18650472 -0.28720805 -0.07087388
0.09848962 0.11765999 -0.054784194 -0.058488537 -0.062399786 -0.17957576 -0.37264317 -0.27223474
0.06275684 -0.10790314 -0.5621275 0.5026912 0.23227781 -0.101099536 -0.07662593 -0.05602133
0.17578736 -0.17558926 0.033770338 0.036910295 0.041227207 0.053874984 0.015812576 0.11582063
0.078926265 -0.1442882 0.05904876 -0.2954586 -0.22991747 -0.109304465 0.1286417 0.39121768
-0.25380474 -0.053967737 0.22530194 -0.3341568 0.111618586 -0.0007946233 0.032596752 0.1439729
0.092805736 0.0847232 -0.09983821 0.14286862 -0.058721036 0.12999205 -0.16580296 -0.13124084
-0.13992238 0.06203933 -0.096642226 -0.09344929 0.2948841 0.60283774 0.13799787 -0.08746065
-0.16402383 0.35166845 0.11766928 -0.055935655 0.029781703 0.3383839 -0.121553466 -0.24919845
0.31842732 0.1606512 -0.15514421 0.1043117 -0.04957014 0.2207661 0.35734427 -0.18771265
0.031363763 -0.11447416 0.4813396 -0.10892225 0.20971094 0.056384336 -0.043845944 -0.20812587
0.26840514 -0.2556684 0.124655485 -0.03275254 -0.28820136 -0.26656616 0.40021494 0.22976339
-0.21570942 0.34560943 0.14552736 0.41830823 -0.102646604 -0.039386425 -0.17377838 0.23187774
-0.29392973 -0.40136537 0.2510361 -0.1770699 0.117666095 -0.19521499 -0.057061136 -0.8889652
-0.21697615 -0.15258925 0.03635757 -0.04995978 0.042757317 0.18795331 0.16008858 -0.015826106
0.032241654 0.15765369 -0.59552056 0.107878864 0.17225255 0.20894821 -0.02217592 0.43420607

conv2.att_src f4 [1, 1, 64]
00000000: 36f2 cfbd 5141 82be b891 043a 3f47 93be
00000010: 86a3 11be fec6 eebd f23e f7bc e950 f73c
00000020: f7fb a13e 4733 ed3e deef 93bd 12f7 e8bd
00000030: 63fc a7be 90ff 6abe 1640 89be 8af4 9ebe
00000040: 91cb f13e e1b4 9cbe 29be d7bd 8601 9abe
00000050: 7b02 85bd aa2d 4f3e 172e 3ebd 54cb a83d
00000060: 1081 903e 813e 43be 1d02 043e 4ac6 93be
00000070: fd25 03bf 4a0d 993e 2157 933e a218 e9bd
00000080: 9db6 8bbe c087 a23e ad86 64be f6cc 233e
00000090: 5b3f c63e f139 e9be 1793 c0bd 558a c3be
000000a0: a008 00bf 5ea5 2b3d 9eef 51bd cad2 be3e
000000b0: 3296 4dbe d14e b53c 1f2d 26bf c7ec db3d
000000c0: e5cd b7be 6a99 47be 6474 063c 1ad4 24be
000000d0: af97 b5be 5b8e 373d 4336 4d3e e20a a1be
000000e0: 31f7 96be 24e1 40be 1648 133f a0ec 1d3d
000000f0: e0c8 b93d 67d3 273f 009c 43b6 552f aabe
-0.1015362 -0.25440457 0.0005057114 -0.28765294 -0.14222535 -0.116590485 -0.030181382 0.030189948
0.31637546 0.46328184 -0.072234854 -0.1137525 -0.32809743 -0.22949052 -0.26806706 -0.31045943
0.4722562 -0.3060675 -0.10534317 -0.30079287 -0.06494614 0.20232263 -0.046430673 0.08241907
0.28223467 -0.19066812 0.12891431 -0.2886222 -0.5122984 0.2989295 0.28777412 -0.113816515
-0.2728776 0.31744194 -0.22317 0.15996155 0.3872021 -0.45552018 -0.09403055 -0.38191476
-0.5001316 0.041905753 -0.051253907 0.37270194 -0.20076826 0.02213231 -0.649126 0.10738521
-0.35899273 -0.19492117 0.008206461 -0.16096535 -0.35467288 0.044813495 0.2004023 -0.31453615
-0.29485467 -0.18835884 0.5753187 0.03855574 0.09071517 0.6555695 -2.9148068e-06 -0.33239236

conv2.att_dst f4 [1, 1, 64]
00000000: 069a c73d 5c8c f33d 98ac 10be 4ad7 97bc
00000010: 613a fabc 58e7 c53e 57f2 a03e 2449 843e
00000020: 76d9 34be 8ba8 a0bc c35c 0d3e df07 8d3e
00000030: 1508 96be f8ec 4bbd ed9f 1c3d 69ef 003e
00000040: ee56 803d eb22 69bc 4211 253e 7139 df3e
00000050: 3f86 c33d 6180 54be 8921 dc3e 88cd fabd
00000060: 89b6 913e 10f8 a3bb 5de4 e33c 7ef1 5fbe
00000070: 181a 26be 80c2 a1bd b074 b4bd 008c 30bd
00000080: 27e8 123e b803 1e3e 90a7 b5bd 2320 64be
00000090: c71e 173f ba3b e3bc ba4f 4dbd c4c8 d4be
000000a0: 16d1 1f3d 1b7d a83e f88e 3b3e 388b 8cbe
000000b0: 8ba6 433e ec35 2bbe 0a02 893e 837f 8dbe
000000c0: f6a7 733d 5f2c d83e e2e7 893e 308c bb3d
000000d0: 8c27 b0be c95b abbc 2f18 133e 4109 1cbe
000000e0: 46fc d1bd 7db9 ea3e 256f 27be 04b5 603e
000000f0: d55f 883e 16ab af3d 3dfd b03e 3343 ab3d
0.097461745 0.11892006 -0.1412834 -0.018535275 -0.030545415 0.38653064 0.3143489 0.25837052
-0.1766108 -0.019611618 0.13804917 0.27545068 -0.2930304 -0.049786538 0.038238455 0.12591328
0.062665805 -0.0142295165 0.16119865 0.43598512 0.0954709 -0.20752098 0.42994335 -0.12246233
0.28459576 -0.0050039366 0.027818853 -0.21869466 -0.16220891 -0.07898426 -0.08811319 -0.043102264
0.14346372 0.15431106 -0.08869851 -0.22277884 0.5903134 -0.02773844 -0.05012486 -0.41559422
0.03901776 0.32907948 0.18316257 -0.27449965 0.191065 -0.16719788 0.26759368 -0.27636346
0.059486352 0.42221352 0.26934725 0.09157598 -0.34405172 -0.02091779 0.14364694 -0.15237905
-0.102531955 0.4584464 -0.16350992 0.21944052 0.26635614 0.08577554 0.34568205 0.083624266

conv2.bias f4 [64]
00000000: 9adc b53d 5981 c23d e2e3 c73d 0c73 a0bc
00000010: fabd 573d 88b8 0f3d 9289 99bd f3ae 873d
00000020: 3daa 7c3d f968 703c e54a b03c 6112 a53c
00000030: 6d20 ab3d f660 bf3d f17c db3d 4d93 983d
00000040: 06c3 623d ccaf 3b3d bbee 743c 0d8b 663b
00000050: e8da 643b dda8 bf3d 28b1 743d 7dfa fdbb
00000060: 257c fa3c a7c5 183c 175a a83b ff19 14bd
00000070: e581 41bd b6b0 0d3d 4965 cc3d a44d e83d
00000080: 57c5 063e cb54 bb3b 996b e03d 1ec7 9ebc
00000090: c458 8f3d 070c cebd 966b 083d e277 5c3d
000000a0: 7f4d e93c 8abe 8e3d 46f3 03bd fb78 4b3d
000000b0: 4290 e33c a7fb 333e 1f28 7bba df6e 353e
000000c0: 7829 13bd 9f49 ab3d 3f11 703d 8bd1 053e
000000d0: c21d 3f3d 378b 3e39 55a4 b73c b91a a0bc
000000e0: 96d7 663d 30ff 4dbd 5100 97bd 547b 1738
000000f0: 0329 283c 9adb 0a3d 95e0 cb3d 0ebe 1b3e
0.08879967 0.09497327 0.09760262 -0.019586109 0.05267141 0.035088092 -0.074969426 0.06625166
0.06168579 0.014673465 0.021520087 0.020150365 0.08355794 0.09344666 0.1071719 0.074499704
0.05536177 0.04582195 0.014949496 0.0035178096 0.0034920517 0.0935838 0.059739262 -0.007750808
0.030576775 0.009324468 0.0051376927 -0.036157604 -0.047243018 0.034592353 0.09980256 0.11342934
0.13161217 0.005716895 0.109580226 -0.019382056 0.069993526 -0.10060888 0.033305727 0.053825267
0.028479336 0.06969936 -0.032214426 0.049675923 0.027778748 0.17576467 -0.00095808686 0.17718075
-0.03592822 0.083636515 0.058610197 0.13068216 0.04665924 0.00018171674 0.022417227 -0.019543992
0.056357943 -0.050292194 -0.07373107 3.6116064e-05 0.010263684 0.033900835 0.09954945 0.15209219

conv2.lin.weight f4 [64, 64]
00000000: 1462 893b badf a33d 0464 9b3d 5f3e 533e
00000010: d728 b23c 884d 74be 4d17 98be 193d 0fbe
00000020: 3662 2ebe a665 d6be b4fb 813e 5594 f1bd
00000030: 657a f83d dc5c b0bc b8ed 9e3d 8114 3dbd
00000040: 4fdd 1d3f 0da9 4cbd b83a 873e 73bd c1be
00000050: ebc6 9b3e 2613 b63e 1886 093d 6bf0 123f
00000060: 75f5 f5bd 7f74 01bf 814f b1bd dd03 47be
00000070: 1586 8b3e 4199 1e3e b373 13be d652 89bd
00000080: d517 96be 1da4 82bc 8f72 593d 7c9d 883b
00000090: a64a 133e 3e04 cf3c b59e 453e 2022 003e
000000a0: c767 e43e 1929 063f 78e1 debd d31f b23e
000000b0: f235 ad3d c062 d63d 3aa9 1a3d 6ed4 0f3e
000000c0: fbd9 7fbc 353d 14bd 3eaa d23d 9295 cd3d
000000d0: cb47 9cbe 174d 1f3d d310 413d f2ba b03e
000000e0: 4d54 58bd 2b3f 2cbe 0ebc 263d 568f 86be
000000f0: f5bf 513e dbc8 8cbe f146 393b 1061 62be
00000100: b82a ac3c c9b1 fabd 1526 babd 1e27 16be
00000110: 930f a33c 5179 0b3e dc7f 2d3e 1e67 53be
00000120: cdb1 3b3d 6ef5 663c 2bb8 453d 73f8 013e
00000130: 2842 7b3e 193b 353e d172 c2bc 4e24 7cbe
00000140: b3cf a43e ac1f ab3e f948 533e 66ec 583d
00000150: dd73 023e 87e4 b63c f034 20bf 7daa f6bc
00000160: 08ab 753b 158d 68be e93e 913e 5a9a a9bc
00000170: 4540 8fbe 455a 0c3f 30ac e33d d555 c8be
00000180: b650 ecbc f285 10be b8ce d33d f7d6 5dbd
00000190: 22a4 7d3e 3cd5 28be d9df e4bc 063d fb3d
000001a0: ffba a4bd 87cd e23d d542 60be 2eef 85be
000001b0: e701 ab3e ddcb 36be 7044 aabe a384 bb3d
000001c0: 087d 743b 6fb7 0f3e 234d 803e c2d5 863e
000001d0: a564 91bd 9608 23be c525 813e 4330 b8bd
000001e0: ab8d a03d 6bf8 d1bd 04cc 193e 5a29 c1be
000001f0: 75b3 913e 737c 83be 2a05 a03d dc09 79be
00000200: e8c8 13be b20d 2b3c 7f41 473e 1199 fa3e
00000210: 4565 24be ecc7 8ebe fc49 80be 0aa4 bcbd
00000220: 801b 393d 7aba 6fbe e6f0 543e e025 1b3e
00000230: 2d71 18bc efd2 213e 1c50 9abd 90fe 64be
00000240: 9c63 7a3e ab54 893d 8062 fb3d bafe dcbc
00000250: 1f18 1dbe 0148 333e bf17 b13e 9531 a03d
00000260: 7425 b9be 21c5 c23d f492 183b 2ca5 bb3d
00000270: 19bd 013f 39f6 f63d 00d2 313e 278a 0cbf
00000280: 3612 983e d402 b03d d25b 0abf ea1d 5dbe
00000290: 5410 ecbd 56ab 2dbd d2be a2bd 5722 523e
000002a0: e8dd 6a3e cdf3 b6bd be5a 88be 469e 7c3e
000002b0: 16c5 86bd db36 7a3e 5809 633e 533f 873e
000002c0: d207 c5bd 443c 253e 86ef a43d 8697 9c3d
000002d0: 0b28 15be 5bac 0a3d 9584 19be b153 453e
000002e0: da4c 1e3e 0824 e1b7 8770 9cbe 6aba ea3e
000002f0: cfba 973e 47eb bcbe d145 123e 29b5 953d
00000300: 703f 80bd 9eb9 f3bd ddf6 9cbd 2b87 223e
00000310: a449 2cbe c105 dc3e 658e 98be 3abf aabd
00000320: f040 d63d e064 31bc 681a 9fbd 0c47 43be
00000330: 3881 16bd 1236 4bbe 56c9 363e ff16 d3bd
00000340: 243a c5bd b38d 4f3e 282b 71bd 4ebc 313b
00000350: dcd2 f6be d291 5ebd cf51 18bf 2cc1 873c
00000360: 230e b03d 06a8 853e af36 27bd 4eeb 8d3d
00000370: 1e6d 243d c7c0 6abe 10ba 91be 63c8 e7bd
00000380: 04af ed3e a74e 24be 54f1 a5be fba5 a1bd
00000390: 3866 b3be 9a2d a9be 686d fabd dd45 bbbe
000003a0: fa89 cf3d 5c88 20be 6510 f2bd 4bb5 643e
000003b0: 0f04 963d cc43 83be 35ca 2cbe 6d41 d4be
000003c0: b055 2c3e af45 3bbe 6b93 06be f5da dd3e
000003d0: 2b4c c5bd 507a b1bc 53a0 173d 3735 c63d
000003e0: 62c7 093d b6b6 8abe 0308 35bf e465 02bd
000003f0: 0fa1 b83d e8d1 03be 524f 573e 5a1c 113d
0.0041926 0.08001657 0.07587436 0.20629261 0.02174799 -0.23857701 -0.29705277 -0.1398815
-0.17029652 -0.41874427 0.25387347 -0.1179587 0.1213272 -0.021528654 0.07760185 -0.046162132
0.61665815 -0.049965907 0.26411986 -0.3783985 0.304252 0.35561484 0.033575147 0.573981
-0.12009708 -0.50568384 -0.08657742 -0.19435067 0.27250734 0.15488149 -0.14399604 -0.06705253
-0.29315057 -0.015947396 0.053087767 0.004169164 0.14383945 0.025270578 0.19298823 0.12513018
0.44610426 0.5240646 -0.108828485 0.34789905 0.08457555 0.10468054 0.037759043 0.14045879
-0.015615935 -0.036191184 0.10286377 0.10038294 -0.30523524 0.038891878 0.047135185 0.34517628
-0.05281477 -0.16820972 0.040706687 -0.26281232 0.20483382 -0.2749699 0.0028271044 -0.22107339
0.021016464 -0.12240941 -0.09089295 -0.1466336 0.019904887 0.13620497 0.16943306 -0.20644805
0.04582386 0.014096601 0.04827134 0.12692432 0.24536955 0.17698325 -0.02373639 -0.24623224
0.32189712 0.334226 0.20633306 0.052959822 0.12739511 0.022325767 -0.62580776 -0.030110592
0.0037485976 -0.22710069 0.2836831 -0.020703483 -0.2797872 0.5482524 0.111168265 -0.39127985
-0.02884708 -0.14113596 0.10342163 -0.054160085 0.24769643 -0.16487592 -0.02793877 0.12267499
-0.08043479 0.110743575 -0.21900494 -0.26159042 0.3339989 -0.17851205 -0.3325534 0.09156158
0.003730597 0.14034818 0.2505885 0.2633496 -0.070992745 -0.15921244 0.25224128 -0.0899358
0.07839521 -0.1025246 0.15019232 -0.3772686 0.28457227 -0.25680885 0.07813485 -0.24320167
-0.14432108 0.010440277 0.19458579 0.48944905 -0.16054256 -0.27886903 -0.25056446 -0.092109755
0.04519224 -0.23410979 0.2079502 0.15151167 -0.009304327 0.15803121 -0.07534811 -0.22362733
0.2445206 0.06705602 0.12274647 -0.026976932 -0.15341233 0.17507936 0.3458843 0.07821957
-0.36161387 0.095102556 0.002328095 0.091623634 0.50679165 0.12058682 0.17365265 -0.54898304
0.29701394 0.085942894 -0.54046357 -0.21593443 -0.11526552 -0.042399727 -0.07946552 0.20520912
0.22936213 -0.0893322 -0.2663173 0.24669752 -0.0658056 0.24434988 0.22171533 0.264155
-0.09620632 0.16136271 0.08053498 0.07646088 -0.14566056 0.033855777 -0.14991982 0.19270207
0.15459004 -2.6838869e-05 -0.30554602 0.45845348 0.2963471 -0.36898252 0.14284445 0.07309944
-0.062621 -0.11900638 -0.07664273 0.15871875 -0.16824967 0.4297314 -0.29796138 -0.08337255
0.104616046 -0.010827273 -0.077687085 -0.19070071 -0.036744326 -0.19844845 0.17850241 -0.103071205
-0.0963023 0.20268898 -0.058879048 0.0027120295 -0.48207748 -0.054338284 -0.5949983 0.016571604
0.08596446 0.26104754 -0.040823635 0.069296464 0.040143125 -0.22925101 -0.28462267 -0.113175176
0.4642259 -0.16045628 -0.3241068 -0.078929864 -0.35038924 -0.33042604 -0.12227899 -0.3657674
0.10133739 -0.15677017 -0.11819533 0.22334783 0.07324993 -0.25637662 -0.16874011 -0.41456166
0.16829562 -0.18288301 -0.13142173 0.43331113 -0.096336685 -0.021664768 0.03701813 0.09678119
0.033637412 -0.27092522 -0.7071535 -0.03183545 0.090150945 -0.12873042 0.21026352 0.03542743

conv3.att_src f4 [1, 1, 64]
00000000: fa05 22be 3695 a23e cce3 863e c844 86bc
00000010: bf03 16be b938 80bd f258 92be 9d18 93be
00000020: 2123 60be 2acd fc3d 3c29 6dbe 8c2f 283e
00000030: d15a b83d 2d66 403d ffff 593d ed3f e6bd
00000040: 01a7 b43d 1106 ae3e b30e 13bd 84cf 8b3c
00000050: 3f19 e73d e669 87be 943a 19be 002d c13e
00000060: e196 003e 36a7 9bbe f3ba d2bd c1d1 ae3e
00000070: 1343 3a3d 45cd b3be 0a1f 0c3e 925a 003d
00000080: 9339 903e d351 053e defb 473d 2f8b d13b
00000090: eb68 c4be d7ed aa3e 0beb 40be d0ce a83e
000000a0: b66c 653e 8a0f 0bbe 7cda 353e 4194 26be
000000b0: d003 d63d 920b b43d 1664 b03e 84b1 86be
000000c0: c5bc 0e3d 8f3f 7e3e fc98 22be 1bc3 f6bd
000000d0: ec4d b83d 7620 c43e aa59 cebd 3ad9 073e
000000e0: 2ce2 513e 5c5f 8c3d 4002 1d3e 0838 083e
000000f0: c82c 36bc b08a 223e 6c27 66be 6af4 b93d
-0.15822592 0.31754464 0.2634567 -0.01639022 -0.14649867 -0.06260819 -0.28583485 -0.28729716
-0.218884 0.123438194 -0.23160261 0.16424388 0.09001697 0.046972442 0.053222653 -0.112426616
0.08820916 0.33989003 -0.03590269 0.017066725 0.11284112 -0.26447982 -0.14963752 0.37729645
0.12557556 -0.3040101 -0.10289564 0.34144405 0.045474123 -0.35117546 0.13683715 0.031336375
0.28168926 0.13019495 0.048824184 0.006394766 -0.38361296 0.33384582 -0.18839662 0.32970285
0.22404751 -0.13580146 0.17759126 -0.16267492 0.10449946 0.08791269 0.3445136 -0.2630731
0.034847993 0.24828933 -0.15878671 -0.12048932 0.089992374 0.38306016 -0.10075696 0.13266459
0.20496434 0.06854126 0.1533289 0.13302624 -0.011119075 0.15873218 -0.22475976 0.090798214

conv3.att_dst f4 [1, 1, 64]
00000000: df3e 5dbd a9d1 d93e 401f 263d 70c8 f93b
00000010: 3a4f 163c 19c2 3d3e 8ade 063e eafc b03c
00000020: 9d13 80bd ca81 d5bb 4f6a 213e ca65 a53d
00000030: 45a3 003f c859 ec3d ee5e a8be 76b1 6cbd
00000040: 0131 07be 5910 ab3d 9cae 983d a8b0 c53d
00000050: a243 32be ca7f 343e c443 2bbe 67a8 dabd
00000060: f08e 163e 1358 2fbd 2876 c33e 6511 b33e
00000070: 87b9 a63e 51c2 b5be e8d8 d6bb 23a4 c1bd
00000080: 2720 c83e 0f32 223e 911b 1f3e 963a aabd
00000090: ce6e c8bc 5ac1 8b3e 011c 493e dc4e 68be
000000a0: b373 1b3d d6fe 8cbe 7d10 46be bb9d 04be
000000b0: f5fe 9cbd a618 b23b c8b8 723e 306c 9e3e
000000c0: 4dde 9f3d 597b 943e 6c83 843e 2749 203e
000000d0: e24d 853d bd96 a6bd b5da 4ebe 5f20 91be
000000e0: f71b b93e 373c 23be fbbb debd 7087 7bbe
000000f0: cb73 953e 367f b4bc c194 fb3d fedc b03d
-0.054015037 0.4254277 0.040557146 0.007622771 0.0091741625 0.18531074 0.1317083 0.021604974
-0.06253741 -0.006515716 0.1576321 0.08076055 0.5024913 0.11540562 -0.32884926 -0.057786427
-0.13202287 0.083527274 0.07455179 0.09652835 -0.17408612 0.17626873 -0.1672507 -0.106766514
0.14702964 -0.042808603 0.38176084 0.34974208 0.3256342 -0.35499814 -0.006556619 -0.09455135
0.3908703 0.15839408 0.1553786 -0.08311956 -0.024466898 0.27295953 0.19639589 -0.22686332
0.037952136 -0.27538174 -0.19342227 -0.12950794 -0.07665817 0.005435067 0.23703301 0.30941916
0.078060724 0.29000357 0.25881517 0.15652905 0.065089956 -0.0813422 -0.20200618 -0.2834501
0.36154148 -0.15940939 -0.10875698 -0.24563384 0.29189906 -0.022033315 0.12284232 0.08635901

conv3.bias f4 [64]
00000000: 5eb9 f33b ef6a 52bb a7fe 91ba 3dcb 2e3c
00000010: 3cce f8bc 096f ac3b 6ee2 2f3a 9ed1 0c39
00000020: 1172 4e3b b941 e6bc fa02 b73b dba6 a6bc
00000030: 6c81 11bc 3f78 4abe 3dfa 05bd 9e38 4cbd
00000040: 1aef d0bc 04d5 9fbb 0191 773c b5e4 4f3b
00000050: c235 cc3b 6014 2cbd ad42 92bc e232 d7bc
00000060: 9a19 f1bd 28c5 103b 1946 e5bb 142b 4c3d
00000070: 225f fcbc fddd c3bd 4ad9 cabc 2479 1dbd
00000080: 6e71 cbbb c2d9 0abd c1d8 08bd 72e8 5f3b
00000090: 4229 993b c3fa 3ebd cf0c bbbb 8e76 cdbc
000000a0: 09a8 8abd f462 84bc eeeb 06bd d7e7 8c3b
000000b0: bd1f 34bd 94a7 31bc a4fc 203c c5ff 7b3c
000000c0: d287 cc3a 46dc 023b 3ab0 093b 438c cd3a
000000d0: 7b22 7db9 7d8d 2bbc e0f9 e3bc 3ef6 c6bc
000000e0: ee5e 14bc f0c2 4fbc 1cef 1cbb 7413 a4bc
000000f0: be29 553c b213 f839 1bfb 993b 1f2f 4ebc
0.007437869 -0.0032107194 -0.0011138514 0.010668573 -0.030371778 0.00526226 0.0006709461 0.00013429529
0.0031501094 -0.02810751 0.0055850716 -0.020343235 -0.008880954 -0.19772433 -0.03270935 -0.04985868
-0.025504638 -0.0048776884 0.015110255 0.0031722013 0.0062319944 -0.04201162 -0.01785406 -0.02626938
-0.11772461 0.002209017 -0.0069968817 0.04984577 -0.030807082 -0.09563825 -0.024761815 -0.038445607
-0.00620859 -0.033899076 -0.033409838 0.0034165648 0.004674108 -0.046625864 -0.005708314 -0.025080945
-0.067703314 -0.016160466 -0.032939844 0.0043000984 -0.04397558 -0.010843176 0.009825859 0.015380804
0.0015604442 0.001996772 0.002100958 0.001568206 -0.00024140805 -0.010470745 -0.02782911 -0.02428734
-0.009055836 -0.012680754 -0.0023946231 -0.020028807 0.01301044 0.0004731692 0.0046991236 -0.012584477

conv3.lin.weight f4 [64, 64]
00000000: 8deb bd3d b81c d43d 1b34 8d3d 4b99 2bbd
00000010: 6d1a 593e 601d c4bd 6b7e ab3e 127c 42be
00000020: e49a a73e fbb7 04be 16c3 2dbd 8780 d5be
00000030: 343b b0bd 8b5c 2b3d 628c 993e f189 24bd
00000040: e19e 67bd 5ad3 50bd 3aea cb3e 19d8 8f3d
00000050: 0cd7 603d 784a 8ebd 39a7 173e 6f19 5aba
00000060: eed3 373c ae2c 8cbe 5ab0 aabd 331d 60be
00000070: e960 b6bd 1bab 2cbe 7c80 a63e 993f 753e
00000080: ea3d 4abd 7a31 13be bfe4 6a3e 18a5 98be
00000090: dc42 56be 5154 f3bd 3404 2c3e 09af f23d
000000a0: d411 6d3d 7a9a 023c 5c77 3f3c 6f94 773e
000000b0: 411c 683e 0b73 22be 7e0c 15bd 10f7 f2bc
000000c0: 253f 66be effc 6cbe ecc7 493e e6e7 adbe
000000d0: ea43 5c3e 047a bebd 1ed6 6c3e 2ab3 82bc
000000e0: d5d8 223e 9638 693e 0e2b 11be 569c 10be
000000f0: 3845 0dbe fca4 153e 78c5 dbbd d4ec 94bb
00000100: 9c80 e83d d7a4 debc 0432 af3e a4c5 1f3d
00000110: 101c 00bd f291 443c 9d36 aa3e 90ad c5bd
00000120: d5cb bf3e 17d0 293e 7638 dd3e 5b80 ddbd
00000130: cb31 0b3e 6c91 c13c 60c5 a73c ab3d 273c
00000140: 4bb5 a33d e736 253d 71e3 993e d92d f93d
00000150: e3f2 84be 7f42 b43e d577 7e3a 5fde e63d
00000160: 203c 5cbe 3390 6ebe a300 7abe 7142 d93e
00000170: c6cd e6bc 80c0 38bd d41a a23e e88b 0a3e
00000180: efaf 2fbe 39f5 b53d 9258 1dbe 7c27 aa3d
00000190: 0fc6 473e 6e3f 893e 3a7b da3d 8de1 263e
000001a0: a7a7 6c3d 725f 253e 648d 933e 59fc 643e
000001b0: 8d27 60bd 48b2 28be 5cf0 b4bd 1f8a fcbb
000001c0: ea5c ebbd e976 b03d 53f4 b2bd 198d 053e
000001d0: 4b80 513e 90d3 8e3d 074a 6a3d 660d 63bd
000001e0: fd65 44be 1a33 0bbe 3228 ee3e 7e00 293e
000001f0: 2723 4fbe 232c df3c da9c 66bd fd1f 0d3d
00000200: 348e 64be ce28 3d3e 56fb 893e fbc5 cebd
00000210: 79e9 4bbd f42d 04be b72b 57be b934 f23e
00000220: 97fe 003e 794c 963e b89c 903e 6b93 073e
00000230: 3d00 c4bd 0a0c 08be 52b0 e63d e7f0 88bc
00000240: 8f46 0e3e e5e5 3abd 0235 b0be 9c65 103e
00000250: 2707 d1bd bf7c ffbd 9e4e 3dbe 042a 303e
00000260: ee40 833e a4b3 8cbe 217e f03d f580 b0be
00000270: b262 b23d f05c 11be 20ae 9abb 545e edbb
00000280: 4534 65bd 9a61 98b9 aa84 e6bd 3606 e3bc
00000290: 0336 503e 7dfb 843e 0ffb f4be a26a ae3a
000002a0: a06b 3a3e d910 41bd 7b36 003e 4901 f6be
000002b0: bb31 6c3d b8e2 343e 6f67 10be e023 8c3d
000002c0: ccc2 653e 97b7 65bd abbe 8fbd e75e 8a3e
000002d0: 27e1 aa3e e846 943e ce4d 92be b11f 39bd
000002e0: 8379 06be d235 ddbd 571f 9f3e a0d6 53be
000002f0: ac72 10bd a7eb 56be e433 bdbe e87a d6be
00000300: 609f 84bd 32d6 d3be aae6 b0be e124 cbbd
00000310: 6850 463e 3b95 a93e 26ed 8abe 0fff 58bc
00000320: fd85 a4bd c300 e03d eb0f ab3e 398a c33c
00000330: e9b7 f0bd 1c91 a13e 0d32 efbd 8346 d03d
00000340: 084f 123e ce37 84bd c35f 47be ccbd 76be
00000350: 6361 82be dd7b af3d 2125 05bf a896 88bd
00000360: 5c5a d23d a90c 78be 56fa 98be 77e4 b2be
00000370: f663 83bc d5bf eabb 7a6b c8bd c955 883e
00000380: c1b8 f13d bc9a 8bbe 5cb6 ccbe 901a 453e
00000390: 839c 8cbd 1937 c63d 0f40 92be bb94 ad3d
000003a0: 710c 343e 6755 a13e 4a74 1b3d 4e4c 55bf
000003b0: 5d49 273d eb93 07bf 0b15 30be 2b8f a1be
000003c0: b8aa aabc c396 4e3e 3a2a 8ebe 6e2f c3be
000003d0: 1c74 88be ba91 9ebe 9fe0 083d ae40 da3d
000003e0: 3425 5ebd 916f fd3d e781 393e c2df 0bbc
000003f0: 3ddb 54bd d911 42be d5da e7be 171a b1be
0.09273443 0.1035704 0.06894704 -0.04189424 0.21201487 -0.09575915 0.33494887 -0.18992642
0.3273536 -0.12960808 -0.042422377 -0.4169962 -0.08605042 0.041836303 0.29989916 -0.040170614
-0.056548003 -0.05098281 0.39827138 0.07023639 0.054892585 -0.069477975 0.14809884 -0.000831983
0.011219962 -0.27377838 -0.08334418 -0.21886139 -0.08905203 -0.16862147 0.325199 0.23950042
-0.049375452 -0.14374343 0.22938822 -0.29813457 -0.20923942 -0.118813165 0.16798478 0.118497916
0.05787833 0.0079714 0.011686172 0.24177717 0.22667028 -0.15864198 -0.036388867 -0.029658824
-0.22485025 -0.23143362 0.1970517 -0.33965987 0.21510282 -0.093006164 0.23128554 -0.015954573
0.15903027 0.22775492 -0.1417658 -0.14122137 -0.13795936 0.14613718 -0.107310236 -0.0045448337
0.11352655 -0.027178211 0.34217846 0.039006844 -0.031276762 0.011997687 0.33244792 -0.09652245
0.374602 0.16583286 0.4320714 -0.108154975 0.13593213 0.023628913 0.020479858 0.010207574
0.07993563 0.040335562 0.30056337 0.12166948 -0.25966558 0.35206982 0.00097071874 0.11272883
-0.21507311 -0.23297195 -0.24414305 0.42433503 -0.028174292 -0.045105457 0.31661093 0.13529932
-0.17156957 0.08884663 -0.15365818 0.08308312 0.19509147 0.26806206 0.10668035 0.16296978
0.057777073 0.16149691 0.2881881 0.22361888 -0.05472522 -0.16474259 -0.088349074 -0.007706895
-0.11492331 0.0861643 -0.087380074 0.13042106 0.20459096 0.06973946 0.057199504 -0.0554327
-0.1917953 -0.13593712 0.46515042 0.16504094 -0.20228253 0.027242726 -0.05630193 0.034454335
-0.22319871 0.18472597 0.26949567 -0.100963555 -0.049783204 -0.12908155 -0.2101277 0.4730585
0.12597118 0.2935522 0.28244567 0.13239829 -0.09570358 -0.13285843 0.11264099 -0.016716434
0.13894103 -0.0456294 -0.34415442 0.14101261 -0.10206442 -0.12474965 -0.18487021 0.17203528
0.25635475 -0.27480805 0.11742807 -0.34473386 0.08710231 -0.14195609 -0.0047204643 -0.007243911
-0.05595805 -0.00029064418 -0.112557724 -0.027712923 0.20333104 0.2597312 -0.47847793 0.0013306926
0.18205118 -0.047135208 0.12520783 -0.48047855 0.057664614 0.17664611 -0.14101957 0.0684278
0.2243759 -0.056083288 -0.07018789 0.2702553 0.33374903 0.28960347 -0.28574985 -0.04519624
-0.1313229 -0.10801281 0.31078598 -0.20687342 -0.03526561 -0.20988332 -0.36953652 -0.41890645
-0.06475711 -0.41374356 -0.34550983 -0.099191435 0.1936661 0.33121666 -0.27134055 -0.013244404
-0.08033369 0.10937645 0.33410582 0.02386962 -0.11753828 0.31556022 -0.11679468 0.10169699
0.1428796 -0.064559564 -0.19470124 -0.2409584 -0.25464925 0.08568547 -0.5200978 -0.066693604
0.10271141 -0.2422358 -0.2987849 -0.3493993 -0.016038876 -0.0071639814 -0.097861245 0.2662795
0.11802817 -0.2726649 -0.3998288 0.19248414 -0.0686579 0.09678478 -0.28564498 0.08475634
0.17582871 0.3151047 0.0379527 -0.83319557 0.04084145 -0.5296008 -0.17195527 -0.3155454
-0.020833358 0.20174699 -0.2776659 -0.38122123 -0.26651084 -0.30970556 0.03341734 0.10656868
-0.0542347 0.12374795 0.1811596 -0.008537235 -0.051966894 -0.18952121 -0.45284143 -0.34590217

lin.weight f4 [2, 128]
00000000: 795e b53c 2f62 30be 77a2 503d f9dd 773b
00000010: c4a5 74be 9c39 813c 24d4 14be b76d 193c
00000020: a307 3bbd 7798 5ebe b7eb 5d3d a864 6c3d
00000030: 1902 6fbe f6c5 96bd d305 123e 13b7 aebd
00000040: 089b 5dbd 6006 a0bc 271e 08bd 4b8a 3d3c
00000050: 4f2a c63c 8a04 1fbc 0386 c23d 0ba6 a9bd
00000060: f125 36be a29c c2bd 97f3 61be f171 efbb
00000070: 7828 12be 5650 ee3d e687 34bd bc76 173d
00000080: 208a 243d bba9 dfbb 853a 56be 79b1 27bd
00000090: c320 1a3b ee15 92be 89f1 28be a23d 10be
000000a0: 1de0 723d 576e 78bd 025c 493d db3e 2abb
000000b0: 9cdc 5dbe 998e 59be bb92 9c3d 9b02 ca3d
000000c0: 0278 9b3c 27e0 f03c 6367 ab39 0bdd ad3d
000000d0: e808 763d b66b 32be 958a 0c3e 77c7 6ebc
000000e0: d7c6 06be 9057 c0bd 29af bd3d 016b 4dbd
000000f0: 88af 38bd 728f d43a 9a7b 7fbc f085 b8bd
00000100: cf2a 393e 9163 8f3c 6647 18be c71a 333f
00000110: 3d61 12bc 9864 81bd af2a 7e3e 3a32 8e3e
00000120: 0b87 663e 9423 253d 4cc0 e33b fc23 95be
00000130: b851 9a3d c930 243d 41c4 cebc d295 b13d
00000140: 3616 82bd 0927 ac3d 74b3 b03c 90df c93e
00000150: 6728 273e 7eb1 6e3d d102 33be 521a 94bd
00000160: d277 6d3d c0a0 663e 9a06 f23d 7466 ca3a
00000170: 7cc6 b63c 26dc 23be ffc5 5a3e 3e64 c9bd
00000180: 7396 a7be 9301 05bd ae54 503d 844b bb3e
00000190: f629 b53e d2e5 d13c 5ae9 dc3d 9a67 07bd
000001a0: 1424 18be 48db ed3e 049f 02be cd3c 793e
000001b0: e15b 213e 3149 003e 95a0 92bd 15e2 febe
000001c0: 742b 893e fbdc 15bf 2058 9f3e b156 24bb
000001d0: fe03 11bf 152a cb3d 73da a3be 92b2 59bc
000001e0: b73e d5bb 70c2 7abe cd18 ba3b dcab aa3d
000001f0: 217c 6b3d 33da f2bd 3f66 af3e 5d09 31bd
00000200: 0e10 893d 2694 b93d 9c86 efbb d1f8 0c3e
00000210: 64c4 2a3e 5533 d1bd 97c9 023e 301e 863d
00000220: 20a9 8d3d 2116 1e3e 9eae 81bd 73c4 54bd
00000230: f95f 523e 91d6 14bd b8a6 6dbd fbde 72ba
00000240: acfa 8e3d a0a8 873c 1422 1b3d ca8f 86bd
00000250: ec4d 9ebb 55b9 983c 4aaa 18bd 306d a8bb
00000260: 78fe 693c f9ff 95bb c792 253e d666 f63b
00000270: 0143 523e 99a5 00be 1e0b 493e 9340 12be
00000280: e1b9 4fbd 07a7 be3d e7b2 863d 1e21 7c3d
00000290: 33e6 f4bd 2595 043e 2a3e 283e dbc9 d83d
000002a0: 8051 84bd f545 07bd c6c9 e3bc 16e6 003e
000002b0: f32d b03e db0e cc3d dbcf a63c b1b7 edbd
000002c0: a882 3c3d 9fd8 8dbd c3f1 acbd c741 75bd
000002d0: 06e4 cfbc 14b1 283e c2df debd ec70 09bc
000002e0: eb74 453d 898e 2f3d 2236 09be 2c8d ffbc
000002f0: 3f74 873d fc7a 333d bae6 9a3d 850c cb3c
00000300: 96aa 82be 54a0 dfbd 6e66 1a3e 19a1 27bf
00000310: cf81 08be 9cd3 533d ff39 51be 974c 2ebe
00000320: 7a7c 65be 8560 08be ae9c 923d 54d6 c33e
00000330: 5de5 07be 683b 533c cb70 fb3d 168f c8bd
00000340: 4349 64b9 c52c 823d a466 1fbe 1061 9cbe
00000350: 97ca 58be d66f 1e3d 0833 8f3d 8870 383b
00000360: 1ba5 96bd a58d 36be 5a7e 533c d2c6 d3bc
00000370: 0f94 e0bd aa41 1b3e 160a bebe 7544 623d
00000380: aed7 ab3e eb11 963c dd0d bfbd 3f93 b9be
00000390: 66bb 92be d26f 05be 8e48 a8bc b6ed c7bd
000003a0: d663 c53d 2122 d6be 4a01 523d edf8 78be
000003b0: d271 b5bd 8fa5 82be 3281 cb3d f1e2 043f
000003c0: 61da 3cbe ea48 0e3f df2d 83be b99b 85bd
000003d0: 46a6 1b3f 0454 c5bc 2d30 ca3e 62b4 ba3d
000003e0: 0f9c c9bd d255 633e 5e2c 713d 04ff 6bbd
000003f0: a9fd 8ebd 518d 103d 5b9b d1be ff54 5e3d
0.022139775 -0.17224954 0.05093619 0.0037821515 -0.2389136 0.01577454 -0.1453405 0.009364537
-0.04566158 -0.21737848 0.054179873 0.05771318 -0.23340644 -0.07361977 0.14260034 -0.085310124
-0.054102927 -0.01953429 -0.03323188 0.011568616 0.024190096 -0.009705672 0.09498217 -0.08283623
-0.17787911 -0.095025316 -0.22065578 -0.007307284 -0.1427325 0.116364166 -0.044074915 0.03697847
0.04017079 -0.0068256534 -0.20920761 -0.040940735 0.0023518063 -0.28532356 -0.16498388 -0.14086011
0.059295762 -0.060652103 0.04916001 -0.0025977406 -0.21666187 -0.21245803 0.07645174 0.09863778
0.018978123 0.02940376 0.0003269269 0.08489426 0.060067087 -0.17423901 0.1372474 -0.014573923
-0.13161789 -0.09391701 0.09261925 -0.050150875 -0.045089275 0.0016217066 -0.015593434 -0.090099216
0.18082736 0.017503532 -0.14870986 0.69962734 -0.008934316 -0.06318015 0.2482097 0.27772695
0.22512452 0.040317133 0.006950414 -0.29129016 0.07535118 0.040085588 -0.025240066 0.08671154
-0.06351893 0.08405883 0.021569945 0.39428377 0.16324006 0.05827474 -0.17481543 -0.07231583
0.057975598 0.22522259 0.118176654 0.001544191 0.022311442 -0.16001949 0.21364592 -0.09833573
-0.3273197 -0.032472204 0.050862007 0.3658105 0.35383576 0.025622282 0.10786696 -0.033057787
-0.14857513 0.4645636 -0.12755972 0.243396 0.15757705 0.1252792 -0.07159535 -0.49781862
0.26790965 -0.58540314 0.31121922 -0.0025076086 -0.56646717 0.09920136 -0.320026 -0.013287203
-0.0065077203 -0.24488235 0.005679226 0.08333561 0.057491425 -0.118580244 0.34257695 -0.04322182
0.06692515 0.0906146 -0.007309748 0.13766791 0.1667648 -0.10214869 0.12772213 0.065487266
0.06917024 0.15438129 -0.06332134 -0.05194516 0.20544423 -0.03633744 -0.058020324 -0.0009264794
0.069814056 0.016559899 0.037874296 -0.06570394 -0.0048310664 0.01864306 -0.037271775 -0.0051399693
0.0142818615 -0.0045776335 0.16169272 0.007519583 0.20533372 -0.1256317 0.19633147 -0.14282446
-0.050714377 0.09309202 0.06577092 0.06155502 -0.119579695 0.12947519 0.16429964 0.10585376
-0.064608574 -0.0330257 -0.027806174 0.12587771 0.34410056 0.09963771 0.020362785 -0.11607302
0.04602304 -0.06926083 -0.0844455 -0.059877183 -0.025377285 0.164738 -0.10882522 -0.008388739
0.048207205 0.04286054 -0.13399556 -0.031195246 0.06613969 0.04381846 0.07563539 0.024786243
-0.25520772 -0.10919252 0.15078136 -0.6548019 -0.13330768 0.05171548 -0.2043228 -0.17021404
-0.22410765 -0.1331807 0.071587905 0.38249457 -0.13271089 0.0128925815 0.12277373 -0.097929165
-0.00021771067 0.06356195 -0.15566498 -0.30542803 -0.21171032 0.038680874 0.06992155 0.0028143246
-0.0735571 -0.1782747 0.0129085425 -0.02585164 -0.1096574 0.15161768 -0.3711707 0.055241067
0.33562988 0.01831909 -0.09328816 -0.36245152 -0.286586 -0.13030937 -0.02054241 -0.09762137
0.09638183 -0.41822913 0.05127076 -0.24313708 -0.088596 -0.25516936 0.099367514 0.51908785
-0.1844268 0.5558001 -0.25620934 -0.06523842 0.6080059 -0.024087913 0.3948988 0.091164365
-0.09844219 0.22200707 0.058880202 -0.05761625 -0.069819756 0.03529102 -0.4093884 0.054280277

lin.bias f4 [2]
00000000: 52d5 a93d 2033 9d3d
0.08292641 0.07675767
