model_fold_4.pth (torch, 63878 bytes, 14 tensors)

conv1.att_src f4 [1, 1, 64]
0.2272489 0.2808418 0.34287238 -0.08282009 0.052172042 -0.25420678 0.1444302 -0.15040988
0.113792434 -0.15461573 -0.07779927 -0.043137476 -0.18659937 0.0044670836 -0.24722616 -0.02478959
0.38874206 0.06362139 0.301174 -0.018211534 0.22898933 0.32397133 0.013515664 0.3728
0.15334453 0.2637343 0.097296394 0.14248756 -0.18302293 0.23505643 -0.25191537 0.18708271
0.4025113 0.14737639 0.033533596 0.16481492 0.08552698 0.25475493 0.20475823 -0.16306004
-0.023844799 0.030425593 -0.2423075 -0.15508911 -0.25696418 0.044387937 -0.124945104 0.286885
-0.20777161 0.29769868 -0.26264283 0.26669252 -0.10140618 0.16318525 -0.30418023 -0.26068836
-0.17535038 0.12733473 0.14192735 -0.41297525 -0.46014312 0.05908312 -0.06665346 -0.08424242
00000000: f0b3 683e 7fca 8f3e f88c af3e 949d a9bd
00000010: 5ab2 553d 6427 82be 83e5 133e 0c05 1abe
00000020: 020c e93d 9653 1ebe 3955 9fbd ecb0 30bd
00000030: e813 3fbe 9d60 923b db28 7dbe 8a13 cbbc
00000040: 3309 c73e ee4b 823d 7b33 9a3e 5b30 95bc
00000050: 2e7c 6a3e 92df a53e ce70 5d3c a4df be3e
00000060: 5906 1d3e 2f08 873e 5543 c73d 42e8 113e
00000070: 5d6a 3bbe a2b2 703e 0dfb 80be 9c92 3f3e
00000080: f615 ce3e d6e9 163e 865a 093d 3ec5 283e
00000090: c528 af3d 3d6f 823e 24ac 513e 36f9 26be
000000a0: 2b56 c3bc 183f f93c 751f 78be aecf 1ebe
000000b0: cf90 83be 20d0 353d 38e3 ffbd 97e2 923e
000000c0: 15c2 54be f66b 983e 1f79 86be ec8b 883e
000000d0: 0bae cfbd 091a 273e 83bd 9bbe f278 85be
000000e0: 0d8f 33be 0964 023e 6755 113e 7e71 d3be
000000f0: e197 ebbe 2401 723d 9c81 88bd 4a87 acbd

conv1.att_dst f4 [1, 1, 64]
0.04825013 -0.042378925 -0.2824123 0.11081406 0.28594005 -0.007895253 0.35843265 -0.3608341
0.32393953 0.41010135 -0.10643805 0.109135084 -0.12221837 0.16232324 -0.30107006 0.2972481
0.14022644 -0.25540972 -0.5101968 0.07120921 -0.04140642 -0.21031554 -0.115505226 0.14937013
0.15389633 -0.48120183 0.04825038 0.12864672 0.37389946 0.4962036 0.2856413 -0.056052204
0.06777694 0.21322711 0.34807134 0.2172218 -0.5077473 -0.39227045 0.18899462 -0.01914268
-0.0024088605 -0.27848402 -0.23431936 0.45246476 -0.032127764 0.63661224 -0.1423077 -0.15416268
0.58665365 -0.5544892 -0.67447704 0.013808415 0.22969566 0.07669196 0.4459486 -0.7515857
0.22477278 0.36563703 0.14315438 -0.2025375 0.23399796 -0.05153238 -0.13531443 -0.0797408
00000000: eea1 453d 8695 2dbd 5898 90be 7bf2 e23d
00000010: bc66 923e 175b 01bc 7c84 b73e 3fbf b8be
00000020: 67db a53e cef8 d13e 31fc d9bd 3782 df3d
00000030: a04d fabd 1038 263e db25 9abe e730 983e
00000040: 8597 0f3e 10c5 82be 429c 02bf 22d6 913d
00000050: c799 29bd f55c 57be 018e ecbd 7cf4 183e
00000060: 0097 1d3e 1660 f6be 31a2 453d f7bb 033e
00000070: c06f bf3e 660e fe3e 943f 923e ff96 65bd
00000080: a3ce 8a3d 3558 5a3e 6836 b23e 646f 5e3e
00000090: bafb 01bf acd7 c8be ce87 413e 1cd1 9cbc
000000a0: f9dd 1dbb 7595 8ebe 6af1 6fbe 76a9 e73e
000000b0: 6798 03bd 05f9 223f 1cb9 11be d2dc 1dbe
000000c0: ef2e 163f 01f3 0dbf 87aa 2cbf b13c 623c
000000d0: 5735 6b3e ad10 9d3d 6053 e43e ec67 40bf
000000e0: d62a 663e c734 bb3e 1097 123e fe65 4fbe
000000f0: 299d 6f3e 9e13 53bd de8f 0abe 254f a3bd

conv1.bias f4 [64]
-0.0065895705 0.0038957242 0.08718271 -0.09097538 0.11003873 -0.015369656 -0.04582007 0.06410483
0.1209774 -0.08369093 -0.10870293 -0.03920707 0.051861595 0.111190744 0.09296292 0.0006234342
-0.0155930035 0.037974518 0.08562259 0.040611457 -0.049850993 0.068668626 -0.022886194 -0.06290263
-0.005331293 0.04404147 0.019633971 0.0050368276 -0.08749532 0.08278184 -0.087378874 -0.0036344077
0.069939904 0.09282635 -0.014516462 0.046969168 0.03983036 0.15260224 0.008115196 0.07368844
0.018258268 0.04746037 0.057050668 0.046619996 -0.016610963 0.009497435 0.031714242 0.08946377
0.09715555 0.076273255 0.019619837 0.05444664 -0.030889647 0.09816163 0.14163709 0.02348355
0.052084498 0.042279083 0.017386636 0.1354573 0.020541402 -0.020740703 0.013127659 0.0800528
00000000: 53ed d7bb 684f 7f3b d98c b23d 4d51 babd
00000010: fc5b e13d 02d1 7bbc d3ad 3bbd 6549 833d
00000020: 00c3 f73d 2666 abbd a49f debd 9897 20bd
00000030: d36c 543d f9b7 e33d 5863 be3d f66d 233a
00000040: cc79 7fbc 2b8b 1b3d e55a af3d 3358 263d
00000050: 8e30 4cbd 23a2 8c3d d47b bbbc 18d3 80bd
00000060: 21b2 aebb d464 343d 6cd7 a03c f90b a53b
00000070: bf30 b3bd 8689 a93d b2f3 b2bd 3e2f 6ebb
00000080: a73c 8f3d be1b be3d 74d6 6dbc be62 403d
00000090: 2925 233d c343 1c3e 99f5 043c f7e9 963d
000000a0: 5d92 953c ce65 423d f6ad 693d 9cf4 3e3d
000000b0: b713 88bc 219b 1b3c cbe6 013d c838 b73d
000000c0: 7df9 c63d 2735 9c3d c8b9 a03c 7103 5f3d
000000d0: 490c fdbc f708 c93d 5009 113e 9360 c03c
000000e0: 8e56 553d d52c 2d3d 6b6e 8e3c 52b5 0a3e
000000f0: 7146 a83c 68e8 a9bc 6515 573c b9f2 a33d

conv1.lin.weight f4 [64, 89]
-0.0019488931 0.015390441 -0.14026919 0.19212182 -0.018228024 -0.037665114 -0.03429243 -0.11060796
0.05219184 -0.2837472 -0.08380357 0.14759968 -0.08226271 0.07147092 0.06782039 -0.054265413
-0.1297294 -0.22210903 0.48561603 -0.16618472 -0.045862496 -0.4150406 0.2651382 -0.088289745
0.005538684 -0.13741088 0.37463635 -0.267517 -0.12456614 -0.5490278 0.2334436 -0.48399255
0.40231454 -0.42091593 -0.57864237 0.2958675 -0.1034516 -0.16064328 0.16134779 0.14375935
-0.30054605 -0.00048475375 0.11999412 -0.009698879 0.42748958 0.001436671 -0.018578243 -0.19154632
-0.061845332 -0.1732316 0.13020483 -0.4296328 0.009389133 -0.17876361 -0.21164814 -0.17605074
-0.22333394 -0.5765659 0.45686916 -0.008566335 -0.36277452 -0.15407266 -0.4106923 0.2775925
0.047069475 -0.10522678 0.116946414 -0.06836815 -0.11971973 0.07175796 0.30878198 0.062068824
0.036699276 -0.22754069 -0.28371918 -0.22632329 0.14131369 -0.18028055 0.021379888 0.058275316
0.12059771 -0.02139586 0.16442312 0.015455275 0.24401753 0.040903404 0.1625882 0.1879934
-0.24208106 0.13737695 0.015428707 0.018379435 -0.10135958 -0.1896919 0.069718346 -0.0019622594
-0.16596875 0.018405855 -0.15811677 -0.08219337 0.115821 -0.22099677 -0.04174037 -0.17494862
0.59896874 0.007918996 0.0036264872 -0.11702366 0.094120026 -0.12962718 0.22531693 -0.30175653
-0.7898451 0.23450522 0.3575788 -0.07300375 0.24975637 0.025651827 0.07424865 0.4432929
0.47962433 0.13134755 0.091662794 0.54065436 0.30206928 -0.31395835 -0.03310852 0.14324576
0.40260246 0.10472314 0.25591314 -0.019114362 0.12508842 0.17459334 -0.14254855 0.5059045
-0.19454612 -0.12655577 -0.24063855 -0.15402387 0.07368084 0.3236495 0.12829633 0.29890364
-0.19848582 0.09743832 0.4220149 0.41048115 0.44608337 -0.1965576 -0.031457745 0.068541035
0.15716636 -0.09346792 -0.119036876 -0.09457296 -0.06619711 -0.15827525 -0.090631306 0.2491352
0.118939765 -0.1689832 -0.0049696206 0.28674695 0.060050424 -0.12697633 -0.25747102 0.3122524
-0.07627758 0.054275632 0.07931539 -0.17294799 -0.022695607 0.16041924 0.14551872 0.28932345
-0.055714183 0.075768694 0.15872653 0.18190627 0.078998074 -0.13620317 -0.12713024 0.15655656
0.057175532 0.16869132 -0.17783771 -0.29095727 -0.27261135 0.13764189 0.116324514 -0.12215799
-0.09629235 0.17042674 0.39385813 0.12602346 0.2669947 -0.106695145 0.056694455 -0.08735022
0.2884086 -0.13468456 0.224167 0.07122605 0.5780015 -0.052334793 0.16377914 0.045294296
0.17128372 -0.1523106 -0.35660893 0.042594627 -0.03334168 -0.060542338 0.12927847 -0.19416365
-0.019636258 0.47587785 -0.76492786 0.16031273 -0.00406451 0.054878294 0.49083588 0.020995455
-0.14065361 -0.36534196 -0.14894369 0.42609176 -0.07729757 0.2139336 0.06973982 0.46912864
0.669322 -0.8142138 0.37837747 0.09466372 0.041819073 0.053370837 -0.2548074 -0.032395113
-0.050391756 0.12227796 0.04228672 0.061450288 0.16952054 0.05533512 0.05366294 -0.10015801
-0.3056824 0.07231811 -0.6266618 -0.17319334 0.076913476 0.0024601645 -0.2396328 -0.047918707
00000000: 0072 ffba 3028 7c3c baa2 0fbe 95bb 443e
00000010: f052 95bc bc46 1abd 3876 0cbd 6d86 e2bd
00000020: 1cc7 553d 5047 91be 35a1 abbd 5f24 173e
00000030: 5a79 a8bd 595f 923d 6be5 8a3d 6945 5ebd
00000040: c9d7 04be 8d70 63be aaa2 f83e 542c 2abe
00000050: 50da 3bbd 3480 d4be 32c0 873e 41d1 b4bd
00000060: d97d b53b 70b5 0cbe 56d0 bf3e fdf7 88be
00000070: 881c ffbd 168d 0cbf d70b 6f3e dfcd f7be
00000080: 2cfc cd3e 4b82 d7be e821 14bf f27b 973e
00000090: 6fde d3bd ac7f 24be 5b38 253e a735 133e
000000a0: 2ce1 99be 8c26 feb9 7abf f53d 0ce8 1ebc
000000b0: eadf da3e ae4e bc3a 6631 98bc b824 44be
000000c0: 8851 7dbd a063 31be 6a54 053e d5f8 dbbe
000000d0: e1d4 193c cf0d 37be 4aba 58be a546 34be
000000e0: a7b1 64be d399 13bf c1ea e93e d059 0cbc
000000f0: 95bd b9be 39c5 1dbe 4346 d2be 9b20 8e3e
00000100: eccb 403d 2381 d7bd 9a81 ef3d 9a04 8cbd
00000110: 9e2f f5bd d6f5 923d ac18 9e3e e13b 7e3d
00000120: fb51 163d 6d00 69be a443 91be 4bc1 67be
00000130: 89b4 103e 779b 38be e024 af3c 19b2 6e3d
00000140: effb f63d 5f46 afbc 895e 283e 1f38 7d3c
00000150: bbdf 793e 548a 273d 857d 263e 5881 403e
00000160: 19e4 77be 8bac 0c3e b0c8 7c3c 7890 963c
00000170: 9d95 cfbd 983e 42be 7ec8 8e3d 4099 00bb
00000180: b6f3 29be e0c7 963c 5de9 21be ff54 a8bd
00000190: 8f33 ed3d fa4c 62be f3f7 2abd bb25 33be
000001a0: 0456 193f adbe 013c 5caa 6d3b 1aaa efbd
000001b0: 00c2 c03d fdbc 04be 7bb9 663e d57f 9abe
000001c0: 4a33 4abf 2322 703e 9214 b73e fd82 95bd
000001d0: 22c0 7f3e c823 d23c ad0f 983d 49f7 e23e
000001e0: 5291 f53e f97f 063e b4b9 bb3d 5368 0a3f
000001f0: d3a8 9a3e 26bf a0be cd9c 07bd 04af 123e
00000200: e921 ce3e 1679 d63d 0c07 833e b995 9cbc
00000210: 2e17 003e 99c8 323e 3ff8 11be f582 013f
00000220: 1937 47be d697 01be f469 76be 6fb8 1dbe
00000230: fbe5 963d 63b5 a53e 1d60 033e e609 993e
00000240: de3f 4bbe be8d c73d 5612 d83e 962a d23e
00000250: 0a65 e43e 6546 49be d6d9 00bd 3e5f 8c3d
00000260: 38f0 203e 1c6c bfbd 9bc9 f3bd 78af c1bd
00000270: 5a92 87bd e812 22be e89c b9bd 4c1d 7f3e
00000280: b196 f33d ef09 2dbe 33d8 a2bb 7fd0 923e
00000290: 6ff7 753d 1506 02be 3ed3 83be 8cdf 9f3e
000002a0: 6b37 9cbd 2050 5e3d 1b70 a23d 4719 31be
000002b0: 23ec b9bc f144 243e dc02 153e 3422 943e
000002c0: 8e34 64bd 9e2c 9b3d 3589 223e a345 3a3e
000002d0: bec9 a13d d878 0bbe 6e2e 02be 5d50 203e
000002e0: e430 6a3d 6bbd 2c3e 171b 36be 5af8 94be
000002f0: b793 8bbe fff1 0c3e 8c3b ee3d f82d fabd
00000300: ec34 c5bd 5984 2e3e c6a7 c93e 4b0c 013e
00000310: 88b3 883e fc82 dabd 7238 683d ace4 b2bd
00000320: 4baa 933e c0ea 09be 098c 653e f7de 913d
00000330: e8f7 133f 025d 56bd b8b5 273e 8386 393d
00000340: 0065 2f3e 4ff7 1bbe 7295 b6be b477 2e3d
00000350: 4991 08bd 3efb 77bd 9361 043e d6d2 46be
00000360: 38dc a0bc 43a6 f33e 50d2 43bf 0529 243e
00000370: 952f 85bb 10c8 603d d74e fb3e a9fe ab3c
00000380: 8007 10be 1a0e bbbe b284 18be b328 da3e
00000390: 304e 9ebd 6911 5b3e c0d3 8e3d a131 f03e
000003a0: b058 2b3f 5170 50bf b1ba c13e 0ddf c13d
000003b0: 7a4a 2b3d 619b 5a3d 1e76 82be bdb0 04bd
000003c0: 9667 4ebd de6c fa3d d734 2d3d 4cb3 7b3d
000003d0: cb96 2d3e 14a7 623d accd 5b3d a51f cdbd
000003e0: 6782 9cbe 841b 943d e86c 20bf 9859 31be
000003f0: d084 9d3d b63a 213b 4d62 75be 6846 44bd

conv2.att_src f4 [1, 1, 64]
-0.26572332 -0.30861652 0.05752633 0.13745147 -0.47200924 0.5003029 0.27015495 0.29122823
0.20492347 -0.34437674 0.49027985 0.16104935 -0.71933097 -0.3782634 0.13846707 0.19940755
0.45069835 0.104354285 0.5052293 0.23649704 -0.6569265 0.10757615 -0.24234436 0.5048134
-0.2255357 0.20819992 0.035565864 -0.096308835 -0.410253 0.08386447 0.3348622 -0.17167349
0.12453218 -0.33393884 -0.056778952 0.055911355 -0.4207177 0.3794516 0.35449168 -0.22800693
-0.33195594 0.01223479 -0.17062342 0.3363393 0.06567244 -0.3297007 -0.02720943 -0.2085699
-0.45287207 0.25172222 -0.17718773 0.22821996 0.04848243 0.27636728 0.26661792 -0.015389482
-0.18954235 -0.18365389 -0.52761304 0.018510623 0.3502011 0.4947962 0.38366508 0.044896927
00000000: e30c 88be fc02 9ebe bba0 6b3d 14c0 0c3e
00000010: 32ab f1be da13 003f c051 8a3e de1b 953e
00000020: 75d7 513e 2652 b0be f605 fb3e 1fea 243e
00000030: 1326 38bf beab c1be 50ca 0d3e 7e31 4c3e
00000040: efc1 e63e b3b7 d53d b556 013f 482c 723e
00000050: 562c 28bf e250 dc3d 1f29 78be 733b 013f
00000060: d5f2 66be 5c32 553e 83ad 113d 913d c5bd
00000070: ae0c d2be 23c1 ab3d 0f73 ab3e 2dcb 2fbe
00000080: ba0a ff3d 08fa aabe 0c91 68bd 4e03 653d
00000090: 4f68 d7be 7b47 c23e ef7f b53e a67a 69be
000000a0: 21f6 a9be 6e74 483c e8b7 2ebe aa34 ac3e
000000b0: 467f 863d 88ce a8be 4fe6 debc 5993 55be
000000c0: d9de e7be bce1 803e b370 35be 7eb2 693e
000000d0: 8395 463d 0380 8d3e 2582 883e 2a24 7cbc
000000e0: 6417 42be c40f 3cbe a611 07bf 97a3 973c
000000f0: 8f4d b33e ed55 fd3e c06f c43e d7e5 373d

conv2.att_dst f4 [1, 1, 64]
-0.18297748 0.15056063 -0.37766084 0.19393109 0.15986569 -0.36062497 0.33032534 0.282666
0.34067747 -0.002343025 0.36725092 0.21308674 -0.5302548 0.3768136 0.37123036 -0.18441509
0.04617156 -0.5188074 -0.13504414 0.0797028 0.34191188 0.0002771829 0.14439675 -0.134455
0.19699517 0.28311992 -0.09817868 0.3198759 0.3965784 -0.026472125 -0.007121991 0.35642555
0.49380812 -0.40464303 0.22457014 0.632889 -0.054585308 -0.05349972 -0.27261728 -0.32665953
0.1110429 0.19716741 -0.029049544 0.13026309 -0.17392159 0.5512867 -0.6038207 -0.17815562
0.039613098 0.25580877 -0.12135076 0.5509185 -0.31375727 0.31263995 -0.16075376 -0.46790794
-0.52934563 0.1981471 -0.15730925 0.022895522 0.017717952 -0.54031724 -0.37816346 -0.1303996
00000000: 735e 3bbe 912c 1a3e c35c c1be df95 463e
00000010: d5b3 233e d6a3 b8be 6720 a93e 99b9 903e
00000020: 476d ae3e 708d 19bb 5008 bc3e 6933 5a3e
00000030: c7be 07bf b6ed c03e e811 be3e 4fd7 3cbe
00000040: 641e 3d3d 90d0 04bf 0349 0abe 393b a33d
00000050: 130f af3e dc52 9139 bedc 133e 92ae 09be
00000060: 1ab9 493e 18f5 903e e711 c9bd c6c6 a33e
00000070: 530c cb3e 12dc d8bc 975f e9bb 697d b63e
00000080: 6bd4 fc3e 5f2d cfbe b7f5 653e 0305 223f
00000090: d894 5fbd 8622 5bbd 7e94 8bbe eb3f a7be
000000a0: 766a e33d 41e6 493e 4ff9 edbc b063 053e
000000b0: 8018 32be 2021 0d3f fe93 1abf 6d6e 36be
000000c0: 5841 223d 5ef9 823e bf86 f8bd ff08 0d3f
000000d0: cba4 a0be 5812 a03e a29c 24be a191 efbe
000000e0: 3283 07bf 13e7 4a3e ad15 21be 648f bb3c
000000f0: 3d25 913c 3b52 0abf a49e c1be 7987 05be

conv2.bias f4 [64]
0.11862473 0.07645404 0.070482425 0.041249137 0.025639946 0.08017641 0.1754992 0.01464299
0.10832504 -0.03586481 0.056053948 -0.0030117824 0.049773034 0.08036607 0.046654634 0.120984755
0.1833707 0.116510004 -0.08274592 0.039151214 0.0881531 -0.036626905 0.06614985 0.002199947
0.027143978 0.02433358 0.0029677385 0.092834674 0.083096966 0.02243817 0.076415405 -0.08089164
0.11558696 0.045068435 0.07960556 -0.054228477 0.20192333 -0.0076301424 0.03719378 0.015710527
0.034248378 0.037381824 0.051432192 -0.06461796 0.013571882 -0.044771705 0.004982275 0.06335839
0.03570437 0.031897638 0.021778423 0.028854372 -0.07479466 0.075608425 0.15169863 0.016853284
0.02250566 0.060918715 0.041562516 0.13580815 0.11062635 -0.02334775 -0.06949221 0.17093581
00000000: 86f1 f23d f093 9c3d 1759 903d dbf4 283d
00000010: dd0a d23c 8833 a43d 10b6 333e 27e9 6f3c
00000020: 85d9 dd3d fbe6 12bd d398 653d 5361 45bb
00000030: cfde 4b3d f796 a43d ee18 3f3d dbc6 f73d
00000040: 87c5 3b3e cc9c ee3d b176 a9bd 065d 203d
00000050: 9d89 b43d 1806 16bd 9379 873d fc2c 103b
00000060: 0c5d de3c 3757 c73c 647e 423b 1b20 be3d
00000070: be2e aa3d 41d0 b73c ae7f 9c3d 84aa a5bd
00000080: dbb8 ec3d ae99 383d 3d08 a33d ae1e 5ebd
00000090: fdc4 4e3e 4606 fabb 8158 183d 5db3 803c
000000a0: 0748 0c3d af1d 193d 90aa 523d 6c56 84bd
000000b0: 995c 5e3c 8962 37bd 5a42 a33b 0bc2 813d
000000c0: bf3e 123d 19a7 023d aa68 b23c 0160 ec3c
000000d0: f12d 99bd 97d8 9a3d e356 1b3e e60f 8a3c
000000e0: ca5d b83c e785 793d 753d 2a3d 4b11 0b3e
000000f0: 1190 e23d c843 bfbc ef51 8ebd cc09 2f3e

conv2.lin.weight f4 [64, 64]
-0.15944356 0.29161716 -0.04566536 -0.07310476 0.24815436 -0.09674239 0.15560205 0.12919712
-0.10929707 -0.24579895 -0.18700333 0.027573986 -0.02985686 0.2622456 -0.038172953 0.08480712
-0.16333042 -0.035517767 0.23301856 -0.18972245 -0.13310589 -0.29032347 0.04973746 -0.23360309
-0.1554824 -0.17848572 -0.053293295 0.21733479 -0.054295957 0.13766521 -0.27689713 0.084059976
0.4265275 -0.0881315 0.04263804 0.17726924 0.17245771 -0.12654762 0.026162269 0.25679028
0.21424621 0.098944664 0.4590889 0.15962361 0.088453166 0.14845836 0.026216118 0.49108738
0.14208497 0.23156705 -0.24438451 -0.18652844 0.015327232 0.045314323 -0.105443396 -0.16295259
0.034219533 -0.25319418 0.107581735 0.05703378 -0.23237073 0.20864612 0.09880359 -0.040701974
-0.089980304 0.28647345 -0.34314626 0.17686582 0.11912389 -0.016842855 -0.21660213 0.16010334
0.19041191 -0.08189008 0.05222613 -0.024715796 -0.027660351 -0.29186234 -0.035464775 -0.1929736
-0.10069522 0.16151719 -0.5877514 0.062472366 -0.18959817 -0.35742623 0.0660189 0.19590695
-0.054175388 0.48281983 0.122625284 0.163638 -0.123299606 0.056825317 0.14146297 0.061154425
-0.008444396 0.10055961 0.35391435 -0.4177102 -0.31965575 0.061522733 -0.14405847 -0.08157987
-0.11131032 0.0047042235 0.18753166 -0.041307755 -0.020521218 0.028993515 0.034881286 0.2518966
-0.0008125336 0.18804385 0.073423184 0.13350998 -0.107459426 0.06272286 -0.20513995 0.055704106
0.099564314 -0.02016349 0.11402962 0.19002806 -0.12514894 -0.078467116 0.12948917 -0.3760135
-0.3498648 0.23044607 0.2710903 0.07723844 0.09351941 -0.13847387 -0.10320763 0.08989133
0.078416675 -0.23274882 -0.08686226 0.26103717 -0.086350575 0.2985417 0.041559365 -0.11838258
-0.100753985 -0.20690657 0.41950735 0.14434437 0.1930782 0.22939356 0.27539006 -0.03661119
-0.48456362 -0.04853581 0.20773067 0.11112901 0.0963978 -0.51996225 0.077055275 0.008141212
0.03826706 -0.10367834 0.14478967 -0.4419374 0.2790654 0.020781828 0.1353703 0.1808923
0.16494094 0.08102421 0.20170557 0.18991537 -0.23864636 -0.34048533 0.15100838 -0.098463625
0.11141113 0.060443137 0.10958183 -0.013439269 -0.29786962 -0.1669276 -0.30951265 0.33772326
-0.2364931 -0.55373055 -0.27109903 -0.45877373 -0.311973 0.096696235 -0.13547756 0.044795774
0.12947245 0.24770166 -0.27227202 0.19585347 -0.16352563 -0.11873366 -0.011444859 -0.07089229
0.103575975 -0.07145268 -0.14917536 0.3101644 0.1175897 -0.3451366 -0.09347903 -0.45434055
-0.112942085 0.34066364 0.188279 -0.20926008 0.24758415 0.012835304 0.00495903 -0.0038120332
0.30453432 0.499807 0.08863041 -0.008456021 0.3104796 -0.09104774 -0.059176266 0.39679664
0.13030525 0.31806847 0.012555172 0.12602215 -0.18000074 0.275543 -0.0106808115 -0.1337717
0.064880006 0.099684335 0.0007907914 -0.111580424 0.217657 -0.2099336 0.042636123 -0.020003086
0.12443193 -0.31819534 0.49570233 -0.008299762 -0.07093803 -0.26343393 -0.0784848 0.36269557
-0.04456005 0.14491001 -0.23598565 -0.33565226 0.007864186 -0.4933189 0.015377285 -0.059631787
00000000: 2c45 23be d84e 953e 9a0b 3bbd f3b7 95bd
00000010: 2d1c 7e3e e020 c6bd 2556 1f3e 404c 043e
00000020: 24d7 dfbd b8b2 7bbe cd7d 3fbe d7e2 e13c
00000030: 6096 f4bc 0e45 863e 3e5b 1cbd 5baf ad3d
00000040: 1740 27be 147b 11bd 6b9c 6e3e 9a46 42be
00000050: e94c 08be 47a5 94be 82b9 4b3d a635 6fbe
00000060: c736 1fbe f6c4 36be 124a 5abd 038d 5e3e
00000070: 7065 5ebd 1cf8 0c3e 76c5 8dbe a327 ac3d
00000080: d061 da3e 4a7e b4bd 3aa5 2e3d 1186 353e
00000090: c198 303e b395 01be 4152 d63c 047a 833e
000000a0: 5c63 5b3e 80a3 ca3d b30d eb3e 5f74 233e
000000b0: ef26 b53d 7805 183e 2fc3 d63c ce6f fb3e
000000c0: b97e 113e ea1f 6d3e ef3f 7abe 5001 3fbe
000000d0: 121f 7b3c 839b 393d b5f2 d7bd 0bdd 26be
000000e0: c829 0c3d aba2 81be d053 dc3d 419c 693d
000000f0: 98f2 6dbe 54a7 553e 8959 ca3d 1db7 26bd
00000100: 9847 b8bd a6ac 923e deb0 afbe 501c 353e
00000110: 3af7 f33d 07fa 89bc f3cc 5dbe 21f2 233e
00000120: 57fb 423e fcb5 a7bd 11eb 553d c878 cabc
00000130: f697 e2bc fb6e 95be 8343 11bd df9a 45be
00000140: 4c39 cebd c364 253e e076 16bf 06e3 7f3d
00000150: 0626 42be 9200 b7be eb34 873d d59b 483e
00000160: 03e7 5dbd 2934 f73e f722 fb3d b890 273e
00000170: 8184 fcbd aac1 683d abdb 103e 107d 7a3d
00000180: 5d5a 0abc 32f2 cd3d 4334 b53e 1dde d5be
00000190: eba9 a3be 43ff 7b3d 1084 13be 5913 a7bd
000001a0: aaf6 e3bd e325 9a3b 4d08 403e 5232 29bd
000001b0: 1d1c a8bc cf83 ed3c aedf 0e3d 97f8 803e
000001c0: 3500 55ba 918e 403e e55e 963d d7b6 083e
000001d0: b013 dcbd d874 803d 3510 52be fd29 643d
000001e0: 60e8 cb3d e72d a5bc 5d88 e93d b796 423e
000001f0: 0b27 00be 5eb3 a0bd cf98 043e d784 c0be
00000200: 7b21 b3be 0efa 6b3e 59cc 8a3e 302f 9e3d
00000210: 1b87 bf3d 18cc 0dbe 865e d3bd f218 b83d
00000220: ec98 a03d b555 6ebe d7e4 b1bd aaa6 853e
00000230: 92d8 b0bd 75da 983e 273a 2a3d 9172 f2bd
00000240: 1b58 cebd 51df 53be abc9 d63e 03cf 133e
00000250: 4bb6 453e 25e6 6a3e edff 8c3e 9df5 15bd
00000260: b918 f8be 7ccd 46bd 59b7 543e 9b97 e33d
00000270: 366c c53d 3f1c 05bf 28cf 9d3d b862 053c
00000280: ecbd 1c3d 4f55 d4bd be43 143e 9e45 e2be
00000290: a9e1 8e3e a73e aa3c 839e 0a3e d53b 393e
000002a0: 47e6 283e 05f0 a53d e88b 4e3e 2d79 423e
000002b0: b65f 74be 1854 aebe f1a1 1a3e 4ca7 c9bd
000002c0: 852b e43d 3993 773d 706c e03d 6130 5cbc
000002d0: 5e82 98be 12ef 2abe 7178 9ebe 10ea ac3e
000002e0: 3f2b 72be 49c1 0dbf 7ecd 8abe 64e4 eabe
000002f0: edba 9fbe ad08 c63d a1ba 0abe c67b 373d
00000300: 6d94 043e 81a5 7d3e 3d67 8bbe d08d 483e
00000310: 4373 27be a22a f3bd 3883 3bbc fa2f 91bd
00000320: a41f d43d c855 92bd 6dc1 18be decd 9e3e
00000330: ded2 f03d bfb5 b0be ef71 bfbd 539f e8be
00000340: 2e4e e7bd 776b ae3e 36cc 403e 4648 56be
00000350: b386 7d3e 2b4b 523c 5c7f a23b 4ed3 79bb
00000360: eceb 9b3e b4e6 ff3e dc83 b53d 1f8b 0abc
00000370: 2ff7 9e3e 3d77 babd d062 72bd ee28 cb3e
00000380: bd6e 053e dfd9 a23e 35b4 4d3c f30b 013e
00000390: 1d52 38be f913 8d3e 92fe 2ebc 73fb 08be
000003a0: cfdf 843d 4d27 cc3d 1d4d 4f3a 4784 e4bd
000003b0: 7ae1 5e3e d5f8 56be 37a3 2e3d 83dd a3bc
000003c0: 2bd6 fe3d 80ea a2be b2cc fd3e bafb 07bc
000003d0: f547 91bd d0e0 86be a4bc a0bd 3cb3 b93e
000003e0: 9984 36bd 4a63 143e 39a6 71be 9dda abbe
000003f0: c9d8 003c 4b94 fcbe 02f1 7b3c 7640 74bd

conv3.att_src f4 [1, 1, 64]
0.15222307 0.104633704 -0.078673795 -0.12752491 -0.43354014 -0.28925225 0.24824348 -0.2565473
-0.44736814 -0.027873062 -0.033206653 0.18295842 0.3163878 0.23358697 0.10886712 0.2473699
-0.1894795 -0.051889613 0.24944638 0.13305715 0.11789573 -0.26207393 0.07681206 -0.33611196
0.5064542 -0.36076117 0.39859614 -0.23024829 0.15255222 0.2556445 -0.1335422 0.33955002
-0.22851992 0.13734035 0.0841308 -0.01750547 -0.21567632 0.2747094 0.35464337 -0.33084017
0.21718523 -0.13594885 0.21776834 0.18204646 -0.026021034 -0.05297517 0.003709966 -0.01781079
0.14759177 0.40188906 -0.099828474 0.34254554 0.08967991 0.26307133 -0.18572423 -0.3749488
-0.30538628 -0.1591578 0.02873464 -0.16945437 0.12107936 -0.3150639 0.28164622 0.36569107
00000000: 5de0 1b3e 324a d63d ba1f a1bd e495 02be
00000010: f9f8 ddbe df18 94be 8a33 7e3e 2b5a 83be
00000020: 700d e5be 0c56 e4bc b303 08bd 7459 3b3e
00000030: 95fd a13e 6c31 6f3e baf5 de3d 894e 7d3e
00000040: ea06 42be 348a 54bd df6e 7f3e 2240 083e
00000050: 5173 f13d 8e2e 86be a44f 9d3d de16 acbe
00000060: fca6 013f b0b5 b8be cb14 cc3e 35c6 6bbe
00000070: a636 1c3e d6e3 823e 49bf 08be 80d9 ad3e
00000080: 2001 6abe f3a2 0c3e c54c ac3d a267 8fbc
00000090: 41da 5cbe b6a6 8c3e d193 b53e e263 a9be
000000a0: ce65 5e3e 2d36 0bbe aafe 5e3e 636a 3a3e
000000b0: 102a d5bc 7efc 58bd e722 733b efe7 91bc
000000c0: 4c22 173e 67c4 cd3e df72 ccbd 2162 af3e
000000d0: 1aaa b73d 49b1 863e 7e2e 3ebe 4af9 bfbe
000000e0: 975b 9cbe 43fa 22be e864 eb3c 7285 2dbe
000000f0: 75f8 f73d 0e50 a1be ef33 903e dc3b bb3e

conv3.att_dst f4 [1, 1, 64]
-0.044351462 0.019928813 -0.09905202 -0.21144651 0.026484767 -0.16507901 0.14145184 0.057751007
-0.06922285 -0.21622607 -0.080327325 0.15847574 0.04822208 0.06642583 0.4546447 -0.11490377
0.20173426 -0.18133155 0.059457492 -0.060706273 -0.19114771 -0.06819169 -0.17279315 -0.11784526
-0.07321324 0.29671654 -0.23314208 0.19268918 -0.22699557 0.26757735 0.037700765 -0.18616915
0.013074266 -0.14229563 0.3474983 0.24731942 -0.08300341 -0.15347138 -0.019804472 0.16310284
-0.15342668 -0.34605992 -0.16333368 0.19433947 -0.29623154 -0.07073323 0.54418296 0.050475266
-0.050665006 0.21272084 0.24860393 0.26933992 -0.20095214 -0.11504392 -0.051637404 -0.0701139
0.043673757 0.3217277 -0.25241834 0.4778564 -0.06755663 0.21178918 0.09592832 -0.10807833
00000000: e1a9 35bd c041 a33c c9db cabd 6f85 58be
00000010: 95f6 d83c 790a 29be c0d8 103e 528c 6c3d
00000020: b6c4 8dbd 5e6a 5dbe a782 a4bd 7747 223e
00000030: 8484 453d 440a 883d 31c7 e83e ab52 ebbd
00000040: 6d93 4e3e faae 39be b389 733d 24a7 78bd
00000050: 3abc 43be 16a8 8bbd b0f0 30be db58 f1bd
00000060: d3f0 95bd 3beb 973e ccbc 6ebe 5050 453e
00000070: 8771 68be e6ff 883e 1e6c 1a3d 20a3 3ebe
00000080: 7235 563c f2b5 11be 4ceb b13e 4d41 7d3e
00000090: b1fd a9bd 9a27 1dbe fd3c a2bc 6e04 273e
000000a0: e21b 1dbe c42e b1be f240 27be ed00 473e
000000b0: a9ab 97be 95dc 90bd 934f 0b3f 27bf 4e3d
000000c0: 1c86 4fbd 7ed3 593e 0792 7e3e ece6 893e
000000d0: 66c6 4dbe 269c ebbd be81 53bd e097 8fbd
000000e0: 41e3 323d 7eb9 a43e fa3c 81be 98a9 f43e
000000f0: 215b 8abd 43df 583e 1176 c43d 2c58 ddbd

conv3.bias f4 [64]
0.00646063 -0.008739069 0.015598665 -0.04308173 -0.002980525 -0.0022068622 0.04910815 0.0013475025
-0.004865262 -0.011068634 -0.0070884037 -0.0011650147 0.023824614 -0.0042777588 0.024221905 0.026071727
-0.00266234 -0.012039891 -0.0014438424 -0.012314718 -0.067643374 -0.023574267 0.014214028 -0.08628702
-0.02502919 0.002080057 0.0032974626 0.0142480545 0.007205938 -0.006823454 0.004435467 0.005819524
0.016080424 -0.0012754241 -0.04204319 -0.020732088 -0.0018719864 -0.005596585 0.04068021 -0.023107653
-0.03614472 -0.024102109 0.024826745 0.03226149 -0.04112962 -0.0042068535 0.0229408 -0.01109175
-0.045766503 -0.01784045 -9.772208e-05 -0.00069524534 0.04438126 0.006409742 -6.313254e-05 0.006206162
-0.015919117 -0.0011615558 -0.0043415674 -0.04528903 -0.023984931 0.007241811 -0.008226436 -0.00046674424
00000000: b1b3 d33b 502e 0fbc 8b91 7f3c 7876 30bd
00000010: e954 43bb 01a1 10bb a125 493d ae9e b03a
00000020: c76c 9fbb 3759 35bc d745 e8bb 68b3 98ba
00000030: d62b c33c 712c 8cbb 046d c63c 6094 d53c
00000040: a77a 2ebb f742 45bc 503f bdba acc3 49bc
00000050: 9c88 8abd d21e c1bc f4e1 683c 40b7 b0bd
00000060: 040a cdbc 9151 083b 3e1a 583b ac70 693c
00000070: ca1f ec3b 4897 dfbb 6557 913b b5b1 be3b
00000080: 18bb 833c 222c a7ba 7b35 2cbd 57d6 a9bc
00000090: 715d f5ba 8f63 b7bb 4ba0 263d 434c bdbc
000000a0: 7c0c 14bd c971 c5bc 7561 cb3c a024 043d
000000b0: 8877 28bd a5d9 89bb 58ee bb3c 2cba 35bc
000000c0: a875 3bbd 2326 92bc 24f0 ccb8 2041 36ba
000000d0: 20c9 353d d008 d23b 0666 84b8 0f5d cb3b
000000e0: cf68 82bc 583f 98ba b543 8ebb fd80 39bd
000000f0: 0c7c c4bc b74c ed3b 2cc8 06bc 5ab5 f4b9

conv3.lin.weight f4 [64, 64]
-0.09693412 0.19955233 0.3128474 0.10416662 0.037054036 -0.31897512 -0.13700527 -0.08852967
0.060087245 -0.19205736 -0.1583588 -0.009529059 -0.032660734 0.22672756 0.22439046 0.40321046
-0.21930203 -0.043958936 0.09035917 -0.041190773 -0.11984326 -0.17000291 0.09847117 -0.15481272
-0.053731196 -0.10766858 0.08005845 -0.20606571 0.17257063 -0.17002381 0.009185766 -0.022172866
-0.16977274 0.23616311 0.2602395 0.117885284 0.051043224 -0.025381828 0.42868993 0.18914893
0.22128773 -0.11786427 -0.13611986 0.09426531 0.28748363 -0.057444546 0.08057922 -0.06253886
0.08755934 -0.020727871 0.18807574 0.29868484 0.08208537 -0.2685482 -0.17135675 0.20561741
0.10022231 -0.13470432 -0.13384663 -0.05464179 -0.0030684988 0.17451115 -0.20494172 0.057604536
0.0009432507 0.092232615 -0.2649561 -0.020305805 0.25337985 0.2076911 -0.110654145 0.06529846
0.03672233 0.1676089 0.16042367 -0.018910713 -0.04015065 -0.12777004 0.05976124 -0.049908478
0.13886678 0.15165539 -0.27013323 -0.28784326 -0.01959915 -0.12776774 -0.020852288 -0.1232897
0.2626893 -0.14014673 0.068915114 0.037583437 0.2392992 0.504283 -0.29988587 0.21026039
-0.37152794 -0.23307079 -0.19132404 0.0663557 -0.10149174 -0.38834044 0.0395419 0.13867955
-0.016812913 0.19144104 0.27660146 -0.09183692 -0.058505293 0.12485531 -0.001972436 0.07844251
-0.1740425 -0.24172351 -0.18765372 0.3181936 0.145693 0.14535645 -0.32142118 -0.0436669
-0.24714273 -0.13255268 -0.0042853 0.04438499 0.009030237 0.13519543 0.107666224 -0.14099221
-0.046270166 0.10757235 -0.36175346 0.23674065 0.055397246 0.09921563 -0.09248293 0.15508327
0.19381426 -0.36829332 -0.10209776 0.033390805 -0.008292119 -0.04874291 -0.1468247 -0.36118358
0.36191154 0.10647214 -0.20086047 0.13797227 0.051999606 0.018178185 -0.1792193 -0.092014305
0.051593468 0.06187188 -0.1319526 -0.18561214 0.181811 0.045576204 -0.021492796 0.07954614
0.28136107 0.028500648 -0.21447627 0.1226897 0.049110617 0.10229818 0.012910554 -0.3641602
-0.25827965 -0.10263698 -0.28851357 -0.108515106 -0.07302158 -0.20021601 0.028730236 -0.26415932
-0.0031698202 -0.26892623 0.083559655 -0.09671839 -0.16028708 -0.24622416 0.04930614 -0.26175815
-0.053472463 -0.313376 0.27911547 -0.14016733 -0.029797005 -0.1947622 -0.07548648 -0.055477384
-0.28748152 -0.0751843 0.35938075 0.24842095 0.19530243 -0.20174587 -0.21277684 -0.05812679
-0.12133427 0.1684996 -0.18924914 -0.017544828 0.08223313 -0.12718518 0.15802766 0.07723524
-0.10779885 -0.1693497 0.47232282 0.15424187 -0.19081275 -0.08948034 -0.22525977 0.19146924
-0.3680966 -0.20311335 -0.2849468 -0.23261319 -0.27653164 -0.10525461 0.09883682 0.3196183
0.008084072 -0.24387047 0.2048634 0.076692395 -0.0975493 -0.36339635 -0.10990932 0.1775796
0.4122473 0.15154225 0.19090916 0.19543448 0.17751385 -0.29698768 0.23252016 0.20335531
0.35498333 0.12139531 0.19782421 0.39229092 -0.32563248 -0.21963039 0.105524436 -0.17499194
0.29321665 -0.058445346 0.2578727 0.12458808 0.447438 0.14089482 -0.06843859 0.07097151
00000000: 6585 c6bd 7257 4c3e 892d a03e 4f55 d53d
00000010: f9c5 173d b550 a3be 1c4b 0cbe 0b4f b5bd
00000020: 0b1e 763d afaa 44be cf28 22be c51f 1cbc
00000030: 43c7 05bd 452b 683e 9dc6 653e 9a71 ce3e
00000040: b690 60be 490e 34bd 3b0e b93d a8b7 28bd
00000050: 6270 f5bd 3e15 2ebe 41ab c93d 3a87 1ebe
00000060: 3e15 5cbd 5881 dcbd aff5 a33d e402 53be
00000070: 5bb6 303e b91a 2ebe e57f 163c dfa3 b5bc
00000080: e8d8 2dbe bed4 713e 1d3e 853e d76d f13d
00000090: b312 513d 8ded cfbc 3f7d db3e 42b0 413e
000000a0: 4099 623e d362 f1bd 0163 0bbe 2c0e c13d
000000b0: 0e31 933e f94a 6bbd b806 a53d 6014 80bd
000000c0: 5052 b33d 7fcd a9bc ed96 403e 38ed 983e
000000d0: 601c a83d 267f 89be 2578 2fbe 5f8d 523e
000000e0: 5b41 cd3d eeef 09be 170f 09be 12d0 5fbd
000000f0: de18 49bb 0db3 323e 3edc 51be bcf2 6b3d
00000100: 7c44 773a 74e4 bc3d 53a8 87be 5c58 a6bc
00000110: 01bb 813e faac 543e a49e e2bd 33bb 853d
00000120: 276a 163d aba1 2b3e 1a46 243e a4ea 9abc
00000130: 0275 24bd 26d6 02be 34c8 743d d56c 4cbd
00000140: 1833 0e3e 8d4b 1b3e e74e 8abe 3160 93be
00000150: 668e a0bc 8cd5 02be 6bd2 aabc 4f7f fcbd
00000160: 367f 863e a082 0fbe 5e23 8d3d 17f1 193d
00000170: d90a 753e b118 013f a48a 99be 804e 573e
00000180: e938 bebe 1caa 6ebe 73ea 43be 7fe5 873d
00000190: e7da cfbd 8fd4 c6be b0f6 213d 0302 0e3e
000001a0: 3cbb 89bc 1f09 443e b59e 8d3e ff14 bcbd
000001b0: 3fa3 6fbd 24b4 ff3d fc43 01bb 77a6 a03d
000001c0: 3238 32be 5e86 77be 4c28 40be 46ea a23e
000001d0: 8c30 153e 52d8 143e 5191 a4be 10dc 32bd
000001e0: fc12 7dbe e4bb 07be b46b 8cbb 09cd 353d
000001f0: 8ff3 133c ac70 0a3e 1c80 dc3d 4360 10be
00000200: c985 3dbd e44e dc3d c037 b9be 246c 723e
00000210: 39e8 623d 9031 cb3d b167 bdbd 26ce 1e3e
00000220: 3f77 463e f190 bcbe a118 d1bd ccc4 083d
00000230: abdb 07bc a5a6 47bd 3759 16be 0eed b8be
00000240: 784c b93e 110e da3d 5eae 4dbe 9a48 0d3e
00000250: 8afd 543d 6bea 943c 4485 37be ff71 bcbd
00000260: ac53 533d 5e6d 7d3d 951e 07be 1c11 3ebe
00000270: aa2c 3a3e 1dae 3a3d a911 b0bc 16e9 a23d
00000280: 8f0e 903e 317a e93c ab9f 5bbe bd44 fb3d
00000290: 3728 493d b581 d13d ca86 533c 3573 babe
000002a0: 3b3d 84be 5633 d2bd 0db8 93be 2b3d debd
000002b0: 578c 95bd 6d05 4dbe ac5b eb3c e43f 87be
000002c0: c2bc 4fbb b3b0 89be 5321 ab3d 4b14 c6bd
000002d0: 4c22 24be 3022 7cbe 3cf5 493d 2a05 86be
000002e0: f105 5bbd d272 a0be 39e8 8e3e 0688 0fbe
000002f0: d918 f4bc be6f 47be a898 9abd 413c 63bd
00000300: c730 93be 3afa 99bd c100 b83e 1062 7e3e
00000310: 5cfd 473e 7896 4ebe 2ce2 59be 5b16 6ebd
00000320: 1a7e f8bd 298b 2c3e 87ca 41be 2cba 8fbc
00000330: d869 a83d d53c 02be 01d2 213e 822d 9e3d
00000340: a5c5 dcbd 026a 2dbe 4cd4 f13e 95f1 1d3e
00000350: 6b64 43be 7841 b7bd 7faa 66be 8310 443e
00000360: 2877 bcbe f2fc 4fbe 8ce4 91be 2732 6ebe
00000370: 8e95 8dbe bb8f d7bd f56a ca3d 03a5 a33e
00000380: 0e73 043c 2eb9 79be b6c7 513e e710 9d3d
00000390: edc7 c7bd 160f babe 2318 e1bd 6dd7 353e
000003a0: 1412 d33e e42d 1b3e b17d 433e fa1f 483e
000003b0: 31c6 353e c50e 98be c419 6e3e 603c 503e
000003c0: 60c0 b53e 1b9e f83d 6e92 4a3e 5bda c83e
000003d0: 4db9 a6be cae6 60be 321d d83d 1631 33be
000003e0: 7e20 963e 6364 6fbd e407 843e 0928 ff3d
000003f0: 9816 e53e bb46 103e 8829 8cbd 8359 913d

lin.weight f4 [2, 128]
-0.055240467 0.056041844 0.07748701 -0.24102709 -0.101727925 0.062515035 0.1737383 -0.02692376
-0.21142074 -0.06000753 -0.16864218 0.13181676 0.19700575 -0.07607516 0.15229066 0.1222268
-0.1532095 -0.09314464 -0.002747616 -0.07607129 -0.00092150946 -0.1367468 0.024030475 -0.143741
0.010612236 -0.075082526 0.11435339 -0.10953318 -0.055884942 -0.0173547 0.04000852 -0.13678597
-0.12830974 -0.03860784 -0.059950866 -0.11754779 -0.09770363 0.15519209 0.13837318 0.02425108
0.14509366 0.007020354 0.15673493 0.052833255 -0.16682942 -0.09675092 -0.09967269 -0.055928286
-0.037464462 0.19968195 -0.04509298 0.089079134 0.09136718 -0.037872847 -0.15694368 -0.23817007
-0.26259887 -0.13064249 -0.071553186 -0.20985399 -0.067451194 -0.17484343 0.13702333 -0.020344164
-0.06608977 0.18243304 -0.053903334 0.16902447 0.26319146 -0.1744677 -0.501691 0.23299871
-0.013477901 -0.089126185 -0.13636929 0.28072077 -0.3369598 0.21036744 -0.23181552 -0.3622564
0.03490418 -0.12933977 -0.14863312 0.05129833 -0.06514485 0.13103193 -0.686052 0.094952114
0.012717141 -0.0995775 -0.15492862 0.08953573 0.45512164 0.1861275 -0.45876962 0.1766789
0.0046735983 0.27125454 -0.11068565 -0.04557146 -0.021081682 0.09512668 -0.3869654 -0.12644042
0.23590103 -0.025427448 -0.09377858 -0.12205532 0.30613697 -0.073537484 0.17309028 -0.06422495
-0.08001494 -0.101314574 -0.1828653 -0.13067798 -0.3084474 0.31018758 -0.026620945 -0.027004136
0.25361508 0.40265638 0.056941826 0.409853 0.10957642 -0.052080985 0.15858805 0.54233915
0.07536932 0.0747791 -0.0902103 0.20458962 0.22147098 -0.0096794665 -0.106432416 0.008436127
0.17396915 0.14749199 0.137319 -0.14373642 -0.20160447 0.036758456 -0.11689097 -0.07622814
0.1319767 0.010811864 -0.048874594 0.06313041 -0.1109741 0.17608644 -0.07250886 0.14619109
-0.11783296 0.07860315 -0.01886187 0.18543854 -0.0070421733 -0.02813408 -0.06527134 0.087111995
0.0054236003 0.026277127 -0.06600551 0.09068734 0.044622466 -0.14114496 -0.101646 -0.028268244
-0.13372108 0.13158931 -0.026082758 -0.07052774 0.14835587 0.11651427 0.035516422 0.1267717
-0.032226577 -0.05686133 0.038360037 -0.10112474 -0.221263 -0.06790757 0.09238796 0.08702591
0.24123052 0.026355376 0.16454993 0.19149162 0.03267836 0.18433072 -0.07386669 0.08114755
0.020141624 -0.15432025 0.088488705 -0.17703493 -0.2907932 0.15791613 0.584421 -0.26748455
0.09858111 0.12910326 0.064416476 -0.27937308 0.3838599 -0.19796652 0.28422627 0.39624956
-0.053131957 0.13020895 0.10690212 -0.061139803 0.10163407 -0.052013945 0.6648948 -0.13584024
0.11017202 -0.03402887 0.169436 -0.11735622 -0.5430207 -0.2086504 0.46279323 -0.13377087
0.0066262917 -0.28987506 0.03255369 -0.00024601273 0.03153662 -0.094843075 0.25799993 0.13866563
-0.13017082 0.1120383 0.021664781 0.21400282 -0.32163572 0.07651384 -0.10010068 0.09087963
0.026630562 0.07839009 0.14790273 0.013454381 0.28429577 -0.27765772 0.098708116 -0.07499441
-0.20629178 -0.32665184 0.04024698 -0.2748489 0.019453919 -0.04906852 -0.007916412 -0.54156584
00000000: d443 62bd 228c 653d 82b1 9e3d cecf 76be
00000010: bb56 d0bd e207 803d 74e8 313e 388f dcbc
00000020: ae7e 58be 75ca 75bd 89b0 2cbe f9fa 063e
00000030: e0bb 493e 4bcd 9bbd 15f2 1b3e 0b52 fa3d
00000040: f3e2 1cbe 9ec2 bebd 5911 34bb 44cb 9bbd
00000050: 7491 71ba 5a07 0cbe 8fdb c43c d730 13be
00000060: f2de 2d3c dec4 99bd 1c32 ea3d ef52 e0bd
00000070: 9ce7 64bd 722b 8ebc f9df 233d 9f11 0cbe
00000080: a163 03be 4123 1ebd 0a8f 75bd e5bc f0bd
00000090: d718 c8bd adea 1e3e b3b1 0d3e 33aa c63c
000000a0: 6f93 143e ff0a e63b 1f7f 203e af67 583d
000000b0: 55d5 2abe 5925 c6bd 3221 ccbd 0f15 65bd
000000c0: 5674 19bd 6d79 4c3e 6bb3 38bd 1f6f b63d
000000d0: b71e bb3d 8f20 1bbd d8b5 20be dbe2 73be
000000e0: 5c73 86be 25c7 05be 7a8a 92bd f7e3 56be
000000f0: da23 8abd 280a 33be d84f 0c3e cea8 a6bc
00000100: 135a 87bd bacf 3a3e bec9 5cbd c014 2d3e
00000110: 08c1 863e a9a7 32be d26e 00bf 3797 6e3e
00000120: 6ad2 5cbc ca87 b6bd 64a4 0bbe a2ba 8f3e
00000130: ff85 acbe 906a 573e 0c61 6dbe ac79 b9be
00000140: aff7 0e3d a571 04be 4833 18be 331e 523d
00000150: aa6a 85bd 3c2d 063e 1ba1 2fbf 4176 c23d
00000160: 8e5b 503c 4aef cbbd 9ca5 1ebe 825e b73d
00000170: b405 e93e 3598 3e3e dae3 eabe 50eb 343e
00000180: fc24 993b e0e1 8a3e 28af e2bd 24a9 3abd
00000190: 7eb3 acbc c7d1 c23d 5420 c6be 9979 01be
000001a0: 0a90 713e 394d d0bc fc0e c0bd 24f8 f9bd
000001b0: fcbd 9c3e d29a 96bd 943e 313e 5f88 83bd
000001c0: dfde a3bd 047e cfbd 0b41 3bbe 73d0 05be
000001d0: d1ec 9dbe e8d0 9e3e 2b14 dabc c737 ddbc
000001e0: d6d9 813e fa28 ce3e d53b 693d 41d8 d13e
000001f0: 9a69 e03d df52 55bd e864 223e bdd6 0a3f
00000200: 3b5b 9a3d c925 993d 2ec0 b8bd f17f 513e
00000210: 4ac9 623e a096 1ebc 3df9 d9bd ae37 0a3c
00000220: f824 323e 2408 173e 5a9d 0c3e a42f 13be
00000230: 6771 4ebe 0990 163d 8864 efbd 801d 9cbd
00000240: e624 073e 3f24 313c ba30 48bd 844a 813d
00000250: 6446 e3bd 0150 343e 867f 94bd 1eb3 153e
00000260: 6852 f1bd b0fa a03d 3584 9abc 9ae3 3d3e
00000270: 08c2 e6bb 7179 e6bc fbac 85bd c667 b23d
00000280: 75b8 b13b 2143 d73c e62d 87bd 49ba b93d
00000290: 0cc6 363d 4e88 10be c72b d0bd ce92 e7bc
000002a0: 2eee 08be 59bf 063e 82ab d5bc d970 90bd
000002b0: 9aea 173e 099f ee3d ab79 113d 71d0 013e
000002c0: 0400 04bd 6de7 68bd 6a1f 1d3d 7d1a cfbd
000002d0: c592 62be 2013 8bbd e635 bd3d a43a b23d
000002e0: 2205 773e 3be7 d73c c77f 283e 6116 443e
000002f0: bed9 053d 31c1 3c3e 6b47 97bd b030 a63d
00000300: 0c00 a53c 2106 1ebe 9139 b53d a548 35be
00000310: d9e2 94be c4b4 213e 9d9c 153f bcf3 88be
00000320: e5e4 c93d a533 043e c9ec 833d fd09 8fbe
00000330: 4989 c43e bcb7 4abe 1b86 913e 39e1 ca3e
00000340: e5a0 59bd 7f55 053e 80ef da3d bb6d 7abd
00000350: 8625 d03d 930c 55bd 8c36 2a3f b419 0bbe
00000360: dea1 e13d db61 0bbd a180 2d3e 7558 f0bd
00000370: 6803 0bbf 73a8 55be 3cf3 ec3e 3bfb 08be
00000380: 5d21 d93b 816a 94be 0557 053d 45fb 80b9
00000390: 8b2c 013d 163d c2bd 9118 843e 5dfe 0d3e
000003a0: 804b 05be 5674 e53d 577a b13c 8e23 5b3e
000003b0: 70ad a4be 4ab3 9c3d 9601 cdbd 191f ba3d
000003c0: 5628 da3c fc8a a03d d073 173e c46f 5c3c
000003d0: 378f 913e 2729 8ebe 7b27 ca3d ab96 99bd
000003e0: 273e 53be e93e a7be 04da 243d ffb8 8cbe
000003f0: d35d 9f3c 13fc 48bd d7b3 01bc 0fa4 0abf

lin.bias f4 [2]
0.030671924 -0.08787552
00000000: b043 fb3c 15f8 b3bd
